src/scenario_eval_model/model_dir/improve_v0/gnn_binary_classification_model_1.pt (torch, 647634 bytes, 47 tensors)

node_gat1.att_src f4 [1, 4, 64]
000000 e6 10 16 3e 8e fc 94 3e 76 20 ec be 26 6b c2 3d
       0.14654884 0.29098934 -0.46118516 0.09493093
000010 8c 5b c0 bd 1b d6 37 3e da 66 62 3f 7f c4 30 bd
       -0.09392461 0.17952769 0.8843819 -0.043156143
000020 ec c9 63 be 87 d3 0e be 5b 35 a6 3e 14 58 3f 3e
       -0.22244996 -0.13947879 0.32462582 0.18685943
000030 e6 38 47 bf 43 3e 31 3d a2 35 68 be 4c 9c 1c 3e
       -0.77821195 0.043272268 -0.2267671 0.15293998
000040 d2 14 52 3d cb 58 ed 3c 81 14 01 bd ee 22 44 3d
       0.051289387 0.028973004 -0.031513695 0.047884874
000050 50 7c 97 3c f4 e7 54 3e 62 56 1e be 6c fd 30 3e
       0.018491894 0.20791608 -0.1546264 0.17284173
000060 34 3b b1 bc dd cb c2 3e d5 ab 72 3e c8 7f ad 3e
       -0.021634676 0.3804616 0.23698361 0.33886552
000070 ca 07 c8 3e a9 16 a1 3e 8d 2a 02 be d1 59 55 be
       0.39068443 0.314626 -0.12711544 -0.20835043
000080 4c 09 12 3d 08 69 f0 bd 7e 7f 0c bf 6a c4 72 3e
       0.035653397 -0.11738783 -0.5488204 0.23707739
000090 75 a4 ca 3e db c6 8f 3c cf 09 b3 bd 81 be 26 3d
       0.39578596 0.017550876 -0.08742105 0.040709022
0000a0 b8 2c 57 bd f1 a4 bb bc b7 1d 22 be ad 7c 81 3a
       -0.05253288 -0.022905799 -0.15831648 0.0009879075
0000b0 ac f6 b5 3c ec 7e 12 3f dd e4 10 bf f1 63 24 bf
       0.022212349 0.5722492 -0.5659922 -0.64215
0000c0 3a 83 cd bd 6f 43 29 be f3 81 8d bd 8e 83 8e 3e
       -0.10034795 -0.1652963 -0.069095515 0.27834743
0000d0 44 0d 1d 3e 67 63 ec 3a 8a 1b 06 3e 6d 5a 0e be
       0.15337092 0.0018034995 0.13096443 -0.13901682
0000e0 94 51 94 be f7 a0 06 be 8d 0b 51 3c ce 6e 9d bd
       -0.2896849 -0.1314734 0.012759102 -0.0768715
0000f0 21 ef 8a be cc 88 1d 3f fa 45 d6 be 9f ba e1 3e
       -0.27135566 0.6153686 -0.41850263 0.44087693
000100 e4 a0 78 3e e8 22 13 bd fa dd 69 3e 2d a6 a2 3c
       0.24280125 -0.03592196 0.22838584 0.01985463
000110 49 58 68 bd a0 d9 09 3d df f7 89 3e f6 0c c4 bc
       -0.05672482 0.03365481 0.26946923 -0.023931962
000120 32 1c 85 be 3a c4 14 3d b3 8f 13 3e 4a a0 20 3e
       -0.25998074 0.03631995 0.14410286 0.15686145
000130 c6 b3 06 3d 62 58 7c bd 76 f0 bf 3e b4 af 4f 3d
       0.03288629 -0.061607726 0.37488145 0.050704673
000140 0b d8 16 3e 64 df dd 3d a1 51 d7 3d 63 31 0a 3b
       0.14730851 0.10833624 0.10513616 0.0021086566
000150 d9 c7 01 3f c3 a7 84 3d bb 16 14 3d 99 87 4f be
       0.5069557 0.064773105 0.03615449 -0.2026657
000160 0a 62 63 3d 14 5c b6 be 38 ab 66 be fc b4 77 be
       0.05551342 -0.35617125 -0.22526252 -0.24190134
000170 f0 be ea 3d 63 d8 85 3d 7b 74 b6 3d b3 64 bd be
       0.114622 0.06535413 0.08908936 -0.3699089
000180 1d d5 a4 3c 63 ed c2 be c9 a8 0c be 5a b8 93 bd
       0.020121152 -0.38071737 -0.13736261 -0.07212897
000190 6b ff fa bd 41 8e bf 3e dc 9d 0c 3e af 60 f3 3c
       -0.12255748 0.3741322 0.13732094 0.029709188
0001a0 33 83 8c 3c 7a 89 6d 3e 0d f2 68 bd 94 65 f9 3e
       0.017152404 0.23196974 -0.056871463 0.4871031
0001b0 0d 4e 0e 3f f4 42 45 be 71 55 3f 3d 9e 08 8a 3e
       0.55587846 -0.19263822 0.046712343 0.269597
0001c0 04 f8 ab 3e 5b e4 ca 3d 3a 27 3b be 67 78 f6 3d
       0.33587658 0.099068366 -0.18276682 0.12034684
0001d0 ee 05 31 be cd bb f4 3e 0a bf 9b 3d c1 8d 8e bd
       -0.17287418 0.4779953 0.07604797 -0.06960631
0001e0 12 fe 24 bd fb 3b b4 3d 6d 90 d5 3e cd e6 db 3e
       -0.040281363 0.08800503 0.4171175 0.42949525
0001f0 77 2a ba bc 09 22 27 be 89 1b 4e 3d 91 bc 33 be
       -0.022725327 -0.16321577 0.05031923 -0.17552401
000200 79 cd 07 3f 26 e6 be 3e 4d f2 00 3e c3 e8 47 be
       0.530479 0.37284964 0.1259243 -0.19522385
000210 80 b8 9d bc 76 b8 c4 3e d6 f8 97 bd 3e d9 01 3d
       -0.019253016 0.38421983 -0.074205086 0.03170132
000220 93 48 05 3e 89 06 f7 3d 4c 2a 3d 3e 77 88 79 3d
       0.13015966 0.12061793 0.18473166 0.06092116
000230 50 32 63 be eb fe 99 bd fe 7d 74 3e e8 c4 90 3e
       -0.22187161 -0.07519325 0.23876187 0.28275228
000240 5b 7c 24 3e ef ce ef 3d e4 66 3d 3e ab db a8 be
       0.16063063 0.11709391 0.18496281 -0.32980093
000250 9d 2b bd bd da 0c a2 3d a7 e2 75 bc 6c 28 b6 3e
       -0.09236834 0.079126075 -0.015007651 0.35577714
000260 a2 88 0a 3f e9 71 ad bd 7a f9 02 3e f2 27 9f be
       0.54114735 -0.08468992 0.1279048 -0.31085163
000270 a1 33 c0 3e 1e ce b1 3d 28 60 bc 3e 41 36 a6 be
       0.3753939 0.08681892 0.3679211 -0.32463267
000280 3f 24 ac be df 57 14 3e 88 d0 29 3f c2 7b f2 3d
       -0.33621404 0.14486645 0.6633382 0.11840011
000290 42 ce d0 3e 9f bf 23 3d 4c 28 bc 3d 3c 34 06 bd
       0.40782362 0.039977666 0.091873735 -0.03276466
0002a0 7a 32 09 3e 61 ee 02 3d e6 ef 96 3d ed b0 7d 3e
       0.13398162 0.031965617 0.07369976 0.24774523
0002b0 3b a7 3d 3d d9 0e 11 be 76 5f c4 bd 2d 83 84 3e
       0.04630206 -0.1416582 -0.0958852 0.2588133
0002c0 a3 33 27 3f b2 ba a4 3d 10 bc 95 3d 69 a9 b5 be
       0.65313166 0.08043422 0.07311261 -0.35480812
0002d0 2c ae 97 3d e7 3f 32 3e d3 72 ec 3d b3 d0 32 be
       0.074062675 0.1740719 0.115453385 -0.17462425
0002e0 70 7f c0 bd 75 d1 1a 3e f3 e0 39 3e 7a 4e 65 bd
       -0.09399307 0.15118964 0.18152218 -0.055983044
0002f0 00 f7 ab 3e 5e c6 aa be eb 30 95 3c 0d f9 20 bc
       0.33586884 -0.33354467 0.018211802 -0.009825003
000300 a6 ac 5e 3e a9 5b 1c bd 8c d1 dc bb 62 6e 9c 3c
       0.21745548 -0.03817335 -0.006738847 0.019095603
000310 6c 6e 60 be 6c c0 49 3c 45 5e 01 bc e6 f5 00 3e
       -0.21917123 0.012313943 -0.007896011 0.12593803
000320 80 3e 59 bd 49 00 a0 3d 3e e3 f8 3d fa 22 d2 39
       -0.05303812 0.078125544 0.12152718 0.0004008038
000330 32 55 e5 3c 7e a8 b0 3d 37 48 3b 3d e1 a0 2c bd
       0.027994726 0.08625887 0.045723166 -0.042145614
000340 62 6f c1 bc 25 ff d1 bd e4 79 83 3b b3 9c 58 3c
       -0.023612682 -0.10253743 0.004012333 0.013220954
000350 01 11 b1 3d 05 87 8b bd 4d a5 01 3d e9 95 78 3e
       0.08645821 -0.06812862 0.031651784 0.24275936
000360 b0 03 27 3c 1a 54 9f 3d 94 0e b6 bc a0 f3 8b be
       0.01019375 0.07779713 -0.022223748 -0.2733431
000370 48 81 fc bd be ed 81 bd 0d de f9 bd 9d 16 9e 3d
       -0.12329346 -0.06344174 -0.12200556 0.07719157
000380 66 3d 6f 3c 62 de ab bd c1 a0 95 3d 9e f3 09 3d
       0.014602041 -0.083920255 0.07306052 0.033679597
000390 5f 34 1d be 36 67 8f 3e 19 b1 46 bd ed 5d 26 bd
       -0.15352009 0.2800843 -0.048508737 -0.04061692
0003a0 59 f0 5d bd 17 a4 19 be 71 e3 47 3e e4 41 54 bd
       -0.05418429 -0.15004002 0.19520356 -0.05182065
0003b0 7c bd b5 3e 8e ae dc 3d c6 d1 9b bd e6 e4 d8 b9
       0.35496128 0.10775481 -0.076083705 -0.00041369273
0003c0 ee 39 03 bc 0b b7 ad 3d e8 55 cd 3c 06 fe e3 bd
       -0.008009417 0.08482178 0.025065377 -0.111324355
0003d0 d6 70 e5 3b 1d 5f 0a 3c ef fd 73 3d 59 ee 05 3d
       0.0070019765 0.008445528 0.05956834 0.03269801
0003e0 b6 de f3 3c f2 23 8b 3d 81 37 19 3e 29 78 c7 3d
       0.029769283 0.067939654 0.1496258 0.097397156
0003f0 6f 81 28 3c 2d af 36 3c 6d 29 4b 3d 99 a4 5c 3b
       0.010284766 0.011150164 0.049600054 0.0033667444

node_gat1.att_dst f4 [1, 4, 64]
000000 97 f6 da 3e b3 94 a2 3d ef ed 19 3e 80 d4 0a bd
       0.42766258 0.079385184 0.1503217 -0.033894062
000010 2f a1 8b 3e 76 2d 66 be 7b 80 23 be 1a c9 d5 3e
       0.2727141 -0.2247828 -0.1596698 0.4175499
000020 77 89 23 3e b0 98 b0 bd 90 27 64 bd cc 1d ad be
       0.15970407 -0.08622873 -0.055701792 -0.33811796
000030 e7 df ed 3d e2 d7 97 3b 0f 88 5b bd d7 36 19 3e
       0.116149716 0.0046338895 -0.053596552 0.14962326
000040 ae 45 9d 3e 0a 18 d9 3a 30 59 8d be 24 69 bf 3c
       0.30717224 0.001656295 -0.27607107 0.023365565
000050 68 80 13 3e 8d 7c 91 3d 60 33 75 be 8b 5d 82 3e
       0.14404452 0.07103834 -0.2394538 0.25461993
000060 81 da 82 3e 78 67 07 3d 0d 8b 0a be c7 e2 87 3e
       0.2555733 0.03305766 -0.13529606 0.26540205
000070 af 21 95 bd ee 6f a3 bd 16 3b 2a 3e 3e 82 16 3e
       -0.07281815 -0.07980333 0.16624102 0.14698121
000080 f7 a8 c3 3e b1 e6 8c be d0 d0 17 3e 13 29 73 be
       0.38214847 -0.27519754 0.1482575 -0.23746137
000090 1e 82 1e be 1b 44 03 3e f6 33 cd 3d ab be bf bd
       -0.15479323 0.12818949 0.100196764 -0.09362539
0000a0 bb b0 2a 3e f9 72 a1 be 56 2c 72 bd bd e8 f8 bb
       0.1666898 -0.3153303 -0.059124313 -0.007596104
0000b0 b3 de 54 3e 0c 1f 5f 3e c9 57 a1 3d 5b 29 91 3d
       0.20788078 0.21789187 0.07878072 0.07087966
0000c0 4e 5a 39 be 1f 4b 8a bd 0d d8 6c 3e a2 ea af 3d
       -0.18100855 -0.067526095 0.23129292 0.085896745
0000d0 1c 7f 9f be 4f cf 60 be 66 49 1b 3e 28 fe f6 3e
       -0.31151664 -0.21954082 0.15164718 0.4824078
0000e0 27 db 35 3d f6 2a 6f 3e 04 24 19 be c9 31 16 bc
       0.044398453 0.23356232 -0.14955145 -0.009167143
0000f0 16 9f 37 3e e0 9e e3 bd 71 80 15 3e 2a 75 3c bd
       0.1793178 -0.111142874 0.14599778 -0.046010174
000100 cd 5f 1e 3e e6 1b e6 be b7 8c b6 3d 18 04 1f bd
       0.15466233 -0.4494316 0.08913558 -0.038822263
000110 e9 0c e5 be 04 38 97 3d 9e 33 8f bd 1f d8 25 3d
       -0.44736412 0.07383731 -0.06992267 0.040489312
000120 b5 2e 85 bd 56 6f ca 3d 81 03 a0 bd 05 10 39 3c
       -0.06503049 0.09884517 -0.07813168 0.011295323
000130 77 da 23 3e ad 6a 94 be 76 72 90 bd c6 a4 bb 3e
       0.16001306 -0.28987637 -0.07053082 0.3664915
000140 52 bf b8 be fd 45 b3 3d f7 ce 10 bf 0f 21 bc 3e
       -0.36083466 0.087535836 -0.56565803 0.36743972
000150 6d b4 98 3e e8 70 ed 3d dd ca b3 3e 3a 29 cc be
       0.29825154 0.11593801 0.3511571 -0.39875203
000160 40 1b 9a 3e 22 ba b0 bd bc 60 66 3d 80 38 db 3a
       0.30098915 -0.08629252 0.056244597 0.0016725212
000170 fb c1 c5 3e 01 dd 34 be cc 82 38 3e ee b0 76 bd
       0.38624558 -0.17662431 0.18018645 -0.060227327
000180 07 63 00 3f f8 dc c7 3e a4 52 e5 bd cf a7 9f bc
       0.50151104 0.39035773 -0.11197403 -0.019489197
000190 9c 8a fc 3d 24 84 92 bd 74 d5 c6 be 8d ad 5e bd
       0.12331125 -0.0715411 -0.38834727 -0.05436473
0001a0 49 d4 e0 3d bb 02 96 be bd ea 9f 3e 75 d6 d8 bd
       0.1097799 -0.29298958 0.3123378 -0.105877794
0001b0 ac 42 28 bd 5d 96 89 3e 14 46 e0 3e ef bd 55 3e
       -0.04107921 0.2687253 0.43803465 0.20873235
0001c0 bc 25 ce bd 32 7c 8c be f6 20 93 be e5 2b ca be
       -0.10065791 -0.27438504 -0.28736085 -0.39486614
0001d0 83 c8 6c 3d cd d7 da 3d 7b 91 2f bd 68 8f cf bc
       0.05780841 0.10685692 -0.04286335 -0.025336936
0001e0 96 3a 2c 3d 8c c9 39 be 6d cd c4 be 31 e8 6b be
       0.04204806 -0.1814329 -0.38437977 -0.23037793
0001f0 9a 04 d4 3e da 9f b3 3d c3 f2 2d be b2 51 12 3d
       0.4140976 0.08770724 -0.16987137 0.035722442
000200 9d 97 64 3e 24 ce b5 be 57 40 04 be 58 3f b6 3e
       0.22323461 -0.35508835 -0.12915169 0.35595202
000210 0b f0 21 be 56 ac 67 be b9 f6 04 3e 4b 17 24 3e
       -0.15814225 -0.22624335 0.12984742 0.1602451
000220 e5 96 24 be 07 eb db 3d 93 6e 13 3e de b9 e2 3b
       -0.16073187 0.10738187 0.1439765 0.0069191298
000230 b4 0c 52 3e 0c 79 bb 3e 58 81 99 3e b0 1e 92 bd
       0.20512658 0.3661579 0.29981494 -0.071347594
000240 63 e5 c7 bd 77 ef 5a bd 1f fe ce 3e 9c 6e 3c be
       -0.09760549 -0.053451028 0.40428254 -0.18401569
000250 af bb c7 3e 8a f6 cf bc 23 6a 93 be 97 ef 1a 3e
       0.3901038 -0.025386114 -0.28791913 0.15130459
000260 15 0a 24 be c0 6f f7 3d 07 42 53 3e d1 49 9e be
       -0.16019471 0.120818615 0.20630656 -0.30915692
000270 7f 58 9f be 78 3b 13 bf 2b e0 a6 3e cf 5c 21 bf
       -0.31122205 -0.5751262 0.32592902 -0.6303224
000280 30 86 88 be bb 54 df 3d e0 96 56 be 4a 11 ed 3e
       -0.26664877 0.10904833 -0.20955992 0.46302253
000290 8a 4c 5e 3d 22 b8 d1 3d 00 89 9e bd 99 f7 dd bd
       0.054272212 0.10240199 -0.077409744 -0.10838241
0002a0 f9 69 97 bc 0d 2f 59 3e 24 46 a3 3e 7b 4c 37 3e
       -0.018483149 0.21209355 0.3188945 0.17900269
0002b0 e4 b3 21 be ed 53 b8 3d 7f a8 d0 3e 0b 3c a3 be
       -0.15791279 0.090003826 0.40753552 -0.31881747
0002c0 5f a7 85 be aa ab 85 3e a7 ad b6 be 25 f9 7d bd
       -0.26104257 0.26107532 -0.3567936 -0.06200518
0002d0 ed 98 4d be 1c 77 c4 be 1d b1 ba 3e 41 9c 23 bf
       -0.20077868 -0.38372123 0.36463252 -0.639103
0002e0 24 a1 bf 3e 02 1f ae be 93 4e 99 3d 6b e7 42 be
       0.37427628 -0.34008032 0.0748569 -0.19033591
0002f0 e7 23 a6 3d 7d a9 b6 be 77 96 14 be d8 db b0 bd
       0.081123166 -0.35676184 -0.14510523 -0.08635682
000300 47 a3 61 3e 3d 89 8e 3d 66 cc ce 3e 0a 64 5d be
       0.22034942 0.0695977 0.4039032 -0.21620193
000310 31 d4 b5 bd e2 6d d1 3d 5d e4 a7 3e 72 93 ae be
       -0.08878363 0.102260366 0.32791415 -0.34096867
000320 15 57 35 3f 78 bc e7 3e 88 15 83 3e cf 12 8e be
       0.70836 0.45260978 0.25602365 -0.27748725
000330 74 66 a2 3d 59 46 18 bf 81 81 4e be 0b 74 c0 3e
       0.07929698 -0.5948234 -0.2016659 0.37588534
000340 62 59 3a 3e ff 01 2b 3f 65 17 be be f2 48 45 3e
       0.1819816 0.6679992 -0.37127224 0.19266108
000350 62 92 4c bd c9 06 ea 3e 04 df 31 3e 0a 88 fa bc
       -0.04994429 0.45708302 0.1737023 -0.030582447
000360 bc 33 11 3e d1 05 23 3b 17 a8 e2 bd 27 b1 3b 3e
       0.14179891 0.0024875293 -0.11067217 0.18329297
000370 63 a1 32 bc fd 7b e5 3e 20 c2 43 be f0 f0 0e 3f
       -0.010902735 0.44821158 -0.19117022 0.5583639
000380 73 9c 60 be e4 89 be be 6e bd 4c bd 20 10 87 3e
       -0.2193468 -0.37214577 -0.04998534 0.2637949
000390 05 61 f1 be b1 98 7d bb 30 26 de 3e f9 20 df be
       -0.47144333 -0.0038695747 0.4338851 -0.43579844
0003a0 b5 69 4a 3d 4e 05 99 be f7 af 3b 3f f7 cd fc bc
       0.049417216 -0.2988686 0.73315376 -0.03085993
0003b0 a5 8a b2 3d 08 29 8d 3e 1e e4 73 bd a6 c5 3e be
       0.087178506 0.27570367 -0.05954372 -0.18630084
0003c0 d1 d8 60 3e 8f f8 ed bc af f0 b5 3e ff aa 2a 3e
       0.21957709 -0.029049186 0.3553519 0.16666792
0003d0 6b ec a3 be f8 0c 26 be e6 08 81 3e bd c3 2c 3f
       -0.3201631 -0.16215885 0.252021 0.6748617
0003e0 ba 10 5c be 55 a0 90 bf 96 02 8e 3d 42 db 7f bd
       -0.21490756 -1.129893 0.06934087 -0.06246496
0003f0 bb 8a 30 bf a6 a4 cc be c9 e8 57 be 54 6b f1 3c
       -0.68961686 -0.39969367 -0.21084894 0.029470123

node_gat1.bias f4 [256]
000000 9d 9b 4e be a2 87 24 3d 37 c0 57 bd 11 d9 f7 be
       -0.2017655 0.040168412 -0.052673545 -0.48407796
000010 d9 aa b5 be ff 23 ab bd 75 68 82 bd fe 1c 14 be
       -0.3548191 -0.08356475 -0.0636758 -0.14464185
000020 7a 8a c3 bd 60 d5 f4 bd b7 05 bc 3c 56 68 75 bf
       -0.09547897 -0.119547606 0.022951944 -0.9586233
000030 4b 4d f0 bc 98 7a cc be 46 d5 2b 3b 5f 27 7b bd
       -0.029333731 -0.39937282 0.002621965 -0.061316844
000040 28 bb 8c 3e 39 36 81 be 0d 43 7b bd d1 e1 27 be
       0.2748654 -0.2523668 -0.06134324 -0.16394736
000050 31 0f 16 be 30 0d e1 be 73 a3 96 bd 97 4e 0e bd
       -0.14654233 -0.43955374 -0.07355394 -0.034742918
000060 40 5d 28 be b7 fe 54 3e e8 5e 8c 3e e8 ab 84 be
       -0.16441822 0.20800291 0.27416158 -0.25912404
000070 f1 31 cc 3c 33 dc 88 3d 4d 5f d9 3e 5b 94 2e be
       0.024926158 0.06682625 0.4245552 -0.1704878
000080 ea bf c5 bd 34 55 51 be 51 7c 2a 3d 4a d8 48 be
       -0.09655745 -0.20442659 0.041622464 -0.19613758
000090 08 f9 43 bd 57 5c 98 be 6a 35 2c 3d a7 8f 0b bd
       -0.047844917 -0.2975795 0.042043127 -0.034072544
0000a0 37 34 b6 bd 13 09 7e be 50 a5 2b bd 24 54 85 be
       -0.08896678 -0.24808149 -0.0419057 -0.26040757
0000b0 8b 43 da bd 98 c7 0f bd e2 a9 bb bd 08 30 67 3c
       -0.10657414 -0.035102457 -0.09163262 0.014110573
0000c0 d7 78 27 be 21 38 43 bd 41 24 b4 bd 33 03 96 3d
       -0.1635469 -0.04766095 -0.087959774 0.07324829
0000d0 88 df c3 be 27 d7 f2 bd cd ce be be e1 8e a4 3d
       -0.38256478 -0.11857443 -0.3726715 0.080350645
0000e0 32 4f a3 3c b1 97 28 3e 85 a5 68 bd b7 29 87 be
       0.019935224 0.16464116 -0.056798477 -0.26399013
0000f0 c9 ea 91 be cb 4f 1f 3d f6 0c eb bd a2 6f 40 bc
       -0.2849944 0.038894456 -0.114770815 -0.011745365
000100 98 97 83 be df 9a 8d 3e c5 b5 b1 be 2d af 27 bf
       -0.25701594 0.2765722 -0.34708992 -0.6550167
000110 82 d8 92 3e 0a c5 90 be 27 92 bf be d1 5b 88 bd
       0.28680807 -0.2827533 -0.37416193 -0.066581376
000120 b0 98 94 bd 9f b5 fb bd 8c 0e c7 bd 40 f9 b5 be
       -0.07255685 -0.12290501 -0.097195715 -0.35541725
000130 af f9 ff bd b7 d5 df be b2 2e ff bd 92 e8 66 be
       -0.12498795 -0.4371774 -0.12460078 -0.22549656
000140 20 d4 4b 3d 72 9c 9b bc ae dc 9f be 0a 58 0e 3e
       0.049762845 -0.018995497 -0.31223053 0.13900772
000150 05 34 29 be 3f 82 62 3e 1b 64 eb be 51 44 b1 3e
       -0.1652375 0.22119997 -0.45974812 0.34622434
000160 ad 38 fc 3c c6 bf 2f be 2f ea a6 3d 1c 9d c5 be
       0.030788744 -0.17163 0.08150136 -0.38596427
000170 06 2b ca 3c f1 9c dc 3d 58 96 d1 be 6d 57 6d 3e
       0.024678718 0.10772122 -0.40935016 0.23177882
000180 49 01 77 bd 87 89 8f 3e a6 71 ed bb 0e f4 8f be
       -0.06030396 0.28034613 -0.007246214 -0.28115886
000190 cb 74 5d bd 85 c2 30 bd 28 05 9d 3c 9b fe 23 3d
       -0.05406646 -0.04315426 0.019167498 0.040037733
0001a0 16 59 3f be 80 c9 92 be 0b 38 07 be 6c 6c 95 be
       -0.18686327 -0.28669357 -0.13204972 -0.29184282
0001b0 5f 04 85 3e 45 ca fd ba dc 0e c1 be 0a ad 88 be
       0.25979897 -0.0019362649 -0.3770665 -0.26694518
0001c0 97 52 f3 3c 1f d7 ac 3d eb 54 11 be 99 79 92 be
       0.029702468 0.084394686 -0.1419255 -0.28608397
0001d0 f5 0e b5 be cf e0 ae be a1 e0 fb 3d 1b ef fd bd
       -0.35362974 -0.3415589 0.12298704 -0.123991214
0001e0 e1 26 83 3d 06 21 d1 bd 8c 01 9c 3d 35 25 6a be
       0.064039 -0.10211377 0.076174825 -0.22865756
0001f0 dd d1 01 3e 7f 5b 74 3e 91 23 35 bd 06 1c a2 3e
       0.12677713 0.23863028 -0.044223372 0.31662005
000200 9e 9c dc be 44 a6 1d be 5a 18 30 be 95 ab 97 3e
       -0.4308824 -0.15395457 -0.1719679 0.29623094
000210 ab 62 f8 be 1c bd f0 bd 12 38 bf 3e 83 90 43 bf
       -0.48512778 -0.1175482 0.37347466 -0.7639238
000220 e6 73 97 be 9c bf 47 3e c1 55 71 be bf e6 af be
       -0.2958061 0.19506687 -0.23567869 -0.34355733
000230 58 d4 95 bd ed 54 f0 be 04 60 bd bd 9b f8 0f bf
       -0.07315892 -0.46939793 -0.09246829 -0.56238717
000240 f1 15 34 bf 1c e8 22 3e 8b 21 a6 be 8c 63 b0 bd
       -0.7034598 0.15908855 -0.32447466 -0.08612737
000250 3f 9b 6c be 4f dc 91 bd c8 8f 06 be 53 dc 26 be
       -0.23106097 -0.07122099 -0.13140786 -0.16294985
000260 92 86 33 be b5 53 df 3e bb df 40 be 0a 01 16 bc
       -0.17531803 0.4361855 -0.18835346 -0.009155521
000270 12 94 79 be 55 0e 52 be 68 76 b4 3b 98 dd ad 3e
       -0.2437289 -0.2051328 0.005507279 0.33958125
000280 1c 81 ea 3d 44 e4 e7 bd 9e 9b 80 3d 6e 11 a5 be
       0.11450407 -0.11322835 0.062796816 -0.3223986
000290 64 14 87 3d d7 a4 f9 3e e9 11 50 bd 0e 4c db bd
       0.06595686 0.48758575 -0.05079833 -0.10707866
0002a0 d5 4b d4 3c 53 c8 0a 3c 48 d0 e0 be a0 20 8e be
       0.025915066 0.008470613 -0.43908906 -0.27759266
0002b0 e2 61 e4 be bd d6 24 3e 46 6e d3 be 3c 40 7b 3e
       -0.4460593 0.16097541 -0.4129507 0.24536222
0002c0 78 50 d1 3e 63 53 46 3e 4b 3e 80 3d 6a bf 8e 3c
       0.40881705 0.19367747 0.062618814 0.017425258
0002d0 1a cb f1 bd 52 74 f7 be f4 f9 2a 3e 0f 5b a6 be
       -0.11806317 -0.48330933 0.16696912 -0.32491347
0002e0 89 76 df be 88 1f 44 be 52 7e 99 be 7b 92 8f 3e
       -0.43645123 -0.19152653 -0.29979187 0.28041443
0002f0 25 e1 1e be ec 0c 26 3c 46 c7 90 be 03 14 70 be
       -0.15515573 0.010134917 -0.28277034 -0.23445134
000300 1c fe 8a be 56 c5 8d be fe 86 a6 bb 2b 02 b6 3d
       -0.27146995 -0.27689618 -0.0050820103 0.08887132
000310 d6 45 02 bc 2c 29 00 3f 25 ad 01 3d 13 37 62 3d
       -0.0079512205 0.50062823 0.031659264 0.055228304
000320 dc f2 06 3d 8d 5a d6 3e 55 9e c5 be e3 25 1d bc
       0.032946452 0.4186596 -0.3859736 -0.009591552
000330 fb d8 a0 be 18 7e cd 3e 2a 33 92 3a b7 eb e1 3d
       -0.31415543 0.40135264 0.0011154164 0.11031287
000340 14 a4 ba bd 22 01 48 3e 27 0a 60 be 59 0b de be
       -0.09113327 0.19531682 -0.21878873 -0.43368033
000350 0d 45 01 bf 21 ea d0 be 15 b1 d4 bd f9 0e c3 3e
       -0.5049599 -0.40803626 -0.10385338 0.3809736
000360 d4 e2 b4 bd a9 ed 80 be 6a 23 4a be 95 72 11 be
       -0.088323265 -0.2518132 -0.19740072 -0.14203866
000370 79 e0 a9 be fe 5a 39 be 93 50 19 3e 0e 1a bf 3e
       -0.33179072 -0.18101117 0.14972143 0.37324566
000380 46 41 08 be c1 19 8e bc 82 b3 4b 3b 0d d2 ab 3e
       -0.1330615 -0.017346265 0.0031082337 0.33558694
000390 e5 b1 03 be 39 aa d7 be 17 1f 80 be bf 9f b8 be
       -0.1286083 -0.42122057 -0.2502372 -0.36059377
0003a0 70 94 69 3e 16 e2 31 be 7a 12 c7 3c 04 1a 70 3d
       0.2281053 -0.17371401 0.024300802 0.05861856
0003b0 57 7a 6d bd 8e c2 b5 be 86 52 d0 3d e1 2b 9c bd
       -0.057978 -0.35499996 0.1017199 -0.07625557
0003c0 fc 77 4f 3d 6c f0 1d 3e 87 bf 73 be f3 ae 73 3d
       0.050651535 0.15423745 -0.2380353 0.059493016
0003d0 99 68 78 be 0b 71 8f be 9f 8a aa be 0a 0e 3e be
       -0.24258651 -0.28015932 -0.33308885 -0.18560043
0003e0 65 7a 14 3e ad 2a 90 be ff 42 70 be 23 a7 88 be
       0.14499815 -0.2815756 -0.23463057 -0.26690015
0003f0 66 a4 cb be df 62 b0 3d 4f f1 33 be 61 fb 6f 3e
       -0.39773864 0.08612608 -0.1757252 0.23435737

node_gat1.lin_src.weight f4 [256, 6]
000000 ed 29 12 bf 3a c7 de 3d bc 22 22 3e bb 4c 20 3e
       -0.57095224 0.10877843 0.15833563 0.1565427
000010 e2 e5 3a be 89 49 44 be 71 4e 73 be 8c 07 1d 3f
       -0.18251756 -0.19168676 -0.23760392 0.6133964
000020 37 a1 57 be 7b 71 ba 3e 50 d8 20 3d 9e 9c d4 bd
       -0.21057592 0.36414704 0.03926879 -0.10381435
000030 3f e4 b7 be 0c 72 8e bd 08 35 25 3d 73 21 1a bf
       -0.35916325 -0.069553465 0.040333778 -0.6020729
000040 9d a2 a3 3d 40 5e 19 be 7e 02 5b 3d d8 07 95 bd
       0.079900004 -0.1497736 0.053469174 -0.07276887
000050 a9 7b b1 3c 91 3f b3 be b9 e1 0c bf a8 91 f8 3d
       0.021665411 -0.35009435 -0.55031925 0.12137157
000060 ff 2b 2c 3f e1 0f be be 7d ed 21 bd c3 cf 32 3d
       0.6725463 -0.3712149 -0.039533127 0.04365517
000070 85 27 38 3e d9 c6 00 3c 81 4c 06 3f 69 1d 17 be
       0.17983826 0.007859909 0.52460486 -0.14757313
000080 dd e3 39 3e de 15 01 be e3 fa 99 3c c1 c2 7a 3e
       0.18153329 -0.12605998 0.01879639 0.24488355
000090 3c ca bf bd 82 38 2d be 5d 9d 7c be 8c ec 34 3f
       -0.09364745 -0.16916087 -0.24669404 0.7067344
0000a0 93 5a a9 be b9 dd 73 3e 54 e7 fa bd c8 ca 7f 3e
       -0.33076915 0.23815049 -0.122511536 0.24979699
0000b0 22 8b 8c 3e 4c 38 b8 be 55 32 18 3c bd f7 ed bd
       0.274499 -0.3598045 0.009289344 -0.11619518
0000c0 1a e1 70 3e 42 c7 eb bd 91 07 0e bd 2e 98 c1 be
       0.2352337 -0.11512615 -0.034675185 -0.37811416
0000d0 21 41 00 3d 86 06 66 3e a6 3a 4f be 5b 34 f9 3d
       0.03131211 0.22463426 -0.20237216 0.12168189
0000e0 2d 27 04 3e 22 07 fb be 88 e2 ae 3d 80 a8 1a be
       0.1290557 -0.4902888 0.08539301 -0.1510334
0000f0 3d c5 91 be 2a 9d f8 3d f3 cc 58 be 65 c9 d3 3e
       -0.28470793 0.12139352 -0.21171932 0.4136459
000100 b5 4e d3 3e a4 a2 4c 3e e8 66 88 3d 20 42 e8 3d
       0.41270986 0.19983917 0.06660253 0.11340737
000110 9b 9a 8f bd 4a 80 bd bd 6f a3 ee be 3c cc 78 3e
       -0.070119105 -0.09252985 -0.46609065 0.24296659
000120 0f 2c a7 be f3 93 fc 3d b2 ee 00 3e 38 b3 3a bf
       -0.32650802 0.123329066 0.12591055 -0.72929716
000130 06 ce 4d 3e 1a a9 42 be 2d 96 ac bd 97 b8 48 3e
       0.20098123 -0.1900982 -0.08427081 0.19601665
000140 51 31 99 be 21 4e 52 be 4e a7 71 bd 7e 36 58 3e
       -0.29920438 -0.20537616 -0.058997445 0.21114537
000150 a7 3b 98 be bb 09 a7 bd a2 cc d1 3e 16 cc 7f be
       -0.2973301 -0.08156153 0.40976435 -0.24980196
000160 f3 6c df 3e f5 f4 40 3e cd 91 a0 3e 79 94 42 3e
       0.4363781 0.18843444 0.31361237 0.1900195
000170 dc ed 91 bd c2 8e 11 3f 66 de 05 be a5 bd 9a bd
       -0.07125446 0.56858456 -0.1307312 -0.07555703
000180 a6 71 4a 3f 7d dc e6 be 6c 19 9f 3e 9b 59 b5 bc
       0.79079664 -0.45090094 0.31074083 -0.022137454
000190 a3 d1 a2 be a2 1d 47 3d 94 a1 2a 3d 0b 1d af be
       -0.31800565 0.048612244 0.041658 -0.34201846
0001a0 42 ec dd be 16 bd 23 be 1a 09 98 be 39 3f 99 3d
       -0.43344313 -0.159901 -0.29694444 0.07482762
0001b0 03 f0 2e bd f1 1f a3 bb 01 cd 28 3d 97 39 a2 be
       -0.04270936 -0.004978173 0.041211132 -0.31684563
0001c0 9e 34 bb 3d 49 4d 09 be d2 83 af 3f 58 f5 b0 3e
       0.09140895 -0.13408388 1.3712103 0.34562182
0001d0 c5 0a 5f 3c d4 8c d2 bc 0d 2b 86 3e 39 d9 4e 3c
       0.0136134075 -0.025701918 0.2620472 0.012625032
0001e0 8f 25 04 bd 37 31 4c be c3 dc 22 3e 24 33 7e be
       -0.03226238 -0.19940649 0.15904526 -0.24824196
0001f0 d1 4d c2 3c 03 9d 7d bd bb 37 95 bc 7e 17 10 bf
       0.023718746 -0.061917316 -0.01821505 -0.56285846
000200 f6 97 ac 3e 8c e4 0e be 6f e0 27 3d f1 54 18 3e
       0.33709687 -0.13954371 0.04098552 0.14876153
000210 97 b4 9e 3e d2 60 66 be a5 cc 65 3e 72 00 ce be
       0.30997154 -0.22497872 0.22441347 -0.40234715
000220 cd d1 7a be 98 92 0a 3e 36 88 e9 be df 5f 2a bc
       -0.24494095 0.13532484 -0.45611733 -0.010398834
000230 74 b6 9c 3d 4d 3f 74 3e d9 ba 27 be b2 c7 3e be
       0.07651988 0.23852272 -0.1637987 -0.18630865
000240 fb 6b 69 bc b9 60 80 3e d0 ef f0 3d 05 a5 a4 be
       -0.014246936 0.25073794 0.117644906 -0.3215715
000250 4d f8 55 bc a6 7e cd bd 7c 88 64 bd 20 44 3b 3e
       -0.013059688 -0.10033922 -0.055794224 0.18287706
000260 85 ef 3d be d9 2a 19 3f c2 0f 67 3e c7 9f 86 3e
       -0.185484 0.59831005 0.22564605 0.26293775
000270 04 17 23 bd cc 17 1d be 8c 24 d6 be 66 cd 08 3f
       -0.03981687 -0.15341109 -0.41824758 0.53438413
000280 e5 5f 27 bd 6a 03 d3 bd a0 25 45 be 06 83 81 3e
       -0.040862937 -0.103033856 -0.19252634 0.25295275
000290 29 07 42 be 04 77 21 3f 72 53 bf be d2 d9 bf bc
       -0.18948044 0.6307223 -0.3736835 -0.023419295
0002a0 37 5b 2a be 47 85 f6 be 6d 38 b8 be 17 1a fb 3e
       -0.16636358 -0.48148558 -0.3598055 0.49043342
0002b0 62 b4 e6 3e 97 a4 08 3d ac ff 5d 3e 84 6b 16 3e
       0.45059496 0.03336009 0.21679562 0.14689451
0002c0 a7 3e ef bd ad 26 df 3e 4a e9 03 3e af 76 8a 3e
       -0.11681872 0.43584195 0.12881961 0.27043673
0002d0 71 5a 7c 3e 98 8a d6 be 0c 7b b1 3d 2c 6a 31 3e
       0.24643876 -0.41902614 0.086660475 0.17325658
0002e0 a4 39 9f 3d fa 28 78 be 59 48 6a bd de 6b 40 3c
       0.07774666 -0.24234381 -0.057197902 0.011744468
0002f0 5b 55 a6 3d 61 6e 02 bf 58 29 6d 3e f0 05 26 be
       0.08121749 -0.50949675 0.23160303 -0.16213202
000300 ff 0a eb be be af 2a 3e 8b d4 9e 3e 1b 85 45 3e
       -0.45906827 0.16668603 0.31021532 0.19289057
000310 74 3a 4c 3e 1c bd f1 3d 40 d9 74 bd b4 11 3e 3e
       0.19944173 0.11803648 -0.0597775 0.1856144
000320 6a b1 45 bd 0f fa 87 be e4 a8 c8 3d f6 b7 40 be
       -0.0482649 -0.26557967 0.09797838 -0.18820176
000330 a9 48 86 be 35 6c 19 bd a0 80 97 3d ec 63 2c bf
       -0.2622731 -0.03745671 0.0739758 -0.6733997
000340 5a 84 81 3d a4 c1 3c be 0b 6b 6d 3f d5 4b ae 3d
       0.06324072 -0.18433243 0.9274146 0.085105576
000350 73 d5 01 3f dd d1 f1 3d 73 f3 d8 bd a2 e2 d5 bc
       0.5071632 0.11807606 -0.10593309 -0.026109044
000360 3a e5 e9 bd af c4 86 3e 07 67 3f be f7 bb 40 3f
       -0.114206746 0.26321933 -0.18691646 0.7528681
000370 1c 78 ba 3d 4e f2 64 3e 51 19 16 3d 95 29 19 be
       0.0910494 0.22358057 0.036645237 -0.14957269
000380 1f e9 4c 3d 77 61 54 be 67 4f cf 3d 89 c4 fe bc
       0.05002701 -0.20740305 0.10122567 -0.031099575
000390 43 eb c4 be 87 f1 d0 3e 60 16 86 3e 21 11 38 3e
       -0.3846074 0.4080927 0.26188946 0.17975284
0003a0 b6 b1 d5 3e 4d 07 b7 3d b0 34 82 be d9 c9 c3 3e
       0.41737145 0.089369394 -0.25430822 0.38239935
0003b0 f5 bb 41 3d 4f b9 db 3d 5a c9 c7 3e 91 d8 31 3e
       0.04729839 0.10728704 0.39020807 0.1736777
0003c0 1e 49 03 bd 3b 2f f1 3d 9a 68 e9 3d f6 53 ec be
       -0.03205215 0.117765866 0.11396904 -0.46157807
0003d0 7f e6 86 3d 31 92 0b be bf cb 90 3d 8e 00 db 3d
       0.065869324 -0.13629986 0.070701115 0.10693465
0003e0 c7 1f e2 bd 06 6c 78 be 1b b5 87 bd 1f 93 68 bd
       -0.11041217 -0.24259958 -0.0662634 -0.05678093
0003f0 9e 10 ed bd 25 17 a3 bc dd 9d 1f 3e 01 ab 03 bf
       -0.11575435 -0.019908497 0.15587564 -0.51432806

node_gat1.lin_dst.weight f4 [256, 6]
000000 ed 29 12 bf 3a c7 de 3d bc 22 22 3e bb 4c 20 3e
       -0.57095224 0.10877843 0.15833563 0.1565427
000010 e2 e5 3a be 89 49 44 be 71 4e 73 be 8c 07 1d 3f
       -0.18251756 -0.19168676 -0.23760392 0.6133964
000020 37 a1 57 be 7b 71 ba 3e 50 d8 20 3d 9e 9c d4 bd
       -0.21057592 0.36414704 0.03926879 -0.10381435
000030 3f e4 b7 be 0c 72 8e bd 08 35 25 3d 73 21 1a bf
       -0.35916325 -0.069553465 0.040333778 -0.6020729
000040 9d a2 a3 3d 40 5e 19 be 7e 02 5b 3d d8 07 95 bd
       0.079900004 -0.1497736 0.053469174 -0.07276887
000050 a9 7b b1 3c 91 3f b3 be b9 e1 0c bf a8 91 f8 3d
       0.021665411 -0.35009435 -0.55031925 0.12137157
000060 ff 2b 2c 3f e1 0f be be 7d ed 21 bd c3 cf 32 3d
       0.6725463 -0.3712149 -0.039533127 0.04365517
000070 85 27 38 3e d9 c6 00 3c 81 4c 06 3f 69 1d 17 be
       0.17983826 0.007859909 0.52460486 -0.14757313
000080 dd e3 39 3e de 15 01 be e3 fa 99 3c c1 c2 7a 3e
       0.18153329 -0.12605998 0.01879639 0.24488355
000090 3c ca bf bd 82 38 2d be 5d 9d 7c be 8c ec 34 3f
       -0.09364745 -0.16916087 -0.24669404 0.7067344
0000a0 93 5a a9 be b9 dd 73 3e 54 e7 fa bd c8 ca 7f 3e
       -0.33076915 0.23815049 -0.122511536 0.24979699
0000b0 22 8b 8c 3e 4c 38 b8 be 55 32 18 3c bd f7 ed bd
       0.274499 -0.3598045 0.009289344 -0.11619518
0000c0 1a e1 70 3e 42 c7 eb bd 91 07 0e bd 2e 98 c1 be
       0.2352337 -0.11512615 -0.034675185 -0.37811416
0000d0 21 41 00 3d 86 06 66 3e a6 3a 4f be 5b 34 f9 3d
       0.03131211 0.22463426 -0.20237216 0.12168189
0000e0 2d 27 04 3e 22 07 fb be 88 e2 ae 3d 80 a8 1a be
       0.1290557 -0.4902888 0.08539301 -0.1510334
0000f0 3d c5 91 be 2a 9d f8 3d f3 cc 58 be 65 c9 d3 3e
       -0.28470793 0.12139352 -0.21171932 0.4136459
000100 b5 4e d3 3e a4 a2 4c 3e e8 66 88 3d 20 42 e8 3d
       0.41270986 0.19983917 0.06660253 0.11340737
000110 9b 9a 8f bd 4a 80 bd bd 6f a3 ee be 3c cc 78 3e
       -0.070119105 -0.09252985 -0.46609065 0.24296659
000120 0f 2c a7 be f3 93 fc 3d b2 ee 00 3e 38 b3 3a bf
       -0.32650802 0.123329066 0.12591055 -0.72929716
000130 06 ce 4d 3e 1a a9 42 be 2d 96 ac bd 97 b8 48 3e
       0.20098123 -0.1900982 -0.08427081 0.19601665
000140 51 31 99 be 21 4e 52 be 4e a7 71 bd 7e 36 58 3e
       -0.29920438 -0.20537616 -0.058997445 0.21114537
000150 a7 3b 98 be bb 09 a7 bd a2 cc d1 3e 16 cc 7f be
       -0.2973301 -0.08156153 0.40976435 -0.24980196
000160 f3 6c df 3e f5 f4 40 3e cd 91 a0 3e 79 94 42 3e
       0.4363781 0.18843444 0.31361237 0.1900195
000170 dc ed 91 bd c2 8e 11 3f 66 de 05 be a5 bd 9a bd
       -0.07125446 0.56858456 -0.1307312 -0.07555703
000180 a6 71 4a 3f 7d dc e6 be 6c 19 9f 3e 9b 59 b5 bc
       0.79079664 -0.45090094 0.31074083 -0.022137454
000190 a3 d1 a2 be a2 1d 47 3d 94 a1 2a 3d 0b 1d af be
       -0.31800565 0.048612244 0.041658 -0.34201846
0001a0 42 ec dd be 16 bd 23 be 1a 09 98 be 39 3f 99 3d
       -0.43344313 -0.159901 -0.29694444 0.07482762
0001b0 03 f0 2e bd f1 1f a3 bb 01 cd 28 3d 97 39 a2 be
       -0.04270936 -0.004978173 0.041211132 -0.31684563
0001c0 9e 34 bb 3d 49 4d 09 be d2 83 af 3f 58 f5 b0 3e
       0.09140895 -0.13408388 1.3712103 0.34562182
0001d0 c5 0a 5f 3c d4 8c d2 bc 0d 2b 86 3e 39 d9 4e 3c
       0.0136134075 -0.025701918 0.2620472 0.012625032
0001e0 8f 25 04 bd 37 31 4c be c3 dc 22 3e 24 33 7e be
       -0.03226238 -0.19940649 0.15904526 -0.24824196
0001f0 d1 4d c2 3c 03 9d 7d bd bb 37 95 bc 7e 17 10 bf
       0.023718746 -0.061917316 -0.01821505 -0.56285846
000200 f6 97 ac 3e 8c e4 0e be 6f e0 27 3d f1 54 18 3e
       0.33709687 -0.13954371 0.04098552 0.14876153
000210 97 b4 9e 3e d2 60 66 be a5 cc 65 3e 72 00 ce be
       0.30997154 -0.22497872 0.22441347 -0.40234715
000220 cd d1 7a be 98 92 0a 3e 36 88 e9 be df 5f 2a bc
       -0.24494095 0.13532484 -0.45611733 -0.010398834
000230 74 b6 9c 3d 4d 3f 74 3e d9 ba 27 be b2 c7 3e be
       0.07651988 0.23852272 -0.1637987 -0.18630865
000240 fb 6b 69 bc b9 60 80 3e d0 ef f0 3d 05 a5 a4 be
       -0.014246936 0.25073794 0.117644906 -0.3215715
000250 4d f8 55 bc a6 7e cd bd 7c 88 64 bd 20 44 3b 3e
       -0.013059688 -0.10033922 -0.055794224 0.18287706
000260 85 ef 3d be d9 2a 19 3f c2 0f 67 3e c7 9f 86 3e
       -0.185484 0.59831005 0.22564605 0.26293775
000270 04 17 23 bd cc 17 1d be 8c 24 d6 be 66 cd 08 3f
       -0.03981687 -0.15341109 -0.41824758 0.53438413
000280 e5 5f 27 bd 6a 03 d3 bd a0 25 45 be 06 83 81 3e
       -0.040862937 -0.103033856 -0.19252634 0.25295275
000290 29 07 42 be 04 77 21 3f 72 53 bf be d2 d9 bf bc
       -0.18948044 0.6307223 -0.3736835 -0.023419295
0002a0 37 5b 2a be 47 85 f6 be 6d 38 b8 be 17 1a fb 3e
       -0.16636358 -0.48148558 -0.3598055 0.49043342
0002b0 62 b4 e6 3e 97 a4 08 3d ac ff 5d 3e 84 6b 16 3e
       0.45059496 0.03336009 0.21679562 0.14689451
0002c0 a7 3e ef bd ad 26 df 3e 4a e9 03 3e af 76 8a 3e
       -0.11681872 0.43584195 0.12881961 0.27043673
0002d0 71 5a 7c 3e 98 8a d6 be 0c 7b b1 3d 2c 6a 31 3e
       0.24643876 -0.41902614 0.086660475 0.17325658
0002e0 a4 39 9f 3d fa 28 78 be 59 48 6a bd de 6b 40 3c
       0.07774666 -0.24234381 -0.057197902 0.011744468
0002f0 5b 55 a6 3d 61 6e 02 bf 58 29 6d 3e f0 05 26 be
       0.08121749 -0.50949675 0.23160303 -0.16213202
000300 ff 0a eb be be af 2a 3e 8b d4 9e 3e 1b 85 45 3e
       -0.45906827 0.16668603 0.31021532 0.19289057
000310 74 3a 4c 3e 1c bd f1 3d 40 d9 74 bd b4 11 3e 3e
       0.19944173 0.11803648 -0.0597775 0.1856144
000320 6a b1 45 bd 0f fa 87 be e4 a8 c8 3d f6 b7 40 be
       -0.0482649 -0.26557967 0.09797838 -0.18820176
000330 a9 48 86 be 35 6c 19 bd a0 80 97 3d ec 63 2c bf
       -0.2622731 -0.03745671 0.0739758 -0.6733997
000340 5a 84 81 3d a4 c1 3c be 0b 6b 6d 3f d5 4b ae 3d
       0.06324072 -0.18433243 0.9274146 0.085105576
000350 73 d5 01 3f dd d1 f1 3d 73 f3 d8 bd a2 e2 d5 bc
       0.5071632 0.11807606 -0.10593309 -0.026109044
000360 3a e5 e9 bd af c4 86 3e 07 67 3f be f7 bb 40 3f
       -0.114206746 0.26321933 -0.18691646 0.7528681
000370 1c 78 ba 3d 4e f2 64 3e 51 19 16 3d 95 29 19 be
       0.0910494 0.22358057 0.036645237 -0.14957269
000380 1f e9 4c 3d 77 61 54 be 67 4f cf 3d 89 c4 fe bc
       0.05002701 -0.20740305 0.10122567 -0.031099575
000390 43 eb c4 be 87 f1 d0 3e 60 16 86 3e 21 11 38 3e
       -0.3846074 0.4080927 0.26188946 0.17975284
0003a0 b6 b1 d5 3e 4d 07 b7 3d b0 34 82 be d9 c9 c3 3e
       0.41737145 0.089369394 -0.25430822 0.38239935
0003b0 f5 bb 41 3d 4f b9 db 3d 5a c9 c7 3e 91 d8 31 3e
       0.04729839 0.10728704 0.39020807 0.1736777
0003c0 1e 49 03 bd 3b 2f f1 3d 9a 68 e9 3d f6 53 ec be
       -0.03205215 0.117765866 0.11396904 -0.46157807
0003d0 7f e6 86 3d 31 92 0b be bf cb 90 3d 8e 00 db 3d
       0.065869324 -0.13629986 0.070701115 0.10693465
0003e0 c7 1f e2 bd 06 6c 78 be 1b b5 87 bd 1f 93 68 bd
       -0.11041217 -0.24259958 -0.0662634 -0.05678093
0003f0 9e 10 ed bd 25 17 a3 bc dd 9d 1f 3e 01 ab 03 bf
       -0.11575435 -0.019908497 0.15587564 -0.51432806

node_gat2.att_src f4 [1, 4, 64]
000000 91 12 01 bd 01 54 4e 3d 01 73 86 bc 8e be 31 be
       -0.031511847 0.05037308 -0.01641226 -0.17357847
000010 6d d0 bf bd e4 68 37 3e 7d 43 12 bd 3e 4b 0c bd
       -0.09365926 0.17911106 -0.035708893 -0.034251444
000020 4a ff 8e bd a0 40 0e be 70 fa 5e be 60 1f b7 bd
       -0.06982286 -0.1389184 -0.21775222 -0.08941531
000030 5e fb e6 bc bb 7e 27 be 77 7c 57 3e 8a c4 c4 bd
       -0.028196033 -0.16356938 0.21043573 -0.09607799
000040 31 df 29 3e 52 92 59 3e 3b 36 a0 bb 20 19 7c bd
       0.16589047 0.21247223 -0.0048892773 -0.0615474
000050 3c 8c 55 3e d6 d6 4e be bf f5 2a be b6 e7 4f be
       0.20854276 -0.20199141 -0.16695307 -0.20303234
000060 90 8a 91 bd 52 8e 95 bc 36 7b 2e be 8c 96 8e bd
       -0.07106507 -0.01825634 -0.17039189 -0.06962308
000070 4d 5f 92 3c 12 a5 00 bf 14 7b df 3e 14 a4 1e be
       0.017867709 -0.5025188 0.4364859 -0.15492278
000080 8b 11 82 bd c4 1a 71 3e 84 19 91 bc a0 07 68 bc
       -0.06351002 0.23545367 -0.017712362 -0.014161974
000090 db 34 ce 3d c1 fe 90 3e 08 49 10 be d3 74 bc 3e
       0.10068675 0.28319362 -0.14090359 0.3680788
0000a0 72 39 96 3d 9d 68 fc 3e 81 a1 7a 3d 23 59 05 be
       0.073351756 0.49298564 0.06118918 -0.13022284
0000b0 de b5 14 bf 34 61 2e bd 85 32 81 3d 45 63 49 3e
       -0.5809001 -0.04257317 0.06308464 0.19666775
0000c0 e8 a6 94 3c 3f 84 05 3d 1d bc 93 3e 34 8c 52 3e
       0.018145993 0.032596823 0.28854457 0.20561296
0000d0 f7 6c 6f 3e 3b 6a 0d 3f 34 be 83 3e f3 3f 88 3e
       0.2338141 0.5524022 0.2573105 0.2661129
0000e0 18 d6 82 3f a9 fd 6b 3f ac 57 23 3f 97 6b 80 3d
       1.0221586 0.9218393 0.6380565 0.06270521
0000f0 35 54 f5 3c 02 34 b1 3e 69 00 5a bc 73 bd 68 bd
       0.02994738 0.3460999 -0.013305762 -0.056821298
000100 28 8b 46 bd 7d b3 50 be 34 35 8f 3e ba ae 10 be
       -0.048472553 -0.2038097 0.27970278 -0.14129153
000110 e4 52 15 3f d5 3f 08 3e c5 2b 25 3e 83 ef 2d 3f
       0.58329606 0.133056 0.16129978 0.6794359
000120 c9 35 bd 3d 47 c1 e1 bd 59 3a f5 3d 8c 84 e8 3e
       0.09238774 -0.11023193 0.119740196 0.45413625
000130 21 2c d2 be 0e 5c 0a be ca dd a5 bc e6 3b 95 3e
       -0.41049293 -0.13511679 -0.020247359 0.2914726
000140 29 42 87 3e c2 d5 32 3e cf 58 80 be a8 c7 5b 3e
       0.26417664 0.17464355 -0.25067756 0.21462882
000150 25 12 3f ba 0d 61 4f bd 27 59 96 3e 1b aa 6c 3e
       -0.00072887755 -0.050629664 0.29364893 0.23111765
000160 54 29 8a 3d 02 d2 02 bd 6a 38 5b bd b3 d0 32 be
       0.06746164 -0.03193856 -0.053520598 -0.17462425
000170 27 60 47 3e 2f fc 39 bf 4a 7c 84 be b3 b5 28 bf
       0.19470273 -0.72650427 -0.25876075 -0.6590225
000180 80 f8 b6 3d f9 75 11 be e6 66 95 bc 06 95 a8 be
       0.08934116 -0.14205159 -0.018237542 -0.32926196
000190 1d 20 11 3f 0c 3b 4f bc 04 93 44 bd 8c 0a 47 bc
       0.56689626 -0.012648355 -0.047991768 -0.012148511
0001a0 92 e0 2a 3e 47 12 29 be 05 16 88 be e9 7e ea bb
       0.1668723 -0.16510879 -0.265793 -0.007156242
0001b0 2a 50 b7 be 9c 0f bd bd 59 ec 6e 3c db 75 f5 3c
       -0.35803348 -0.09231493 0.014582717 0.029963424
0001c0 21 91 40 bd 43 00 5d 3d a4 ef f5 bb de 00 d7 bc
       -0.047013406 0.053955328 -0.007505374 -0.02624553
0001d0 ce 1d 1f 3e 75 c2 9f bd 73 ea 2c 3d ea c3 1a be
       0.15538713 -0.078007616 0.042215776 -0.15113798
0001e0 5b bd 39 3d 3d bf c0 3d 74 eb 08 be ff 46 3f bd
       0.0453466 0.09411476 -0.13371068 -0.046698567
0001f0 4c ea 9f be fd 21 cf 3d c3 89 46 3e 46 e7 08 3d
       -0.31233442 0.101139046 0.1938849 0.033423685
000200 5d db 1e be 44 17 fd 3d f3 ba 0b bd 4f ce a6 bd
       -0.15513368 0.12357953 -0.034113836 -0.08144819
000210 50 a7 5b bb b0 05 3e 3d 24 ed a5 3b f3 fd d5 3e
       -0.0033516474 0.046392143 0.0050636698 0.4179531
000220 80 44 80 be ef 0d 70 3e 98 f1 1a 3e 58 b0 9c be
       -0.2505226 0.23442815 0.15131223 -0.3060329
000230 e1 fb 62 bd 7d c1 15 bd 4c 7d 1e be e4 8a 0e 3e
       -0.05541599 -0.036561478 -0.15477484 0.1392017
000240 b2 b3 a6 bd 6f 47 2f bd cc dd cb bd 8b d2 64 be
       -0.08139743 -0.042792734 -0.09954414 -0.22345941
000250 1c dd 37 be 6a 89 1b 3e e4 99 ae 3e 6b 22 2f bd
       -0.1795544 0.15189138 0.34101784 -0.042757433
000260 84 83 2a bd 75 e4 25 3e 2c 45 1f 3e 43 a4 53 3e
       -0.04162933 0.1620043 0.1555373 0.2066813
000270 a7 d8 ca bd a8 d6 f6 3d ac bd 98 be 70 25 01 be
       -0.099046044 0.12052661 -0.29832208 -0.12611938
000280 db a8 1c 3f be a0 e9 3d 64 4a 86 3e 5b d9 bb 3e
       0.61195153 0.11407612 0.2622863 0.36689267
000290 07 00 41 bd 23 cc e1 bd 97 1a ce 3c fb 7c 0e bc
       -0.047119167 -0.11025264 0.025159163 -0.00869679
0002a0 e2 03 05 be 14 fc 0b be 93 bb 23 3f 00 19 0c 3e
       -0.12989762 -0.13670379 0.6395809 0.13681412
0002b0 cf 52 c6 3d 8b fa ab 3c e0 a2 13 3e b0 b5 2a 3f
       0.09683763 0.020993492 0.144176 0.66683483
0002c0 8d 54 3a bc 8b 57 39 3f fd 56 0c bc 9a d4 f3 bb
       -0.011372698 0.72399205 -0.0085656615 -0.0074411156
0002d0 9a bf a1 bd 97 0d 18 be 2f 64 13 be 5a 01 d2 be
       -0.07897873 -0.14848934 -0.14393686 -0.41016656
0002e0 75 c6 0f bc 18 97 b8 3d 50 fc af 3d 04 64 e2 3d
       -0.008775343 0.09013194 0.08593047 0.11054233
0002f0 63 41 17 bf 89 49 32 be 5d c8 b9 3e 65 26 d0 bd
       -0.5908415 -0.17410864 0.36285678 -0.10163573
000300 95 d9 ec bc 97 8e 8b be 18 c8 d7 3b 2b 4d 74 bd
       -0.028912345 -0.27257225 0.0065851323 -0.059643906
000310 41 d2 03 3e 6e 77 98 3d c4 12 68 3d 79 ee be 3d
       0.12873174 0.074446544 0.05665852 0.09322829
000320 46 6d 02 3e 48 1f 3e 3d c3 0b 92 3c 24 a3 f3 be
       0.12736997 0.04641655 0.017827874 -0.47585404
000330 ec 38 63 be 17 2b b8 3d 02 ae b4 3e cb 1c b8 3e
       -0.22189683 0.08992594 0.35289007 0.35959467
000340 48 1f 88 3d fc 85 44 3d 32 cb 3d 3d ca f3 ae be
       0.066465914 0.04797934 0.04633636 -0.3417037
000350 9c e4 24 3e 6c 77 23 be 81 77 5c be 05 8a c1 bd
       0.16102833 -0.15963525 -0.21529962 -0.09450153
000360 90 27 f1 3b ab 80 25 3d 74 74 c1 3e f7 d5 4c 3d
       0.0073594525 0.04040591 0.3778416 0.05000874
000370 28 61 c0 bd 81 95 18 bd 27 b0 76 bd 93 8d 80 bc
       -0.09393531 -0.037251953 -0.060226586 -0.015692508
000380 b3 da 99 3c 12 f6 6a be 5b 1a 99 bd e7 95 33 3f
       0.018781042 -0.22945431 -0.0747573 0.7015061
000390 ef 9c 83 bd 33 e5 a5 bd c1 e3 b4 bd d1 43 bd bd
       -0.06426417 -0.08100357 -0.08832503 -0.092414506
0003a0 d3 88 61 bd 94 2b 72 3e 83 9d 24 bd 86 ae c5 bd
       -0.055062126 0.23649436 -0.040189277 -0.09652428
0003b0 ef c0 49 3e f0 75 36 3e 03 4b 04 3e 24 b8 10 3e
       0.19702505 0.17818427 0.1291924 0.14132744
0003c0 7a e8 75 bf e1 11 0a be dc bc 98 bf 52 26 a5 be
       -0.96057856 -0.13483383 -1.1932635 -0.322558
0003d0 ed a6 1f be 03 bf 60 3d a3 cc 80 bd 05 b5 87 3d
       -0.15591021 0.054869663 -0.06289031 0.066263236
0003e0 c8 9f 04 3a 5b aa f5 bc 06 cb d5 bd c3 f0 0d be
       0.00050592097 -0.029988458 -0.10439114 -0.13861375
0003f0 b6 33 28 3d a8 ba 17 3d f4 48 ac 3f a3 10 b5 3d
       0.04106494 0.037043244 1.3459764 0.08841064

node_gat2.att_dst f4 [1, 4, 64]
000000 b6 ca e6 3d 8a 57 bb be e3 4a 32 be 5d 45 8f 3d
       0.11269133 -0.36590225 -0.1741138 0.06995652
000010 45 db db bd 7f 1c 28 3e 87 38 07 3e fa 2e ee be
       -0.10735182 0.1641712 0.13205157 -0.46520215
000020 a8 41 a1 be fa 34 5c bf a3 8a 49 bf 97 d6 3b bf
       -0.31495404 -0.86018336 -0.7872717 -0.73374313
000030 64 69 c8 3d 85 77 82 bd d1 24 b6 3d 35 e4 9b 3e
       0.09785727 -0.06370453 0.08893741 0.30447546
000040 46 84 02 bf 19 10 3b 3e 4a 7e ce bd 71 c6 19 bf
       -0.50983083 0.1826786 -0.100826815 -0.6006842
000050 a0 6e 5a 3e 9e 0f d3 be c6 6a 8b be 93 6e 87 be
       0.21331263 -0.41222852 -0.272299 -0.2645155
000060 bc 9b e9 3e 4d c6 f2 3d c4 5f 42 bd 76 19 65 bc
       0.45626628 0.11854229 -0.04745461 -0.013983121
000070 aa 36 8f 3e c7 6c 28 3e cd 19 5b 3c c3 49 0b be
       0.27971393 0.16447745 0.013372851 -0.13602357
000080 7e 6a 1b bf 13 1c 53 be f6 ba 57 be e4 70 c8 bd
       -0.6070937 -0.20616178 -0.21067414 -0.09787157
000090 18 ca 16 3e d3 9d a0 3e 79 ac 4b 3d 93 18 f5 3e
       0.1472553 0.3137041 0.04972503 0.4787031
0000a0 49 67 70 bd 3d cc 82 3e 0c 0b 08 3e df 30 4b bf
       -0.05869225 0.25546446 0.13285464 -0.79371446
0000b0 56 37 cd 3e ba 14 0e 3f 11 31 9b 3e 40 4c 0a 3f
       0.4008128 0.55500376 0.30310872 0.540226
0000c0 4b 95 ae 3d ae 3a 22 3e 40 a4 a6 3e 58 e4 cc 3e
       0.08524569 0.15842697 0.32547188 0.40017962
0000d0 64 bf 80 3e e3 82 50 3e 40 d9 1b 3d e9 a0 61 3e
       0.2514602 0.2036243 0.038048983 0.22034039
0000e0 2f ea a6 3e 78 fc b9 3e 39 27 dd 3d fd cb 0e 3f
       0.32600543 0.3632543 0.10798497 0.5578001
0000f0 d6 d6 98 bc 74 eb cd 3e 7b 55 87 3d 6f c2 04 3e
       -0.01865713 0.402187 0.06608101 0.12964796
000100 e1 32 01 be 85 25 76 be 4e 70 b4 bd 93 25 3c be
       -0.12617065 -0.2403775 -0.08810483 -0.18373708
000110 9e cf 18 3f c7 fd dd bd 35 0e 82 3e 11 9c 13 be
       0.596918 -0.1083942 0.25401464 -0.14415003
000120 71 96 f3 bc 5d 10 12 3f b8 ab ad 3e c1 3d 68 3f
       -0.029734822 0.5705622 0.33920074 0.9071923
000130 35 4b 19 be 4e 80 0a be be 56 2f 3e 14 89 b0 bd
       -0.14970095 -0.13525507 0.17122933 -0.086198956
000140 27 b2 d3 be 66 0b 75 bf 63 47 74 bf a2 fb df be
       -0.41346857 -0.9572052 -0.9542143 -0.43746668
000150 cb 99 e5 3e 90 45 9d bd d3 97 24 3e 58 1d 5a 3e
       0.44843897 -0.076792836 0.16073541 0.21300256
000160 e1 07 4b be af 6d 0f 3e 2c 1d db 3d 49 38 1a bf
       -0.19827224 0.14006685 0.106989235 -0.60242134
000170 7e d9 d8 3e db 4b 72 3e df b2 27 3d 17 67 7e be
       0.42353433 0.23661749 0.04094207 -0.24844013
000180 2f 1e 08 be 11 d3 c4 3e 3b 78 16 3f 88 3d 01 3f
       -0.13292764 0.3844228 0.5877721 0.50484514
000190 ae 52 ae 3d d8 a7 98 3e 3c f1 1c 3f 6f 22 28 3f
       0.08511864 0.29815555 0.61305594 0.6567754
0001a0 83 2e c0 bd 3f 48 50 bf 66 59 87 3d cd 68 52 bf
       -0.093838714 -0.8136024 0.06608848 -0.82191163
0001b0 5f 4f c4 bd f7 4f 09 3f 7b c5 13 3f 53 57 9c 3d
       -0.09585451 0.5363764 0.57723206 0.07633843
0001c0 e9 0e 2a 3d 7b ca c2 be cc 80 a3 bd a7 fd b1 be
       0.041518126 -0.38045105 -0.079835504 -0.34763834
0001d0 47 ff 78 3e 8d 20 db 3c 78 8a 23 3f c9 5d 00 3f
       0.2431613 0.02674892 0.6388316 0.50143105
0001e0 17 73 d1 be 92 27 a2 be 60 94 9c be 8c 65 d4 3d
       -0.4090812 -0.31670815 -0.3058195 0.10370931
0001f0 40 b1 28 be e0 51 36 3f b3 61 ce bd 3c cc 1e 3f
       -0.16473866 0.7121868 -0.100772284 0.62030387
000200 81 a0 20 be 06 15 d1 bd 0f d2 97 be 86 77 56 3b
       -0.15686227 -0.10209088 -0.2965245 0.003272505
000210 9d cc b9 3d 8b c9 d2 3e 74 c7 f8 3e 9d 86 44 3f
       0.0907223 0.4116939 0.4858967 0.76767904
000220 fd 4f 9c bd 8c 31 da 3e dd 03 03 3f 95 0e ac be
       -0.07632444 0.42615926 0.5117777 -0.33604875
000230 d5 a5 9a 3e 39 63 ea 3d 90 f6 d8 bd c7 04 d7 3c
       0.30204645 0.114447065 -0.10593903 0.026247395
000240 a8 53 cd 3e 3e 17 6a 3e 13 03 00 be 95 f9 ce 3e
       0.40102887 0.22860429 -0.12501173 0.4042479
000250 4d ae 81 be ab 05 24 3f 17 2f 54 3f fb ef 21 3e
       -0.25328293 0.6407115 0.82884353 0.15814202
000260 16 30 7a bf 97 fb db bc 9a 1f 27 bf 6e 92 83 3d
       -0.97729623 -0.026853366 -0.65282595 0.064244136
000270 72 12 f6 3e ab 0d 4f 3e 67 2a 8a bd 5a e6 c0 be
       0.48060948 0.20220058 -0.06746369 -0.37675744
000280 de 74 2a 3d b0 c4 2d bf 81 ef 0a 3e 13 96 15 3e
       0.04161536 -0.67878246 0.13567926 0.1460803
000290 a8 6c 7c 3e 2f 62 61 be 04 c6 72 3e 20 53 08 3e
       0.24650824 -0.2201011 0.2370835 0.1331296
0002a0 ca 33 8b 3d 87 c1 e5 3e 26 8d 29 3f d9 98 d8 3d
       0.06796987 0.44874212 0.66231 0.105760284
0002b0 4c 54 0a bf e9 61 c0 be 7c f5 74 be 2d 56 cb 3d
       -0.54034877 -0.375747 -0.2392177 0.09928546
0002c0 c5 d9 01 3f 48 00 a4 3e 94 18 98 3e 51 ef 20 3f
       0.50722915 0.32031465 0.29706252 0.6286517
0002d0 89 d3 92 3e e4 1e b2 3e c1 75 ae 3c 4d 66 dd be
       0.28677014 0.34789193 0.021296384 -0.43242112
0002e0 bc 9e 99 bd a8 3b 1c be 20 ba fb be e4 75 96 be
       -0.07500979 -0.15257132 -0.4916544 -0.29386818
0002f0 25 3f 01 be 20 e1 d5 3e 00 9a 24 3f d9 aa f6 3e
       -0.12621744 0.4177332 0.64297485 0.4817722
000300 41 da a1 3e d1 b0 a5 3e 03 1a ce 3e 18 6e 65 3e
       0.31611827 0.32361463 0.4025422 0.22405279
000310 cc f6 21 be 57 14 c3 bd 36 ac dd be 51 7d be be
       -0.15816802 -0.09525364 -0.4329545 -0.37204984
000320 f7 53 ac 3e eb 35 d3 3d 0e d2 16 be c8 91 a1 be
       0.3365781 0.103130184 -0.14728567 -0.31556535
000330 76 5e 1f bf 15 3a d0 be 25 e1 76 3e 6e 2e c1 3c
       -0.6225351 -0.40669313 0.24109323 0.02358171
000340 a5 87 81 be ff b3 15 3c 55 2a 84 be 96 2b 4c bf
       -0.252988 0.009137153 -0.25813547 -0.79754007
000350 73 9b 06 be 7a 3a c0 be ef 9e 0a bf 2a d5 61 be
       -0.13145237 -0.37544614 -0.54148763 -0.22053972
000360 90 d8 c5 3d 05 4c 9a bb 9b 0c bf 3e b9 49 d3 3d
       0.09660447 -0.0047087693 0.37314305 0.10316796
000370 fd 8f 07 bd 60 27 0b 3f a7 4a 3d 3c 8f 4e 1f 3c
       -0.033096302 0.54356956 0.011553443 0.00972332
000380 d1 f3 d8 3e 3f ad 15 be 52 ca 5f be bd 8d 1f 3f
       0.42373517 -0.1461687 -0.21854523 0.6232565
000390 9c 3b 9e 3a 52 36 6a bd 88 54 fa bd fb d9 53 be
       0.0012072208 -0.05718071 -0.12223154 -0.20688622
0003a0 73 08 f7 bd 82 ff 8d 3e 84 2a 3b be 18 34 0a bf
       -0.120621584 0.27734 -0.18277937 -0.5398574
0003b0 8c df 7d be 80 cd 48 be 41 1f 08 be 05 26 6c be
       -0.24792308 -0.19609642 -0.13293172 -0.23061378
0003c0 4e 2b 08 bf 3e ae df 3e 20 2c 10 3e 82 48 98 be
       -0.5319108 0.43687624 0.14079332 -0.2974282
0003d0 71 6b 0a bf 2e 59 44 be 63 9b 08 bf 1e d2 98 3d
       -0.5407019 -0.19174644 -0.533621 0.07461952
0003e0 33 02 1a 3e 95 48 82 be c8 e4 69 be f3 b3 ab be
       0.15039901 -0.25446 -0.2284118 -0.33535728
0003f0 14 7d 8e bd 02 c5 54 3d 3c e4 0e 3f cd c7 d6 3e
       -0.069574505 0.051945694 0.5581701 0.4194931
