src/scenario_eval_model/model_dir/improve_v1/gnn_binary_classification_model_1.pt (torch, 647634 bytes, 47 tensors)

node_gat1.att_src f4 [1, 4, 64]
0	0xbe288404	-0.1645661
1	0x3e453891	0.1925986
2	0xbdf1e0b6	-0.11810438
3	0xbd53a4d5	-0.051670868
4	0x3c98aeeb	0.018638095
5	0xbe9c8bd4	-0.3057543
6	0xbe515c2d	-0.20445319
7	0x3e2c47d9	0.16824283
8	0xbd88d241	-0.06680728
9	0xbe18be96	-0.14916453
10	0x3df37e22	0.11889292
11	0xbe820033	-0.25390777
12	0x3e3ae2ca	0.18250576
13	0xbd23b881	-0.03997088
14	0x3e75a0b4	0.23987085
15	0x3cdd5400	0.027017593
16	0xbe623d5a	-0.22093716
17	0xbe333e09	-0.17504133
18	0xbe0c55e3	-0.13704638
19	0xbcd096a7	-0.025462462
20	0xbdfb84e2	-0.12281205
21	0x3ed3f468	0.41397405
22	0xbe104e31	-0.14092328
23	0xbe5b6087	-0.21423541
24	0x3b11697c	0.0022188118
25	0xbde12089	-0.10992534
26	0xbe80aa5c	-0.25129974
27	0xbda5c432	-0.08094062
28	0xbcf39526	-0.029734205
29	0x3d6abb3b	0.057307463
30	0xbe403f81	-0.18774225
31	0xbd88949f	-0.06668972
32	0x3d30edb7	0.043195453
33	0xbcdbe189	-0.026840942
34	0x3dfeb027	0.12435942
35	0xbe377856	-0.17916998
36	0x3e7e5084	0.24835402
37	0x3cad9cd8	0.021192953
38	0xbe18e626	-0.14931545
39	0xbde6bca1	-0.11266447
40	0x3e72ecee	0.23723194
41	0xbd98d456	-0.07462375
42	0xbe04b4c5	-0.12959583
43	0xbe87ad59	-0.2649944
44	0xbe3df126	-0.18549022
45	0x3e11d0d5	0.1423982
46	0xbe171559	-0.14754237
47	0x3e6a71e6	0.22895011
48	0xbe5be7a5	-0.21475084
49	0xbc4f4401	-0.012650491
50	0x3d39f63a	0.045400836
51	0xbecf3829	-0.40472534
52	0xbe7202a8	-0.23633826
53	0xbe120baf	-0.1426227
54	0x3d2f2235	0.04275723
55	0x3e76f93a	0.2411851
56	0x3e19975e	0.14999148
57	0x3e418a2b	0.18900363
58	0xbe59444c	-0.2121746
59	0xbe81f4ab	-0.2538198
60	0xbdf19948	-0.11796814
61	0xbd87f921	-0.066393144
62	0x3e067bef	0.13133214
63	0xbedd2d5e	-0.43198675
64	0x3d769171	0.060197297
65	0xbe602d94	-0.21892387
66	0xbdee42fa	-0.116338685
67	0x3ab243f8	0.0013600579
68	0x3d6e0c3f	0.058117148
69	0x3e2288d7	0.15872513
70	0xbd32dd3a	-0.04366801
71	0xbe4d3062	-0.20037988
72	0x3dc85242	0.097813144
73	0x3d56c066	0.05242958
74	0x3c8bf8c3	0.017086392
75	0x3d959c47	0.07305198
76	0x3da1992b	0.078905426
77	0x3e23bd23	0.15990119
78	0xbe011380	-0.12605095
79	0x3da94228	0.082645714
80	0x3e941053	0.28918704
81	0xbdbf0367	-0.09326821
82	0xbddc161d	-0.10746405
83	0xbe995faf	-0.29955813
84	0x3e11b8f3	0.14230709
85	0x3d1ddf73	0.038543176
86	0x3a7ea72c	0.00097142416
87	0xba3047b3	-0.0006724551
88	0xbd97c8e3	-0.07411363
89	0x3ddc4939	0.107561536
90	0x3dc1a0d0	0.09454501
91	0xbc347ac6	-0.0110156
92	0xbe1eae4e	-0.1549618
93	0xbdc44162	-0.09582783
94	0xbc8af7d6	-0.01696388
95	0x3e405200	0.1878128
96	0xbd3755b2	-0.04475946
97	0x3d71207c	0.05886887
98	0x3d6cca1f	0.057809945
99	0xbc2f0ea1	-0.01068464
100	0xbb03a220	-0.0020085648
101	0x3d03d1a8	0.032182366
102	0xbbccf9c9	-0.0062553626
103	0x3e25af89	0.16180243
104	0x3c98161e	0.018565234
105	0xbe0e535a	-0.13898984
106	0xbe25f896	-0.1620811
107	0x3d805958	0.06267041
108	0xbe0bc0e2	-0.13647798
109	0xbc87ed8b	-0.016592762
110	0xbd9e71b2	-0.077365294
111	0xbdeefd85	-0.11669449
112	0xbcdc4256	-0.0268871
113	0xbd20c925	-0.039254326
114	0x3d4f2e02	0.050580986
115	0x3d8d484a	0.06898554
116	0x3e1dd065	0.15411527
117	0xbdb1cb1b	-0.086813174
118	0x3e2cdd4b	0.16881292
119	0x3d8fec30	0.07027471
120	0xbd322c83	-0.04349948
121	0x3d9f4400	0.07776642
122	0xbd16f2b3	-0.03685255
123	0xbd9ce3ec	-0.0766066
124	0xbe3600f1	-0.17773797
125	0xbe0b1e07	-0.13585673
126	0xbe0ae149	-0.13562502
127	0x3d15087e	0.036385052
128	0xba997a65	-0.001170945
129	0xbf414063	-0.7548887
130	0xbe5b1ffe	-0.21398923
131	0x3e41a287	0.18909656
132	0x3d9c1fc4	0.07623246
133	0x3e6502ff	0.22364424
134	0x3f7c832d	0.9863766
135	0xbf3db6c2	-0.7410699
136	0x3e39ccc8	0.18144524
137	0xbd1333c2	-0.035938032
138	0xbe036760	-0.12832403
139	0xbe6532eb	-0.22382705
140	0x3de4e65f	0.11176752
141	0xbe1599f1	-0.14609505
142	0xbe37537a	-0.17902938
143	0xbdc6801b	-0.09692403
144	0xbd96f7bb	-0.073714696
145	0xbf6ffd87	-0.9374623
146	0xbd0753eb	-0.033039015
147	0x3e92f5bf	0.28703114
148	0x3e0594f8	0.13045108
149	0x3da48195	0.08032528
150	0x3dc84513	0.097788
151	0xbc30cbc4	-0.010790769
152	0xbe572db8	-0.21013534
153	0x3df95da0	0.12176061
154	0x3d8b3bd0	0.06798518
155	0xbf01c0f3	-0.5068504
156	0x3e0f7758	0.1401037
157	0xbf91648b	-1.1358808
158	0xbda56fd1	-0.08077968
159	0x3daae260	0.08343959
160	0x3dcd5878	0.1002664
161	0xbee1899f	-0.4405031
162	0xbd6e69ec	-0.058206484
163	0xbdd60bdb	-0.1045148
164	0xbe34bafd	-0.17649455
165	0xbdb94750	-0.09046805
166	0x3f4928cc	0.78577876
167	0xbf09f99f	-0.53896517
168	0x3d76214b	0.060090344
169	0xbe8019c3	-0.25019655
170	0xbed66263	-0.41871938
171	0x3f2b4a28	0.6691003
172	0x3d148bd2	0.036266156
173	0x3daf3d54	0.08556619
174	0xbe243a67	-0.16037904
175	0xbea24c97	-0.31699058
176	0x3d6e17d3	0.05812819
177	0xbd7cb704	-0.061697975
178	0x3df25690	0.11832917
179	0x3d24a0a2	0.040192254
180	0x3b8cf34a	0.0043014633
181	0xbcf7ec78	-0.030264124
182	0x3ed12920	0.40851688
183	0x3e9ef54c	0.31046522
184	0xbeb18d91	-0.3467832
185	0xbca0c820	-0.019626677
186	0xbf59bbdd	-0.8505228
187	0xbe2e6dbb	-0.17034046
188	0x3da5053a	0.080576375
189	0x3dd79f03	0.10528376
190	0x3dbd11b5	0.09231893
191	0xbe0eb268	-0.13935244
192	0x3f0549b2	0.52065575
193	0x3e24fa32	0.16111067
194	0xbdf8b8f1	-0.1214465
195	0x3eca26ed	0.39482823
196	0x3f09f416	0.5388807
197	0xbefd9089	-0.49524334
198	0xbd8a4e5e	-0.067532286
199	0xbea13723	-0.31487378
200	0xbec69877	-0.38788196
201	0xbe209f04	-0.1568566
202	0xbea1c70f	-0.31597182
203	0xbe52e619	-0.20595588
204	0x3e0cef64	0.13763195
205	0xbd761c22	-0.060085423
206	0x3cb20641	0.021731498
207	0xbe117756	-0.1420568
208	0xbd5fe8e2	-0.054665454
209	0xbe794b51	-0.24345137
210	0x3e89f28e	0.26942867
211	0xbe64a149	-0.2232715
212	0x3ece9b16	0.40352696
213	0xbe5ad1a7	-0.21369039
214	0x3f19e38e	0.60112846
215	0x3e9e79e3	0.30952367
216	0x3cda1412	0.026620898
217	0xbec0d617	-0.37663338
218	0xbdb11237	-0.08646052
219	0x3ecdb2f2	0.40175587
220	0x3ec945d5	0.3931109
221	0xbd390263	-0.04516829
222	0xbf04d4e9	-0.51887375
223	0xbe1a1077	-0.15045343
224	0x3e8d1e1e	0.2756204
225	0xbeda1693	-0.42595348
226	0xbe0c1652	-0.1368039
227	0xbeca77c8	-0.3954451
228	0x3e43c7bd	0.19119163
229	0xbe0e281d	-0.1388249
230	0x3e359889	0.17733969
231	0xbd9c1b60	-0.07622409
232	0x3ee64fb5	0.44982687
233	0x3e3aa54c	0.18227118
234	0xbe626566	-0.22108993
235	0x3f173683	0.59067553
236	0xbe939da9	-0.28831223
237	0x3ded822f	0.11597096
238	0x3d8c7519	0.06858272
239	0xbdf058e6	-0.11735706
240	0x3f523700	0.82115173
241	0x3efbe807	0.4920046
242	0xbdff5f70	-0.12469375
243	0xbcbe1074	-0.023201205
244	0x3e769e8f	0.24083923
245	0x3e5d6002	0.21618655
246	0xbc9d8731	-0.019229503
247	0x3d823b35	0.06358949
248	0xbe8d89aa	-0.27644092
249	0x3e99ae39	0.30015734
250	0x3e9416f9	0.28923777
251	0x3e43c093	0.1911643
252	0x3e03b83a	0.12863246
253	0xbdd9b9ed	-0.10631166
254	0xbdc6f376	-0.09714405
255	0xbe77fb63	-0.2421699

node_gat1.att_dst f4 [1, 4, 64]
0	0x3f90284e	1.12623
1	0xbf3ccfc6	-0.7375454
2	0x3ef5e431	0.4802566
3	0x3ed66520	0.41874027
4	0x3e9f4c3c	0.3111285
5	0xbf1732c4	-0.5906184
6	0x3f651df1	0.8949881
7	0x3dde67cc	0.108596414
8	0x3c017554	0.007901508
9	0x3f214e0b	0.6300971
10	0x3e2b3f48	0.16723359
11	0x3e1b6770	0.15176177
12	0xbf43830e	-0.7637185
13	0x3f6a1111	0.9143229
14	0xbf977da0	-1.1835213
15	0x3bb9b649	0.005667482
16	0x3f72f312	0.94902146
17	0x3f2f6cb6	0.68525255
18	0x3f376fca	0.7165495
19	0x3e8c63e8	0.27419972
20	0x3d06a6ed	0.032874037
21	0xbfa92a92	-1.3216116
22	0xbe260a08	-0.16214764
23	0xbd559224	-0.052141324
24	0x3f34f62d	0.70688134
25	0x3e02069a	0.12697831
26	0x3fc54679	1.5412132
27	0x3eabf1a8	0.33582807
28	0xbe98b8f2	-0.29828602
29	0xbeee1a6c	-0.46504533
30	0x3f6fa7aa	0.9361521
31	0xbf7b1606	-0.9808048
32	0x3e109809	0.14120497
33	0x3f08bd2b	0.5341365
34	0xbe64a8d5	-0.2233003
35	0xbf16eec4	-0.5895808
36	0xbf86c4dc	-1.0528827
37	0xbf81faa6	-1.0154617
38	0x3f61011d	0.87892324
39	0x3ea264d8	0.31717563
40	0xbf3522c0	-0.7075615
41	0x3e6779ca	0.22605053
42	0x3f2c60c4	0.6733515
43	0x3f8dbe1b	1.107364
44	0x3fae5430	1.3619442
45	0x3e4ab878	0.19796932
46	0x3f70fa79	0.9413219
47	0xbf56d45e	-0.83917797
48	0x3f50c7b5	0.8155473
49	0x3efffaf5	0.49996153
50	0xbf0a4a5c	-0.54019713
51	0x3fac38e9	1.3454868
52	0x3f9261c4	1.1436086
53	0x3e666789	0.22500433
54	0xbdefca49	-0.11708505
55	0xbf5706c0	-0.83994675
56	0x3e3a5a1b	0.18198435
57	0xbd22b9b8	-0.039727896
58	0x3f559fd0	0.8344698
59	0x3eb5be41	0.35496715
60	0x3ec90d57	0.3926799
61	0x3ecf5689	0.4049571
62	0xbeeb7e5b	-0.4599484
63	0x3f0688a3	0.5255224
64	0xbf295cc1	-0.66157156
65	0x3eafe317	0.34352943
66	0x3da9fb3b	0.082998715
67	0xbf34f794	-0.70690274
68	0x3e960d55	0.29307047
69	0x3e79e66e	0.24404308
70	0xbe513d5a	-0.2043356
71	0xbe88b195	-0.26697984
72	0xbe0db7aa	-0.13839594
73	0xbd839106	-0.064241454
74	0x3f69af47	0.91283077
75	0xbe9b498d	-0.30329552
76	0x3f0316a4	0.5120642
77	0xbf03aba7	-0.51433796
78	0x3ea71fff	0.326416
79	0xbe780c33	-0.24223404
80	0xbe885974	-0.26630747
81	0x3e76857d	0.24074359
82	0xbf4ff063	-0.81226176
83	0xbf305d7b	-0.6889264
84	0xbe293bf2	-0.16526774
85	0xbf9b3deb	-1.2128271
86	0x3e54e10a	0.2078897
87	0xbd3f8e02	-0.04676629
88	0x3eaaf9d1	0.3339372
89	0xbf30af15	-0.69017154
90	0xbe4dede6	-0.20110282
91	0xbe89b85c	-0.26898468
92	0xbea1f782	-0.31634146
93	0xbea747a2	-0.3267184
94	0xbf699b2a	-0.91252387
95	0xbf39752c	-0.72444415
96	0xbfc1acda	-1.5130875
97	0xbe73bb62	-0.2380195
98	0x3c367282	0.011135699
99	0x3ea2576c	0.31707323
100	0x3d3b11f4	0.04567142
101	0x3f153a17	0.58291763
102	0x3f31bd5a	0.6942955
103	0xbfe66d66	-1.8002136
104	0xbf9961ef	-1.1983012
105	0x3e551c84	0.20811659
106	0xbe912387	-0.28347418
107	0x3d4613b2	0.048358627
108	0xbe58a7fa	-0.21157828
109	0x3e3d54ea	0.18489423
110	0x3e0c3f55	0.13696034
111	0x3efa67ac	0.4890722
112	0xbefa1056	-0.48840588
113	0xbf257c92	-0.64643204
114	0xbca9c420	-0.020723403
115	0xbf10eccc	-0.56611323
116	0xbe998aa1	-0.29988578
117	0x3f21dc82	0.63227093
118	0xbf67d22a	-0.9055506
119	0xbf697b57	-0.91203827
120	0x3ed74ab3	0.42049178
121	0x3d24c1af	0.040223774
122	0x3f0ab9ad	0.5418957
123	0x3ec78e4b	0.38975748
124	0x3ea20041	0.3164082
125	0x3f0557ce	0.52087104
126	0x3e78e6cb	0.2430679
127	0xbd2072e3	-0.039172065
128	0x3f4c49cc	0.79800105
129	0x3d1718a0	0.03688872
130	0xbe5a2c1e	-0.21305892
131	0xbf0eabc0	-0.5573082
132	0xbf222ee3	-0.63352793
133	0xbd6b79d6	-0.05748924
134	0xbe6aa25b	-0.22913496
135	0x3e85aa55	0.26106516
136	0x3f04ee65	0.5192626
137	0xbcaed085	-0.021339664
138	0xbf3102be	-0.6914481
139	0xbebb1cf2	-0.3654552
140	0xbc5a21f6	-0.013313761
141	0xbd36e8b1	-0.044655506
142	0x3d2d9a81	0.042383675
143	0x3e47aab9	0.1949872
144	0x3f32f640	0.69907
145	0xbf0f5256	-0.5598501
146	0xbe9a685e	-0.3015775
147	0xbea6b298	-0.3255813
148	0x3f998d46	1.1996238
149	0x3f5a7604	0.8533633
150	0xbf6d3d44	-0.9267161
151	0xbf55303a	-0.8327671
152	0x3f336a3a	0.70083964
153	0xbf54348a	-0.8289267
154	0x3fb264a1	1.393696
155	0x3f01934e	0.50615394
156	0xbf01ae1f	-0.5065631
157	0xbdee2c00	-0.11629486
158	0x3f35247b	0.7075879
159	0xbf226b65	-0.6344512
160	0xbf6c3b2f	-0.92277807
161	0x3dd4591a	0.10368557
162	0x3f05ba12	0.52237046
163	0x3ea02edf	0.3128576
164	0xbfa55eab	-1.2919515
165	0x3edf5002	0.4361573
166	0x3e0cc68a	0.13747612
167	0xbe517b44	-0.20457178
168	0x3e944c2c	0.28964365
169	0x3f20dcc1	0.62836844
170	0xbe2c0d29	-0.16801895
171	0x3f50afbe	0.8151816
172	0xbf0f41ba	-0.55959666
173	0xbef8acf7	-0.48569462
174	0x3ea7da35	0.32783666
175	0xbf035ef4	-0.5131676
176	0xbe3b8b6f	-0.18314908
177	0xbea48ba2	-0.3213778
178	0xbfa37e39	-1.2772895
179	0xbf287100	-0.65797424
180	0xbf64fe9e	-0.89451015
181	0x3f7f7afe	0.99797046
182	0x3eb7d8c8	0.35907578
183	0x3ea5cad8	0.3238132
184	0xbf8d5399	-1.1041137
185	0x3f453d02	0.77046216
186	0xbe58f538	-0.21187294
187	0x3f08a638	0.5337863
188	0x3f2ecc21	0.68280226
189	0x3e99763f	0.29973027
190	0x3e208228	0.1567465
191	0xbf8d43c1	-1.1036302
192	0xbf730f96	-0.9494566
193	0x3e6892af	0.22712205
194	0xbf596375	-0.84917384
195	0xbf327401	-0.6970826
196	0xbe9c1b39	-0.3048952
197	0x3f2c5fbe	0.6733359
198	0xbeb4e2c5	-0.3532926
199	0x3f4ee37b	0.8081586
200	0x3f0ed699	0.557962
201	0x3f573d1d	0.84077626
202	0x3f00b75a	0.5027977
203	0x3f1c63a0	0.61089516
204	0x3f092dd2	0.5358554
205	0xbeae32ba	-0.34023076
206	0x3cac3509	0.021021383
207	0xbe80fce7	-0.2519295
208	0x3f54d729	0.8314081
209	0xbf3edf20	-0.7455921
210	0x3de7ec64	0.11324385
211	0x3f0dfcbc	0.5546377
212	0xbf1369a3	-0.57583064
213	0xbf58bd15	-0.84663516
214	0xbebd9275	-0.370258
215	0xbf949e55	-1.1610819
216	0x3efc7524	0.4930812
217	0x3f3b2448	0.73102236
218	0x3ead4817	0.33844063
219	0x3e84db87	0.25948736
220	0x3d82180c	0.06352243
221	0x3df38412	0.11890425
222	0x3f2349f1	0.637847
223	0xbfbe770e	-1.4880083
224	0xbea0195f	-0.31269357
225	0xbf62736e	-0.8845738
226	0x3ef0578c	0.46941793
227	0x3f72186c	0.94568515
228	0xbf33e5b9	-0.70272404
229	0xbebe8c81	-0.3721657
230	0x3f088328	0.5332513
231	0x3f64b6c0	0.89341354
232	0xbe025fb5	-0.12731822
233	0xbf7d21da	-0.9887978
234	0x3cb3b062	0.021934692
235	0xbf21c64b	-0.63193196
236	0x3ee5ee34	0.44908297
237	0xbf6c380a	-0.9227301
238	0xbf009857	-0.5023245
239	0x3e0f48a9	0.13992561
240	0xbebc63c8	-0.36794877
241	0xbf4b87ae	-0.79503906
242	0x3f261414	0.64874387
243	0x3cdb76c4	0.02679003
244	0xbf4cca38	-0.7999606
245	0xbf7f6150	-0.9975786
246	0x3e92717b	0.28602204
247	0x3dad0f2e	0.08450161
248	0x3fe50942	1.789345
249	0x3e3674ca	0.17817989
250	0xbf52c847	-0.8233685
251	0x3eb37eed	0.35057774
252	0xbedcb9fc	-0.43110645
253	0xbed1649d	-0.40897074
254	0xbdab6f9a	-0.08370896
255	0x3df68f00	0.12038994

node_gat1.bias f4 [256]
0	0xbe3bf769	-0.18356098
1	0xbfdfbcf1	-1.7479535
2	0x3e1350bf	0.14386271
3	0xbf21fee1	-0.6327954
4	0xbe6ba02e	-0.23010322
5	0x3eafc78f	0.3433194
6	0xbefd85a3	-0.4951602
7	0xbeb8f614	-0.36125243
8	0xbedc6c3e	-0.43051332
9	0x3eb75593	0.35807475
10	0xbe476612	-0.1947253
11	0xbd8d4243	-0.06897404
12	0x3e434ba1	0.19071819
13	0xbe427881	-0.18991281
14	0x3ebd945d	0.37027255
15	0xbf66a539	-0.9009586
16	0x3de49476	0.11161129
17	0xbef9656c	-0.4871019
18	0xbe9f815d	-0.31153384
19	0xbeeb7243	-0.45985612
20	0xbd1b9b11	-0.03798968
21	0xbe0fbf27	-0.14037763
22	0xbf0805de	-0.5313395
23	0x3d99eec4	0.07516244
24	0x3efd3e6e	0.49461693
25	0xbf929465	-1.1451536
26	0xbec80614	-0.39067137
27	0xbdc8a646	-0.09797339
28	0x3e7337f4	0.23751813
29	0x3d5783d8	0.05261597
30	0xbf204a1f	-0.626131
31	0x3e5741b5	0.21021159
32	0x3de9be10	0.11413205
33	0xbf0f23e7	-0.5591416
34	0xbf29e2f9	-0.6636196
35	0xbdb85fd9	-0.090026565
36	0xbf2e7968	-0.68154
37	0x3e03fad0	0.12888646
38	0xbf1436d4	-0.5789616
39	0xbd358a3e	-0.04432129
40	0xbf1b8591	-0.6075068
41	0x3d65dbd9	0.056117866
42	0xbee88523	-0.45414075
43	0x3d6773f1	0.056507055
44	0xbf10e485	-0.56598693
45	0xbf0359e5	-0.51309043
46	0xbf1f9467	-0.6233582
47	0xbe4cbee4	-0.19994694
48	0x3dab8b01	0.08376122
49	0x3e1e0aaf	0.15433763
50	0xbe38be85	-0.18041427
51	0x3e0bd082	0.13653758
52	0xbeb024d6	-0.34403104
53	0xbe8bab23	-0.27279004
54	0xbdaa7161	-0.083224066
55	0x3e544782	0.20730403
56	0x3e9d6539	0.3074129
57	0xbd26d284	-0.040728107
58	0xbe985c33	-0.29757842
59	0xbec6ba00	-0.38813782
60	0xbed0add0	-0.40757608
61	0x3e4f6efb	0.2025718
62	0x3e90f362	0.28310686
63	0xbecd2f0d	-0.4007496
64	0xbe8c6511	-0.27420858
65	0xbdf50a76	-0.11964886
66	0xbf5af51f	-0.85530275
67	0xbeda557e	-0.4264335
68	0x3e49d0b2	0.19708517
69	0x3dfd2442	0.12360431
70	0xbf05c2d2	-0.522504
71	0x3f19ee02	0.60128796
72	0xbf0b9df8	-0.54537916
73	0xbf00c74b	-0.50304097
74	0xbef65908	-0.481148
75	0xbeea9367	-0.45815584
76	0x3e92875c	0.28618896
77	0x3eae3e4d	0.34031907
78	0xbf422fbd	-0.7585409
79	0x3cb8666e	0.02250978
80	0xbe62829c	-0.22120136
81	0x3c8bf3ff	0.01708412
82	0xbdb25b04	-0.08708766
83	0x3dfadd14	0.122491986
84	0xbf008ab4	-0.50211644
85	0xbcfe97dc	-0.031078272
86	0xbf57958a	-0.84212554
87	0xbde23388	-0.11044985
88	0x3f01633e	0.50542057
89	0xbf3f71a3	-0.7478277
90	0x3faf758c	1.3707747
91	0xbe7e852b	-0.24855487
92	0x3da4bd49	0.08043916
93	0xbd796d9e	-0.060895555
94	0xbd62532f	-0.05525511
95	0xbee04267	-0.4380066
96	0xbe8f2461	-0.27957442
97	0x3ed5f826	0.41790885
98	0xbd9f8218	-0.07788485
99	0xbec65951	-0.38740018
100	0xbea3c3c6	-0.319853
101	0x3ed43cfa	0.4145277
102	0x3e5263d7	0.20545898
103	0xbee04538	-0.4380281
104	0xbe5900ae	-0.21191666
105	0xbf0df87f	-0.554573
106	0xbd158d2d	-0.03651159
107	0xbe80ed97	-0.25181267
108	0x3ef55fee	0.4792475
109	0x3f231c5c	0.6371515
110	0x3c54fb33	0.012999344
111	0x3dc1c286	0.094609305
112	0xbe2e0021	-0.16992237
113	0x3cbde07b	0.02317833
114	0x3de62280	0.11237049
115	0xbf564296	-0.8369535
116	0xbefcac75	-0.49350324
117	0xbf5862cb	-0.84525746
118	0xbec673d1	-0.38760236
119	0xbf097d3c	-0.5370672
120	0xbf326ec4	-0.69700265
121	0x3f0486cb	0.5176818
122	0xbf3734b4	-0.71564794
123	0xbd9c284e	-0.07624875
124	0xbed59214	-0.4171301
125	0xbe935206	-0.28773516
126	0xbe500889	-0.20315756
127	0x3eaa0b47	0.3321173
128	0xbd758ad2	-0.059946842
129	0x3e3a7bd7	0.18211304
130	0x3ed961e9	0.42457512
131	0x3deb133c	0.11478278
132	0xbe033993	-0.12814932
133	0xbed05245	-0.40687767
134	0xbf2a439b	-0.6650941
135	0x3ea8b7fe	0.32952875
136	0xbeb1a256	-0.34694165
137	0xbe896c5a	-0.26840478
138	0xbf63c541	-0.8897286
139	0x3f2ed827	0.6829857
140	0xbebc3890	-0.36761904
141	0xbf7684cc	-0.9629638
142	0x3de239f5	0.11046211
143	0x3f2eacd0	0.6823244
144	0x3ed28c4c	0.41122663
145	0xbe99a834	-0.3001114
146	0x3d9ec0d4	0.07751623
147	0xbf0b7140	-0.5446968
148	0xbebb570a	-0.36589843
149	0xbec7705c	-0.3895291
150	0xbf031475	-0.5120309
151	0xbf178210	-0.59182835
152	0x3d1fb073	0.038986634
153	0x3f06848f	0.5254602
154	0xbe596bb1	-0.21232487
155	0xbf89a9b5	-1.0754915
156	0xbf3e66b6	-0.74375474
157	0xbf17c509	-0.59285027
158	0xbf1b096d	-0.6056126
159	0xbf310bd7	-0.6915869
160	0xbdc05a64	-0.09392241
161	0xbd36b018	-0.04460153
162	0xbf84f297	-1.0386533
163	0x3f8d2ce9	1.102933
164	0xbf3efd18	-0.7460494
165	0xbe33f0e8	-0.17572367
166	0xbf1218b2	-0.5706893
167	0xbda46dea	-0.08028777
168	0xbf2cc201	-0.67483526
169	0xbf451225	-0.7698081
170	0xbdd6a0d8	-0.10479897
171	0xbf68940e	-0.90850914
172	0x3f2ccd73	0.6750099
173	0xbf4f4ca3	-0.80976313
174	0xbeaa0820	-0.33209324
175	0xbf6e6d82	-0.93135846
176	0xbee43f9b	-0.44579777
177	0xbf20bddf	-0.6278972
178	0xbefacfbc	-0.48986614
179	0x3dc4a540	0.096018314
180	0xbedef0a7	-0.43542978
181	0xbf42a2f8	-0.7602992
182	0xbed0ff65	-0.4081985
183	0xbe169a19	-0.14707221
184	0x3fd44c89	1.6585857
185	0xbf103380	-0.5632858
186	0xbf11f2b2	-0.5701095
187	0xbed1c802	-0.40972906
188	0xbf12d240	-0.57352066
189	0x3d9f5a90	0.07780945
190	0xbddf9a57	-0.1091811
191	0xbe32857a	-0.1743373
192	0xbf1d415a	-0.61427844
193	0xbf838e82	-1.0277865
194	0x3e22b8e3	0.15890841
195	0xbd2194c7	-0.039448526
196	0xbec306cc	-0.38091123
197	0x3e4285e3	0.18996386
198	0xbf46ea23	-0.77701014
199	0xbebee8a7	-0.37286875
200	0xbf6ffee3	-0.937483
201	0x3ead9800	0.3390503
202	0x3f742c32	0.95379937
203	0xbd5563f4	-0.052097276
204	0x3dfb6d72	0.122767344
205	0x3e9064bf	0.28201863
206	0xbf654746	-0.8956188
207	0xbecc2fd9	-0.39880255
208	0x3e01626a	0.12635198
209	0xbece0667	-0.4023926
210	0xbe8254b9	-0.25455263
211	0x3ec396e8	0.3820107
212	0xbec7a682	-0.38994223
213	0xbf2e83a3	-0.6816961
214	0x3ccdb180	0.025109053
215	0xbf64a100	-0.89308167
216	0xbe117ba8	-0.14207327
217	0xbe4afe09	-0.19823469
218	0x3e581c8b	0.21104638
219	0xbf2e2e21	-0.6803914
220	0xbef2e1d1	-0.4743791
221	0xbf292fdf	-0.6608867
222	0x3e609f57	0.21935783
223	0xbe88b8bf	-0.2670345
224	0x3e071cf0	0.13194633
225	0x3eaf919e	0.34290785
226	0xbee7c642	-0.45268446
227	0x3f579709	0.84214836
228	0xbf892af7	-1.0716237
229	0xbe175bba	-0.14781085
230	0xbf5225ec	-0.82089114
231	0xbeeaf650	-0.45891047
232	0xbf4d952c	-0.80305743
233	0xbf3b5aa7	-0.731852
234	0x3f1b7479	0.607246
235	0x3e94101e	0.28918546
236	0x3f1c80f5	0.6113427
237	0xbe5c1fb8	-0.21496475
238	0xbf2c92bc	-0.674114
239	0xbecdf70e	-0.4022755
240	0xbefc99e5	-0.49336162
241	0xbeb95d2e	-0.36203903
242	0xbe03bb53	-0.12864427
243	0xbea62c7d	-0.32455817
244	0xbf38ef19	-0.72239834
245	0x3dab5c09	0.08367164
246	0xbe816329	-0.25270966
247	0xbdeeada9	-0.11654217
248	0x3f85a2f7	1.0440358
249	0xbee2ba58	-0.44282794
250	0x3ed36a85	0.41292205
251	0xbe5b0ab5	-0.21390803
252	0xbf0133ad	-0.50469476
253	0xbf3a1d1c	-0.7270067
254	0xbf17b046	-0.59253347
255	0x3d978161	0.07397724

node_gat1.lin_src.weight f4 [256, 6]
0	0xbe1bde02	-0.15221408
1	0x3ef094b9	0.46988466
2	0xbe5fac7d	-0.21843143
3	0xbf602bb7	-0.87566704
4	0xbdd375dd	-0.10325215
5	0xbe7e4541	-0.24831106
6	0xbc106ca0	-0.008814961
7	0x3e1b9969	0.1519524
8	0xbdbf66ce	-0.0934578
9	0x3e4451dc	0.19171852
10	0xbf2b78eb	-0.6698138
11	0xbd8526ee	-0.06501566
12	0xbee1ddd8	-0.44114566
13	0x3ea62478	0.32449698
14	0xbe64cbed	-0.22343417
15	0xbf0773d7	-0.5291113
16	0xbcb998ca	-0.022655863
17	0xbe5dab41	-0.2164736
18	0x3d9e1460	0.0771873
19	0xbe3da439	-0.18519677
20	0x3cb838be	0.022487994
21	0xbec7732c	-0.38955057
22	0xbd30f6df	-0.043204185
23	0xbe427511	-0.1898997
24	0xbe924af4	-0.2857281
25	0xbd8351a0	-0.06412053
26	0x3f18f6a1	0.59751326
27	0xbe21ad83	-0.15788846
28	0xbefa6be1	-0.4891043
29	0x3e682b32	0.22672728
30	0xbf7e4e96	-0.9933866
31	0x3f388e4e	0.7209214
32	0xbe6199ee	-0.22031376
33	0xbe093a36	-0.13401112
34	0xbd0c540f	-0.034259852
35	0xbe7ee18a	-0.24890724
36	0xbec67749	-0.38762882
37	0x3d2829e5	0.04105558
38	0x3da5bbf0	0.08092487
39	0xbf43517e	-0.7629622
40	0xbf17f361	-0.5935574
41	0xbe49546a	-0.19661108
42	0x3ba3cac6	0.0049985377
43	0xbf5bd86a	-0.85877097
44	0x3ef22b70	0.47298765
45	0x3ee88219	0.45411757
46	0xbeec90dc	-0.4620427
47	0x3e27340d	0.1632845
48	0x3ed3443b	0.41262993
49	0x3ed88394	0.42287886
50	0x3fd6eb96	1.6790645
51	0x3d382bc9	0.04496363
52	0x3e0b8234	0.13623887
53	0x3d8d4017	0.0689699
54	0xbd243799	-0.040092085
55	0x3ec48686	0.38383883
56	0x3e235429	0.15950073
57	0xbf11b92b	-0.5692317
58	0xbea28c1d	-0.31747523
59	0xbe51dd41	-0.20494558
60	0x3f5f364a	0.87192214
61	0x3f1227c6	0.5709194
62	0x3f4e19e4	0.80508256
63	0x3d8c563b	0.06852385
64	0x3ef1ae80	0.47203445
65	0x3d4baf06	0.049727462
66	0xbf043331	-0.5164061
67	0x3f106bd5	0.5641454
68	0x3e29e65e	0.16591784
69	0xbf03d957	-0.5150351
70	0x3da06a69	0.07832796
71	0xbe63bd94	-0.22240287
72	0xbe7a8230	-0.24463725
73	0xbd5ac1ca	-0.053407468
74	0xbe1ff945	-0.15622433
75	0x3f74a40b	0.9556281
76	0xbf09bb13	-0.5380108
77	0xbd32dd9f	-0.043668386
78	0xbd0c72a0	-0.034289002
79	0xbecf0256	-0.4043147
80	0xbd814899	-0.06312675
81	0xbf29aad7	-0.66276306
82	0xbec17dee	-0.3779139
83	0xbddb2ddf	-0.107021086
84	0x3f0aa3b6	0.54156053
85	0x3e01cf45	0.12676723
86	0xbebc3a99	-0.36763456
87	0x3fa8925b	1.3169664
88	0x3e0a27f7	0.13491808
89	0xbd308dfd	-0.04310416
90	0x3de87cbd	0.11351917
91	0x3ee775fb	0.452072
92	0x3f9ea820	1.2395058
93	0x3c4fd7f2	0.012685763
94	0xbd83fdb9	-0.06444878
95	0x3e01add9	0.12663974
96	0xbcdd14b9	-0.02698742
97	0x3eab0611	0.33403066
98	0x3e52b1af	0.20575593
99	0xbf7e7151	-0.9939166
100	0xbf32c568	-0.6983247
101	0xbea41113	-0.32044277
102	0xbeb3a7d3	-0.35088977
103	0x3f1b7ac1	0.6073418
104	0x3e65873b	0.22414868
105	0xbf3c0520	-0.7344532
106	0x3d26c954	0.040719345
107	0xbe372acf	-0.17887424
108	0xbea241cb	-0.3169082
109	0x3ef1c056	0.47217053
110	0xbea3651e	-0.31913084
111	0xbf39b904	-0.72547936
112	0xbe85759a	-0.26066285
113	0xbe0dd741	-0.13851644
114	0x3dde4c6d	0.10854421
115	0xbae6aab2	-0.0017598479
116	0xbd811fc5	-0.06304888
117	0xbc15571a	-0.009115005
118	0x3f2932a6	0.6609291
119	0xbe072c95	-0.132006
120	0x3cda6005	0.026657114
121	0x3d913961	0.07091022
122	0x3e9e8ab9	0.30965212
123	0xbe4c8bfb	-0.19975273
124	0xbf31ced5	-0.69456226
125	0xbf3996b9	-0.7249561
126	0x3d172b3c	0.036906466
127	0xbe579ad6	-0.21055159
128	0xbe0a010c	-0.13476962
129	0x3fafc48b	1.3731855
130	0xbe163f6f	-0.14672635
131	0x3e434102	0.19067767
132	0x3e9d01fa	0.3066557
133	0x3f00f3c4	0.50371957
134	0x3dc128d2	0.09431614
135	0xbea89d9f	-0.32932755
136	0xbd074ead	-0.033034015
137	0xbe52acdc	-0.20573753
138	0xbedf1267	-0.43568727
139	0x3ea013a4	0.31264985
140	0xbe8155b5	-0.25260702
141	0xbd91710b	-0.07101639
142	0x3ef92768	0.48662877
143	0xbf2d1ab6	-0.6761888
144	0xbe9d3b92	-0.3070951
145	0xbe4218bd	-0.1895475
146	0x3e4f0107	0.20215236
147	0x3c6878cf	0.014188959
148	0xbf5fcefb	-0.874252
149	0x3e352718	0.17690694
150	0xbe91d31b	-0.28481373
151	0x3ec2bf80	0.38036728
152	0x3e193743	0.14962487
153	0xbe38754c	-0.18013495
154	0xbda77a00	-0.081775665
155	0xbdecee94	-0.11568943
156	0xbefdf22a	-0.4959882
157	0x3d88d5c6	0.06681399
158	0x3e359191	0.1773131
159	0xbf8da160	-1.1064873
160	0xbe2ec952	-0.17068985
161	0xbdebcb55	-0.11513392
162	0x3fbf9257	1.4966534
163	0x3ec117b5	0.377134
164	0x3f47876c	0.7794101
165	0xbdfb078a	-0.12257297
166	0x3ddbb4b9	0.107278295
167	0x3ca6ecf2	0.020376656
168	0x3f0d9aed	0.55314523
169	0xbe83f8b1	-0.25775674
170	0x3eb9913e	0.36243623
171	0xbcd9ce14	-0.026587524
172	0xbea29e44	-0.31761372
173	0xbebd9c05	-0.37033096
174	0x3f48d844	0.78454995
175	0x3e1e0bb2	0.15434149
176	0x3e975f8a	0.29565078
177	0x3b5a81c8	0.0033341516
178	0xbe0b3e9f	-0.13598107
179	0xbf1ed5e5	-0.6204513
180	0xbe91717e	-0.284069
181	0x3e7ddbb3	0.2479084
182	0x3ef80f05	0.4844896
183	0xbf068f85	-0.52562743
184	0xbc82e6dd	-0.015979225
185	0xbe3ca1e2	-0.18421128
186	0xbf4aedfb	-0.7926938
187	0xbf5c6fd2	-0.86108124
188	0xbe99c232	-0.30030972
189	0xbdd09681	-0.10184956
190	0xbdd4157d	-0.10355661
191	0xbeb49655	-0.35270944
192	0x3fbf884f	1.4963473
193	0x3ef5564c	0.47917402
194	0x3f012784	0.5045092
195	0x3c3ba121	0.01145199
196	0x3f074bfd	0.52850324
197	0xbd893844	-0.06700185
198	0x3e3e2e0c	0.18572253
199	0xbea5abd5	-0.3235766
200	0x3f177af9	0.59172016
201	0xbe4bf43c	-0.19917387
202	0xbed2e408	-0.411896
203	0x3e0dd359	0.13850154
204	0xbe11c493	-0.14235143
205	0x3ea412eb	0.32045683
206	0x3eef3b42	0.46724898
207	0x3e8d1739	0.2755678
208	0xbe996b35	-0.29964605
209	0x3ea568c9	0.32306507
210	0xbe9b8578	-0.30375266
211	0x3f8fa397	1.1221799
212	0x3f579b13	0.84221
213	0x3eb38fc1	0.35070613
214	0xbd89ee1a	-0.067348674
215	0xbdb7b240	-0.08969545
216	0xbd466453	-0.04843552
217	0xbec5d9ea	-0.38642818
218	0xbe3250ca	-0.17413631
219	0x3fb4d26e	1.4126718
220	0xbe503a65	-0.20334776
221	0x3dc24d44	0.094873935
222	0xbf3ff6c5	-0.74985915
223	0x3ed69793	0.41912517
224	0x3f3c4ca1	0.73554426
225	0x3ecc2073	0.39868507
226	0x3d20b5a9	0.039235745
227	0xbd8ce14d	-0.0687891
228	0xbe97c9ae	-0.29646057
229	0x3e27d4c5	0.16389759
230	0x3ec9ca97	0.39412376
231	0xbf1e46cb	-0.6182677
232	0xbf0e0df1	-0.5549002
233	0xbe455df5	-0.19274123
234	0x3f8ffa97	1.1248349
235	0xbdd117c1	-0.10209609
236	0xbec87d08	-0.3915789
237	0xbe594a78	-0.21219814
238	0x3efd7479	0.49502924
239	0xbe73a69a	-0.23794022
240	0x3cda24ed	0.026628936
241	0xbef75652	-0.48308045
242	0x3e46eb3f	0.19425677
243	0x3f457554	0.77132154
244	0xbe1a0a09	-0.1504289
245	0x3e1182cb	0.1421005
246	0xbe230adc	-0.15922111
247	0x3e3aa6a7	0.18227635
248	0x3d6510e1	0.0559243
249	0xbe83bf79	-0.2573202
250	0xbd8244e8	-0.06360799
251	0xbec2fe02	-0.38084418
252	0x3e2970eb	0.16546981
253	0x3e9f44d9	0.31107214
254	0x3d7cbb31	0.061701957
255	0xbf1a7ab1	-0.6034346

node_gat1.lin_dst.weight f4 [256, 6]
0	0xbe1bde02	-0.15221408
1	0x3ef094b9	0.46988466
2	0xbe5fac7d	-0.21843143
3	0xbf602bb7	-0.87566704
4	0xbdd375dd	-0.10325215
5	0xbe7e4541	-0.24831106
6	0xbc106ca0	-0.008814961
7	0x3e1b9969	0.1519524
8	0xbdbf66ce	-0.0934578
9	0x3e4451dc	0.19171852
10	0xbf2b78eb	-0.6698138
11	0xbd8526ee	-0.06501566
12	0xbee1ddd8	-0.44114566
13	0x3ea62478	0.32449698
14	0xbe64cbed	-0.22343417
15	0xbf0773d7	-0.5291113
16	0xbcb998ca	-0.022655863
17	0xbe5dab41	-0.2164736
18	0x3d9e1460	0.0771873
19	0xbe3da439	-0.18519677
20	0x3cb838be	0.022487994
21	0xbec7732c	-0.38955057
22	0xbd30f6df	-0.043204185
23	0xbe427511	-0.1898997
24	0xbe924af4	-0.2857281
25	0xbd8351a0	-0.06412053
26	0x3f18f6a1	0.59751326
27	0xbe21ad83	-0.15788846
28	0xbefa6be1	-0.4891043
29	0x3e682b32	0.22672728
30	0xbf7e4e96	-0.9933866
31	0x3f388e4e	0.7209214
32	0xbe6199ee	-0.22031376
33	0xbe093a36	-0.13401112
34	0xbd0c540f	-0.034259852
35	0xbe7ee18a	-0.24890724
36	0xbec67749	-0.38762882
37	0x3d2829e5	0.04105558
38	0x3da5bbf0	0.08092487
39	0xbf43517e	-0.7629622
40	0xbf17f361	-0.5935574
41	0xbe49546a	-0.19661108
42	0x3ba3cac6	0.0049985377
43	0xbf5bd86a	-0.85877097
44	0x3ef22b70	0.47298765
45	0x3ee88219	0.45411757
46	0xbeec90dc	-0.4620427
47	0x3e27340d	0.1632845
48	0x3ed3443b	0.41262993
49	0x3ed88394	0.42287886
50	0x3fd6eb96	1.6790645
51	0x3d382bc9	0.04496363
52	0x3e0b8234	0.13623887
53	0x3d8d4017	0.0689699
54	0xbd243799	-0.040092085
55	0x3ec48686	0.38383883
56	0x3e235429	0.15950073
57	0xbf11b92b	-0.5692317
58	0xbea28c1d	-0.31747523
59	0xbe51dd41	-0.20494558
60	0x3f5f364a	0.87192214
61	0x3f1227c6	0.5709194
62	0x3f4e19e4	0.80508256
63	0x3d8c563b	0.06852385
64	0x3ef1ae80	0.47203445
65	0x3d4baf06	0.049727462
66	0xbf043331	-0.5164061
67	0x3f106bd5	0.5641454
68	0x3e29e65e	0.16591784
69	0xbf03d957	-0.5150351
70	0x3da06a69	0.07832796
71	0xbe63bd94	-0.22240287
72	0xbe7a8230	-0.24463725
73	0xbd5ac1ca	-0.053407468
74	0xbe1ff945	-0.15622433
75	0x3f74a40b	0.9556281
76	0xbf09bb13	-0.5380108
77	0xbd32dd9f	-0.043668386
78	0xbd0c72a0	-0.034289002
79	0xbecf0256	-0.4043147
80	0xbd814899	-0.06312675
81	0xbf29aad7	-0.66276306
82	0xbec17dee	-0.3779139
83	0xbddb2ddf	-0.107021086
84	0x3f0aa3b6	0.54156053
85	0x3e01cf45	0.12676723
86	0xbebc3a99	-0.36763456
87	0x3fa8925b	1.3169664
88	0x3e0a27f7	0.13491808
89	0xbd308dfd	-0.04310416
90	0x3de87cbd	0.11351917
91	0x3ee775fb	0.452072
92	0x3f9ea820	1.2395058
93	0x3c4fd7f2	0.012685763
94	0xbd83fdb9	-0.06444878
95	0x3e01add9	0.12663974
96	0xbcdd14b9	-0.02698742
97	0x3eab0611	0.33403066
98	0x3e52b1af	0.20575593
99	0xbf7e7151	-0.9939166
100	0xbf32c568	-0.6983247
101	0xbea41113	-0.32044277
102	0xbeb3a7d3	-0.35088977
103	0x3f1b7ac1	0.6073418
104	0x3e65873b	0.22414868
105	0xbf3c0520	-0.7344532
106	0x3d26c954	0.040719345
107	0xbe372acf	-0.17887424
108	0xbea241cb	-0.3169082
109	0x3ef1c056	0.47217053
110	0xbea3651e	-0.31913084
111	0xbf39b904	-0.72547936
112	0xbe85759a	-0.26066285
113	0xbe0dd741	-0.13851644
114	0x3dde4c6d	0.10854421
115	0xbae6aab2	-0.0017598479
116	0xbd811fc5	-0.06304888
117	0xbc15571a	-0.009115005
118	0x3f2932a6	0.6609291
119	0xbe072c95	-0.132006
120	0x3cda6005	0.026657114
121	0x3d913961	0.07091022
122	0x3e9e8ab9	0.30965212
123	0xbe4c8bfb	-0.19975273
124	0xbf31ced5	-0.69456226
125	0xbf3996b9	-0.7249561
126	0x3d172b3c	0.036906466
127	0xbe579ad6	-0.21055159
128	0xbe0a010c	-0.13476962
129	0x3fafc48b	1.3731855
130	0xbe163f6f	-0.14672635
131	0x3e434102	0.19067767
132	0x3e9d01fa	0.3066557
133	0x3f00f3c4	0.50371957
134	0x3dc128d2	0.09431614
135	0xbea89d9f	-0.32932755
136	0xbd074ead	-0.033034015
137	0xbe52acdc	-0.20573753
138	0xbedf1267	-0.43568727
139	0x3ea013a4	0.31264985
140	0xbe8155b5	-0.25260702
141	0xbd91710b	-0.07101639
142	0x3ef92768	0.48662877
143	0xbf2d1ab6	-0.6761888
144	0xbe9d3b92	-0.3070951
145	0xbe4218bd	-0.1895475
146	0x3e4f0107	0.20215236
147	0x3c6878cf	0.014188959
148	0xbf5fcefb	-0.874252
149	0x3e352718	0.17690694
150	0xbe91d31b	-0.28481373
151	0x3ec2bf80	0.38036728
152	0x3e193743	0.14962487
153	0xbe38754c	-0.18013495
154	0xbda77a00	-0.081775665
155	0xbdecee94	-0.11568943
156	0xbefdf22a	-0.4959882
157	0x3d88d5c6	0.06681399
158	0x3e359191	0.1773131
159	0xbf8da160	-1.1064873
160	0xbe2ec952	-0.17068985
161	0xbdebcb55	-0.11513392
162	0x3fbf9257	1.4966534
163	0x3ec117b5	0.377134
164	0x3f47876c	0.7794101
165	0xbdfb078a	-0.12257297
166	0x3ddbb4b9	0.107278295
167	0x3ca6ecf2	0.020376656
168	0x3f0d9aed	0.55314523
169	0xbe83f8b1	-0.25775674
170	0x3eb9913e	0.36243623
171	0xbcd9ce14	-0.026587524
172	0xbea29e44	-0.31761372
173	0xbebd9c05	-0.37033096
174	0x3f48d844	0.78454995
175	0x3e1e0bb2	0.15434149
176	0x3e975f8a	0.29565078
177	0x3b5a81c8	0.0033341516
178	0xbe0b3e9f	-0.13598107
179	0xbf1ed5e5	-0.6204513
180	0xbe91717e	-0.284069
181	0x3e7ddbb3	0.2479084
182	0x3ef80f05	0.4844896
183	0xbf068f85	-0.52562743
184	0xbc82e6dd	-0.015979225
185	0xbe3ca1e2	-0.18421128
186	0xbf4aedfb	-0.7926938
187	0xbf5c6fd2	-0.86108124
188	0xbe99c232	-0.30030972
189	0xbdd09681	-0.10184956
190	0xbdd4157d	-0.10355661
191	0xbeb49655	-0.35270944
192	0x3fbf884f	1.4963473
193	0x3ef5564c	0.47917402
194	0x3f012784	0.5045092
195	0x3c3ba121	0.01145199
196	0x3f074bfd	0.52850324
197	0xbd893844	-0.06700185
198	0x3e3e2e0c	0.18572253
199	0xbea5abd5	-0.3235766
200	0x3f177af9	0.59172016
201	0xbe4bf43c	-0.19917387
202	0xbed2e408	-0.411896
203	0x3e0dd359	0.13850154
204	0xbe11c493	-0.14235143
205	0x3ea412eb	0.32045683
206	0x3eef3b42	0.46724898
207	0x3e8d1739	0.2755678
208	0xbe996b35	-0.29964605
209	0x3ea568c9	0.32306507
210	0xbe9b8578	-0.30375266
211	0x3f8fa397	1.1221799
212	0x3f579b13	0.84221
213	0x3eb38fc1	0.35070613
214	0xbd89ee1a	-0.067348674
215	0xbdb7b240	-0.08969545
216	0xbd466453	-0.04843552
217	0xbec5d9ea	-0.38642818
218	0xbe3250ca	-0.17413631
219	0x3fb4d26e	1.4126718
220	0xbe503a65	-0.20334776
221	0x3dc24d44	0.094873935
222	0xbf3ff6c5	-0.74985915
223	0x3ed69793	0.41912517
224	0x3f3c4ca1	0.73554426
225	0x3ecc2073	0.39868507
226	0x3d20b5a9	0.039235745
227	0xbd8ce14d	-0.0687891
228	0xbe97c9ae	-0.29646057
229	0x3e27d4c5	0.16389759
230	0x3ec9ca97	0.39412376
231	0xbf1e46cb	-0.6182677
232	0xbf0e0df1	-0.5549002
233	0xbe455df5	-0.19274123
234	0x3f8ffa97	1.1248349
235	0xbdd117c1	-0.10209609
236	0xbec87d08	-0.3915789
237	0xbe594a78	-0.21219814
238	0x3efd7479	0.49502924
239	0xbe73a69a	-0.23794022
240	0x3cda24ed	0.026628936
241	0xbef75652	-0.48308045
242	0x3e46eb3f	0.19425677
243	0x3f457554	0.77132154
244	0xbe1a0a09	-0.1504289
245	0x3e1182cb	0.1421005
246	0xbe230adc	-0.15922111
247	0x3e3aa6a7	0.18227635
248	0x3d6510e1	0.0559243
249	0xbe83bf79	-0.2573202
250	0xbd8244e8	-0.06360799
251	0xbec2fe02	-0.38084418
252	0x3e2970eb	0.16546981
253	0x3e9f44d9	0.31107214
254	0x3d7cbb31	0.061701957
255	0xbf1a7ab1	-0.6034346

node_gat2.att_src f4 [1, 4, 64]
0	0xbe82db62	-0.25558
1	0xbd70c8fd	-0.058785427
2	0xbd489973	-0.048974466
3	0xbd62a23d	-0.055330504
4	0x3dc705ff	0.097179405
5	0xbc37d3c6	-0.011219924
6	0x3c65f5cc	0.014035653
7	0x3d7be51b	0.06149779
8	0xbed3bacd	-0.41353455
9	0xbe9a06f5	-0.30083433
10	0xbf02ea8f	-0.5113916
11	0xbe6586eb	-0.22414748
12	0xbe1be52c	-0.15224141
13	0xba2d0501	-0.0006600172
14	0xbd1e385d	-0.03862797
15	0xbcf3c311	-0.0297561
16	0x3f5b5f47	0.85692257
17	0x3f782e7d	0.96945935
18	0x3f0cfb69	0.5507112
19	0x3ea19f0a	0.3156665
20	0x3f3610f6	0.7111963
21	0x3f40cec0	0.75315475
22	0x3f4873cd	0.783017
23	0x3f70b7c1	0.94030386
24	0x3e73a9a0	0.23795176
25	0x3e6b2346	0.22962674
26	0x3eef7e96	0.46776265
27	0x3e445287	0.19172107
28	0x3d81ad7d	0.063319184
29	0x3e70c6b8	0.23513305
30	0xbdaa3d9e	-0.08312534
31	0xbd9299a1	-0.07158209
32	0xbf8f3d8a	-1.1190655
33	0xbf377484	-0.71662164
34	0xbf0293f4	-0.5100701
35	0xbfa7e4c1	-1.3116685
36	0xbec1b742	-0.37835127
37	0xbe35e5fb	-0.17763512
38	0xbeae60c1	-0.34058192
39	0xbe87fdf0	-0.26560926
40	0x3e19313d	0.14960189
41	0x3ebdbf25	0.37059894
42	0x3e966e8e	0.29381222
43	0x3e999dbb	0.3000315
44	0xbf8a0a34	-1.0784364
45	0xbeaec9f8	-0.34138465
46	0xbf3c8bfb	-0.73651093
47	0xbf14e7e8	-0.5816636
48	0xbdeb27e0	-0.11482215
49	0xbe31cc38	-0.1736306
50	0xbdd0c927	-0.10194617
51	0xbd4b0281	-0.049562935
52	0x3e0b2337	0.13587652
53	0x3e3c38cd	0.18381043
54	0x3d107341	0.035266165
55	0x3d8c4d5a	0.06850691
56	0x3ecb5511	0.39713338
57	0x3ec5cbf9	0.3863218
58	0x3ef37dcc	0.47556913
59	0x3ea7aa07	0.32746908
60	0x3ddec630	0.10877645
61	0x3f0cf73a	0.5506474
62	0x3ee86e78	0.4539678
63	0x3e3da37e	0.18519399
64	0x3f96b0b5	1.1772677
65	0x3eab7429	0.3348706
66	0x3f0f0fbc	0.55883384
67	0x3f6fa48b	0.9361045
68	0xbd8d5de3	-0.06902673
69	0xbcbc4005	-0.022979746
70	0x3ef741da	0.48292428
71	0x3ea963b5	0.33083883
72	0x3e095299	0.13410415
73	0x3e5167ab	0.20449702
74	0x3e6f9aa0	0.23398829
75	0x3e33ef7e	0.17571828
76	0x3ead9c69	0.33908394
77	0x3e91f2e2	0.28505617
78	0x3ebeb92a	0.37250644
79	0x3e1a51d3	0.15070276
80	0xbe601e62	-0.2188659
81	0x3eb49662	0.35270983
82	0x3e96df0c	0.29467046
83	0x3f1f76db	0.62290734
84	0x3dfeff99	0.12451095
85	0x3f1987fb	0.59973115
86	0x3e17a8d4	0.14810497
87	0x3ee4db82	0.4469872
88	0x3f135f72	0.57567513
89	0x3edd4387	0.43215582
90	0x3f16a5c2	0.58846676
91	0x3f186422	0.5952779
92	0xbf96960a	-1.1764538
93	0xbeac8005	-0.3369142
94	0xbecb4bc9	-0.39706257
95	0xbea9d733	-0.33171996
96	0x3eabf78f	0.3358731
97	0x3dc6fde4	0.097163945
98	0x3eae3f2e	0.34032577
99	0x3f012c2e	0.5045804
100	0xbe9cb776	-0.3060872
101	0xbeb13928	-0.3461392
102	0xbe86fd9a	-0.26365358
103	0xbcdda689	-0.02705695
104	0xbdba0ab2	-0.09084071
105	0x3dada92c	0.084795326
106	0xbdfd9f6a	-0.123839214
107	0xbd253446	-0.040333055
108	0x3e926522	0.28592783
109	0x3ed0c7b6	0.40777367
110	0xbe8032ec	-0.2503885
111	0x3e9bc5da	0.30424386
112	0x3e62fa42	0.22165778
113	0x3e8e2960	0.27765942
114	0x3ebf05d0	0.37309122
115	0x3e8d152e	0.2755522
116	0x3e1e95e4	0.15486866
117	0x3e05ae30	0.13054729
118	0xbca71dcb	-0.020399949
119	0x3d81bd46	0.06334929
120	0xbfe4811e	-1.7851903
121	0xbf36ad88	-0.7135854
122	0xbee42550	-0.44559717
123	0xbe87076e	-0.26372856
124	0x3b827377	0.0039810496
125	0xbbd6491b	-0.0065394766
126	0x3d0dc982	0.034616
127	0x3d07f20d	0.033189822
128	0x3ebbb0ba	0.3665827
129	0x3e411f86	0.18859681
130	0x3f5a5799	0.85289913
131	0x3db157b5	0.08659307
132	0x3d877501	0.066141136
133	0xbd6674a9	-0.0562636
134	0x3e172fd3	0.14764337
135	0xbd9f51aa	-0.07779248
136	0xbe7562fd	-0.23963542
137	0xbdf3426b	-0.118779026
138	0xbe95f083	-0.29285058
139	0xbe52b743	-0.20577721
140	0xbf657e54	-0.89645886
141	0xbe7d6414	-0.24745208
142	0x3d84d4e8	0.06485921
143	0xbdbd8321	-0.092535265
144	0x3f3b6b51	0.73210627
145	0x3cd9de39	0.026595222
146	0x3f3b023c	0.73050284
147	0x3d8ae153	0.067812584
148	0xbd18cbf4	-0.03730388
149	0x3f624c78	0.8839793
150	0x3f3ce77c	0.7379072
151	0xbdaff56e	-0.08591734
152	0x3f4fdc15	0.81195194
153	0x3f5c293c	0.8600042
154	0x3f31f7dd	0.69518834
155	0x3ea9bff7	0.3315427
156	0x3efae2e3	0.49001226
157	0x3efad54c	0.48990858
158	0x3ddd50bf	0.10806417
159	0x3f16f1ee	0.58962905
160	0xbe8cbd4f	-0.2748818
161	0xbea5670a	-0.32305175
162	0xbe921513	-0.28531703
163	0xbe5b4502	-0.21413043
164	0x3e486509	0.19569792
165	0xbebdd7d4	-0.37078726
166	0x3e3260f1	0.17419793
167	0x3db7a58b	0.08967122
168	0x3ea20143	0.31641588
169	0xbd7db327	-0.06193843
170	0x3ec9c270	0.39406157
171	0x3ed3bd01	0.41355136
172	0x3e68243b	0.22670071
173	0x3e18b001	0.1491089
174	0x3e554a57	0.2082914
175	0xbdd77042	-0.10519458
176	0x3d8dd0ff	0.069246285
177	0xbdca59e3	-0.09880426
178	0xbdcfa1f4	-0.10138312
179	0x3d776c8e	0.06040626
180	0x3dbcefe9	0.09225447
181	0xbf66525f	-0.8996944
182	0xbeb7b0b7	-0.3587701
183	0xbeb6184f	-0.3556542
184	0xbf92e2ce	-1.1475465
185	0xbe6cd6ca	-0.2312881
186	0xbe1a6fef	-0.15081762
187	0xbe0077c0	-0.12545681
188	0x3eb9cc80	0.36288834
189	0x3e938c59	0.28818014
190	0x3ebefc7d	0.37302008
191	0x3f53722a	0.82596076
192	0xbe051460	-0.12996054
193	0xbf3a0cf2	-0.72676
194	0x3e5df13e	0.21674058
195	0xbd3e81df	-0.046510573
196	0xbf2c7bfb	-0.6737668
197	0xbee078b1	-0.4384208
198	0x3e4a4f70	0.19756866
199	0xbe5892da	-0.2114977
200	0x3ec51a6c	0.3849672
201	0x3e15f3eb	0.14643829
202	0x3e14e747	0.1454135
203	0xbaa95277	-0.0012918253
204	0xbf360c8d	-0.711129
205	0xbe178819	-0.14798011
206	0xbf10a41a	-0.565004
207	0xbe075064	-0.1321426
208	0x3f298a2a	0.66226447
209	0x3f139fc1	0.5766564
210	0x3f10898c	0.5645988
211	0x3f0e0f63	0.5549223
212	0xbe1dd581	-0.15413477
213	0xbe357565	-0.17720564
214	0xbdb03101	-0.08603097
215	0xbd20c7af	-0.039252933
216	0x3eaa7f13	0.33300075
217	0xbf34322d	-0.7038906
218	0xbc2f5bf1	-0.010703073
219	0x3e9c9820	0.30584812
220	0xbeb15d26	-0.3464138
221	0x3efa99b1	0.48945382
222	0x3f5ce283	0.8628313
223	0x3ec0f697	0.37688133
224	0x3e437562	0.19087747
225	0x3e93847a	0.2881201
226	0x3f3a1013	0.7268078
227	0x3e3538c9	0.17697443
228	0xbe5cbcc9	-0.21556391
229	0x3d98b6f5	0.07456771
230	0x3f4401cd	0.7656525
231	0xbe403aa6	-0.18772373
232	0x3fa3c4d7	1.2794446
233	0x3f5ba84e	0.8580369
234	0x3e9dd2fb	0.30825028
235	0x3fa0ab11	1.2552205
236	0xbeac7eca	-0.33690482
237	0xbe436978	-0.19083202
238	0xbd54f93c	-0.0519955
239	0xbe87d99f	-0.2653322
240	0x3ea3b585	0.31974426
241	0x3f39fede	0.7265452
242	0x3e256e74	0.16155416
243	0xbf294ef9	-0.6613613
244	0xbea5c687	-0.32378027
245	0x3c858e62	0.016303245
246	0x3ea31440	0.31851387
247	0xbc894459	-0.016756224
248	0xbf6420fc	-0.8911283
249	0xbee2eb5b	-0.44320187
250	0xbe04b029	-0.12957825
251	0xbf605c65	-0.8764098
252	0xbd434113	-0.04766948
253	0xbe155d7a	-0.1458644
254	0xbcd0e8c2	-0.025501613
255	0xbd15158a	-0.036397494

node_gat2.att_dst f4 [1, 4, 64]
0	0x3e6f6c02	0.23381045
1	0x3f804333	1.0020508
2	0x3fc76454	1.5577493
3	0x3f729323	0.9475576
4	0x3f139ff0	0.5766592
5	0x3f98c6a7	1.1935624
6	0x3f46a636	0.7759737
7	0x3f22b8cf	0.63563246
8	0x3f100f8a	0.5627371
9	0xbe44adca	-0.1920692
10	0x3f1e97f1	0.61950594
11	0x3ef66289	0.4812205
12	0xbf89cd10	-1.0765705
13	0xbf6f9975	-0.9359353
14	0xbf5f1a21	-0.87149245
15	0xbec11836	-0.37713784
16	0x3f03ff88	0.51561785
17	0xbc6b3504	-0.014355902
18	0x3c3be855	0.0114689665
19	0xbda84d2d	-0.08217845
20	0xbe70d7e0	-0.2351985
21	0x3e5c752b	0.21529071
22	0xbdb692c4	-0.08914712
23	0x3d868e40	0.06570101
24	0xbf287924	-0.65809846
25	0xbe1980bf	-0.14990519
26	0xbf73feee	-0.95310867
27	0xbed200dd	-0.41016284
28	0x3f133bb8	0.57513
29	0x3ed62329	0.418237
30	0x3f8bd284	1.0923619
31	0x3f1554c0	0.58332443
32	0x3eb68a7e	0.35652536
33	0x3e5ce9f2	0.21573618
34	0xbe98b423	-0.29824933
35	0x3e1d02b5	0.15333064
36	0xbeeb94d3	-0.4601198
37	0xbe36a7de	-0.17837474
38	0xbe64c389	-0.22340216
39	0xbf1766ac	-0.5914104
40	0x3d6f41f0	0.058412492
41	0xbd77386f	-0.060356554
42	0x3e9b0108	0.30274224
43	0xbebccd49	-0.3687537
44	0xbebc1c74	-0.36740458
45	0xbe26212d	-0.16223593
46	0xbe3e87c2	-0.18606475
47	0xbf2d3002	-0.6765138
48	0x3e6e033f	0.23243426
49	0xbe69ec2f	-0.22844003
50	0x3f348844	0.70520425
51	0x3eeb9704	0.46013653
52	0x3f84e81c	1.0383334
53	0x3f18208f	0.5942468
54	0x3f85f453	1.0465187
55	0x3f3f82df	0.7480907
56	0xbd9a6c76	-0.075402185
57	0xbf957d7a	-1.1678917
58	0xbe87a2d1	-0.26491407
59	0xbf2c952e	-0.6741513
60	0x3f858b90	1.0433216
61	0x3e73973b	0.23788159
62	0x3f2517e9	0.6448961
63	0x3f638207	0.8887028
64	0xbe3679ef	-0.17819951
65	0x3f1067e1	0.56408507
66	0xbd0f84fe	-0.03503894
67	0xbe788d41	-0.24272634
68	0xbf99af34	-1.2006593
69	0xbf8f5c2e	-1.1200006
70	0xbf8457c0	-1.0339279
71	0xbf8f193f	-1.117958
72	0xbe972d24	-0.29526627
73	0xbf13de08	-0.5776067
74	0xbf3d0ef2	-0.7385093
75	0xbf3ec313	-0.7451641
76	0xbbc59a6d	-0.006030372
77	0x3df18f70	0.11794937
78	0x3ead3212	0.33827263
79	0x3ebedbf8	0.37277198
80	0x3f35298d	0.70766526
81	0x3f1a5c6f	0.6029729
82	0xbef4e1b1	-0.4782844
83	0xbf91d90e	-1.1394365
84	0xbd07aaa4	-0.03312172
85	0xbd8fa2e5	-0.070134915
86	0x3c9684d2	0.01837388
87	0xbef49712	-0.47771508
88	0x3ebf4b67	0.37362215
89	0x3f0647cd	0.5245331
90	0x3f6a5e73	0.9155037
91	0x3e0c99ab	0.13730495
92	0x3e8495a0	0.25895405
93	0x3dd47c92	0.103753224
94	0xbf0a5eb6	-0.5405077
95	0xbf50bd3f	-0.81538767
96	0x3f2143df	0.6299419
97	0x3f7a0c42	0.97674954
98	0x3f0c150c	0.54719615
99	0xbeda4656	-0.42631787
100	0xbf1d1972	-0.6136695
101	0xbf029674	-0.51010823
102	0xbf49807c	-0.78711677
103	0xbf5a8898	-0.85364676
104	0x3effb4e6	0.49942702
105	0xbe6323c1	-0.22181608
106	0x3e066048	0.13122666
107	0xb9835488	-0.00025049248
108	0xbda6f80b	-0.08152779
109	0xbedc2d57	-0.43003342
110	0x3ee59168	0.448375
111	0x3ebdbfcd	0.37060395
112	0xbf61a1c3	-0.88137454
113	0xbf089d7b	-0.53365296
114	0xbf8046d0	-1.002161
115	0xbe05c9a7	-0.13065206
116	0xbf1490fa	-0.58033717
117	0xbe9d2098	-0.3068893
118	0xbece5c9b	-0.40305027
119	0xbeaf380a	-0.34222442
120	0x3f691d3d	0.9106024
121	0x3f0be0aa	0.54639685
122	0x3f3391b8	0.70144224
123	0x3f5fa58b	0.87361974
124	0x3ee67f71	0.45019105
125	0xbed01535	-0.4064118
126	0xbc0be0ca	-0.008537481
127	0xbf2599af	-0.6468763
128	0xbea97769	-0.33098915
129	0xbf1a827b	-0.6035535
130	0xbdd1dee3	-0.102475904
131	0xbfc13019	-1.5092803
132	0x3eae9eeb	0.3410562
133	0xbc948cfe	-0.018133637
134	0xbe1a65c3	-0.15077882
135	0x3e1bc934	0.15213472
136	0x3e87ba17	0.26509163
137	0x3ef8e3b3	0.4861122
138	0x3cd344fe	0.025789734
139	0x3ed9e5a2	0.42558008
140	0x3eb75de2	0.35813814
141	0x3e4c0611	0.19924189
142	0x3f85ab4e	1.0442903
143	0x3f1b5040	0.60669327
144	0x3cd377f6	0.025814038
145	0xbee5b2ac	-0.44862878
146	0x3e572312	0.21009472
147	0xbeafd148	-0.34339356
148	0xbc40a9c6	-0.011759227
149	0x3e788d88	0.2427274
150	0x3e39e7c7	0.18154822
151	0xbe9dda41	-0.30830577
152	0x3f8dea73	1.1087173
153	0x3f4ec107	0.80763286
154	0x3f42fe11	0.76168925
155	0x3f878e5b	1.0590318
156	0x3f91ec65	1.1400267
157	0x3f588faa	0.84594214
158	0x3e4f8534	0.20265657
159	0x3f452eb5	0.77024394
160	0xbf83bce0	-1.0292015
161	0xbf12b5ee	-0.5730885
162	0xbf56e144	-0.8393748
163	0xbf74244e	-0.95367897
164	0xbeee0198	-0.4648559
165	0xbf556e26	-0.833712
166	0xbe16fdd3	-0.14745264
167	0xbed42681	-0.41435626
168	0xbe582c51	-0.21110655
169	0xbed1098b	-0.40827593
170	0xbe8f81ec	-0.2802881
171	0x3e201e04	0.1563645
172	0x3eff8cc6	0.4991209
173	0x3f357557	0.7088217
174	0x3f33b960	0.70204735
175	0x3f2ffb34	0.6874268
176	0xbeca9491	-0.39566472
177	0xbf50f930	-0.8163023
178	0xbf3bd0a6	-0.7336525
179	0xbe2c9404	-0.16853338
180	0x3f3e63b2	0.7437087
181	0xbf2443d0	-0.64165974
182	0xbcf4f3eb	-0.029901465
183	0xbe37307f	-0.17889594
184	0x3e89b1a7	0.2689335
185	0x3f1c7415	0.6111463
186	0x3f230665	0.6368163
187	0x3fa8a36b	1.3174871
188	0x3c8ab3c4	0.016931422
189	0x3e019f8d	0.1265852
190	0xbbbae351	-0.0057033678
191	0x3e974814	0.2954718
192	0xbeb4d322	-0.35317332
193	0xbe659cb0	-0.22423053
194	0xbce73114	-0.028221644
195	0xbf228336	-0.6348146
196	0x3e56dbf8	0.20982349
197	0xbf26811f	-0.65040773
198	0xbe05579e	-0.13021705
199	0xbf24603a	-0.6420933
200	0x3e3e4bd4	0.18583614
201	0xbe63c421	-0.22242786
202	0xbf06c3a7	-0.5264229
203	0x3e8f3589	0.27970532
204	0xbe784c27	-0.242478
205	0x3e928c20	0.28622532
206	0xbeb3fb3a	-0.35152608
207	0x3e4e45a9	0.2014376
208	0x3e6d4e3f	0.2317438
209	0x3dda1a4b	0.10649546
210	0x3ca494ab	0.020090422
211	0x3ea2b380	0.31777573
212	0x37fed547	3.0378475e-05
213	0x3cdbbd7d	0.026823753
214	0x3e4903c5	0.19630344
215	0x3df96798	0.12177962
216	0xbe8869e3	-0.26643285
217	0xbea3dd6d	-0.32004872
218	0xbdf18171	-0.11792267
219	0xbd973ef0	-0.07385051
220	0x3d42d92c	0.047570392
221	0x3dec2305	0.11530117
222	0x3ea3f31f	0.32021424
223	0xbcbdfb58	-0.02319114
224	0x3ee0b2c8	0.438864
225	0x3f33e546	0.7027172
226	0x3e8c1edd	0.27367297
227	0x3f489102	0.78346264
228	0xbefdf1e1	-0.495986
229	0xbe88feb1	-0.26756814
230	0x3e09f1fc	0.13471216
231	0xbd5f45f5	-0.054510076
232	0x3e675e39	0.22594537
233	0xbecede3d	-0.4040393
234	0x3ecfb223	0.40565595
235	0x3e2b97ff	0.167572
236	0x3ea00ac2	0.31258208
237	0x3f0292a1	0.5100499
238	0x3ef4012b	0.4765714
239	0x3efffce4	0.49997628
240	0x3f21ee24	0.63254
241	0x3e72548d	0.23665066
242	0x3ecec1de	0.40382284
243	0xbe84c932	-0.2593475
244	0x3e431d4f	0.19054149
245	0x3ed10d42	0.40830427
246	0x3edc5740	0.43035316
247	0x3edaf140	0.42762184
248	0xbef61474	-0.4806248
249	0xbe4396d9	-0.19100513
250	0x3ddb9a3c	0.10722777
251	0xbe6d4b0f	-0.23173164
252	0xbf3440f1	-0.7041159
253	0xbf203d6d	-0.6259373
254	0xbf2eff55	-0.68358356
255	0xbf47fdd3	-0.7812168
