src/scenario_eval_model/model_dir/basic_v0/gnn_binary_classification_model_0.pt (torch, 109621 bytes, 15 tensors)

node_gcn1.bias f4 [64]
-0.5850362 -0.014302746 -0.16759703 -0.29554918 -0.18944752 -0.17880847 -0.21536046 0.034978393
-0.124198765 0.34730798 0.33551797 -0.4243518 0.52922827 -0.40101457 -0.27633104 0.32599008
-0.21909021 0.29054576 -0.24345267 -0.053078458 -0.19201903 -0.2041339 0.14294773 0.45176387
-0.06098838 -0.20423435 0.49120134 -0.10283803 0.27397344 0.59048027 -0.36386108 -0.19093354
-0.008641402 0.47266057 -0.03991022 -0.20052132 -0.19883285 -0.19854212 0.19136553 -0.14041163
0.12551704 -0.33193728 0.48750907 0.56575584 -0.032684892 0.52162445 -0.26705465 -0.24192476
-0.22691001 -0.23745708 0.48011592 -0.5347202 0.09575135 -0.14689343 -0.029315881 -0.088410944
-0.16397266 -0.49480736 -0.008700848 -0.15363795 -0.015927365 -0.1784504 0.15493543 0.011294122
00000000: efc4 15bf 1156 6abc 8e9e 2bbe 3952 97be
00000010: 88fe 41be 9119 37be 7487 5cbe 8145 0f3d
00000020: ec5b febd 5ad2 b13e 03c9 ab3e a444 d9be
00000030: 817b 073f c851 cdbe 437b 8dbe 2ce8 a63e
00000040: 2f59 60be 6ac2 943e a84b 79be cc68 59bd
00000050: a3a0 44be 7a08 51be e460 123e 984d e73e
00000060: f4ce 79bd cf22 51be be7e fb3e bf9c d2bd
00000070: 3f46 8c3e b729 173f 004c babe 1584 43be
00000080: ab94 0dbc 9100 f23e e678 23bd 7655 4dbe
00000090: d79a 4bbe a04e 4bbe 53f5 433e 11c8 0fbe
000000a0: 8a87 003e aff3 a9be ca9a f93e 60d5 103f
000000b0: 98e0 05bd 2e89 053f 63bb 88be 20bb 77be
000000c0: 195b 68be f327 73be c1d1 f53e 6ce3 08bf
000000d0: 4919 c43d 3b6b 16be dc27 f0bc cc10 b5bd
000000e0: 73e8 27be 6457 fdbe 008e 0ebc 4453 1dbe
000000f0: 1b7a 82bc b4bb 36be 65a7 1e3e fb0a 393c

node_gcn1.lin.weight f4 [64, 6]
-0.2938656 1.0510668 0.67502135 0.066462696 -0.8748316 -0.04477258 -0.5003024 0.116535805
-0.7003851 0.021289786 0.17721272 -0.25925365 0.2726141 0.2939682 0.17002414 -0.2004635
-1.4428636 0.21662824 0.5156909 -0.46330297 -0.17864671 0.046482526 0.2678804 -0.005711901
-0.062157117 0.27895385 -0.24250335 -0.28909364 0.022051599 -0.03901633 0.104509845 -0.33337322
0.08542462 -0.32594207 -1.3709879 0.23509291 0.21643536 0.4856318 0.5226419 0.057294425
-0.09646751 -0.20921288 -2.1237054 0.018309347 -0.7140609 -0.013008547 -0.15929534 -0.034728453
0.8839469 -0.30985677 -0.13003065 -0.018347753 0.3944604 -0.07104344 -0.56836015 0.45902053
0.4299521 0.05381835 -0.17548186 -0.5432172 -0.10009509 0.47742805 0.75429463 0.09651119
-0.19472799 -0.46548 -0.4764911 0.9239361 0.56954527 0.09143932 -1.2521949 -0.043946568
-0.19572087 0.29455936 0.73601717 0.022057513 -0.11757388 -0.6670136 -0.016648365 0.91937363
0.7709463 0.006171575 -0.61036307 0.04832512 -0.5393417 -0.2960084 0.14191782 -0.20034492
-0.0030099722 -0.036542393 -0.6174444 -0.5348493 0.018285915 0.016287105 -0.8620785 -0.46727917
0.6079039 -0.04938261 -0.3544992 -0.017907577 0.3653398 -0.061868634 -1.2926917 0.6350998
0.31288183 0.06468781 0.06500751 -0.33309254 0.6211443 0.26384702 0.9037834 -0.3780492
0.009634855 0.16019882 -0.37588146 -0.63372827 -0.15047199 -0.18851164 -0.8566101 0.1719239
-0.7050924 -0.1810474 0.15374883 0.12766533 0.15588555 -0.50898033 0.41801184 -0.3307797
0.11948066 -0.15330735 0.19090915 -0.032847222 -1.294228 0.8358297 -0.17870544 0.004949791
0.13394025 -0.08525574 -0.19247884 0.38040584 0.6731823 -0.064442955 -0.15996948 -0.48847908
-0.21346839 0.14992103 0.22484408 -0.28703365 -0.03966424 0.02651999 0.14283074 0.37938073
-0.16945669 -0.15588234 -0.5926686 0.20933245 -0.06170739 0.38705027 0.58120275 -0.05191354
-0.097075656 -0.61256915 0.13803017 0.25113395 0.40659332 -0.23426852 -1.4424052 0.17244415
-0.3590578 -0.43271413 -0.10257417 0.09624447 -0.82296354 -0.5187895 -0.30054933 0.21891794
0.71636057 -0.024650807 -0.11382901 -0.6069388 -0.38601372 -0.2441259 0.70843536 0.17895964
-1.5646719 -0.017682347 0.6573572 -0.346958 0.17322558 -0.25128433 0.010897898 -0.048869785
-2.246036 0.08807704 -0.79523057 0.02262144 -0.17256834 0.011767385 -0.05670309 0.24806282
0.5138943 0.02840062 -0.18500938 -0.7309323 0.0827285 -0.2352341 -0.02242245 -0.23579271
0.124108724 -0.16917312 0.24888511 0.45688406 0.4041123 -0.18853223 -1.5604303 0.21655282
-0.014598132 -0.30003062 0.18871991 -0.26954946 -0.9886752 0.2726485 0.5567654 0.2539179
-0.23551035 0.13177021 0.097119436 -0.2333601 -0.6696418 -0.72178507 -0.019961186 0.17134184
0.12952319 -0.8037345 0.08976691 -0.44532523 -0.008832716 -0.4422958 -0.6685212 0.2707179
-1.4004167 0.4740844 -0.09166332 -0.25477394 0.12608331 -0.0142735075 0.6179826 0.43371564
-0.1561504 0.15886565 0.18069232 -0.21999747 -0.48022643 0.17006236 0.71871316 0.016972492
00000000: 8d75 96be 5b89 863f 33ce 2c3f 981d 883d
00000010: f7f4 5fbf 7463 37bd d113 00bf 53aa ee3d
00000020: 704c 33bf eb67 ae3c 4077 353e e5bc 84be
00000030: 1394 8b3e 0083 963e cf1a 2e3e 4e46 4dbe
00000040: c1af b8bf cbd3 5d3e 5204 043f 0c36 edbe
00000050: 2aef 36be 7664 3e3d 9f27 893e e62a bbbb
00000060: 7698 7ebd 0ad3 8e3e cc52 78be 1504 94be
00000070: 8ea5 b43c 96cf 1fbd 4209 d63d e5af aabe
00000080: 1af3 ae3d e1e1 a6be 887c afbf 32bc 703e
00000090: 3ba1 5d3e bba4 f83e dccb 053f 8fad 6a3d
000000a0: c290 c5bd e73b 56be caea 07c0 7cfd 953c
000000b0: b2cc 36bf cd21 55bc 511e 23be 6c3f 0ebd
000000c0: 584a 623f 8ca5 9ebe c126 05be 074e 96bc
000000d0: b7f6 c93e 397f 91bd 0d80 11bf bd04 eb3e
000000e0: af22 dc3e a170 5c3d 84b1 33be 4810 0bbf
000000f0: a8fe ccbd 7371 f43e 7419 413f a9a7 c53d
00000100: c666 47be 6553 eebe a4f6 f3be 1487 6c3f
00000110: b8cd 113f 8a44 bb3d ec47 a0bf 5101 34bd
00000120: 0d6b 48be 7cd0 963e 9f6b 3c3f f5b1 b43c
00000130: 93ca f0bd 67c1 2abf 2762 88bc 125c 6b3f
00000140: bd5c 453f ec3a ca3b c140 1cbf 90f0 453d
00000150: 4c12 0abf 6a8e 97be e852 113e 3827 4dbe
00000160: f442 45bb 7aad 15bd d610 1ebf e2eb 08bf
00000170: 58cc 953c 896c 853c 2db1 5cbf 373f efbe
00000180: 979f 1b3f 6b45 4abd eb80 b5be e9b2 92bc
00000190: d10d bb3e f769 7dbd ec76 a5bf e795 223f
000001a0: 0c32 a03e 0b7b 843d a822 853d 1b8b aabe
000001b0: 5003 1f3f f516 873e 595e 673f aa8f c1be
000001c0: 83db 1d3c 290b 243e 8973 c0be 043c 22bf
000001d0: 5415 1abe 3209 41be cd4a 5bbf d20c 303e
000001e0: ef80 34bf 7d64 39be 5570 1d3e b3ba 023e
000001f0: 76a0 1f3e 894c 02bf a605 d63e f55b a9be
00000200: 47b2 f43d 9afc 1cbe b07d 433e cf8a 06bd
00000210: 43a9 a5bf eff8 553f 8ffe 36be db31 a23b
00000220: a227 093e 909a aebd 2c19 45be 8ec4 c23e
00000230: ad55 2c3f abfa 83bd 0acf 23be ee19 fabe
00000240: 7597 5abe e684 193e 873d 663e 13f6 92be
00000250: f876 22bd 7340 d93c 3942 123e 313e c23e
00000260: 0e86 2dbe 9f9f 1fbe 21b9 17bf 3f5b 563e
00000270: e3c0 7cbd 742b c63e b4c9 143f 4ba3 54bd
00000280: 9acf c6bd 55d1 1cbf c857 0d3e a194 803e
00000290: 002d d03e 16e4 6fbe bca0 b8bf 3395 303e
000002a0: 6dd6 b7be b58c ddbe 6812 d2bd d21b c53d
000002b0: bdad 52bf 64cf 04bf 9ae1 99be 062c 603e
000002c0: 6863 373f 7df0 c9bc 2f1f e9bd 5760 1bbf
000002d0: 97a3 c5be 24fc 79be 055c 353f 3241 373e
000002e0: 2b47 c8bf 92da 90bc 9048 283f 7ba4 b1be
000002f0: 0c62 313e 57a8 80be 198d 323c af2b 48bd
00000300: 0ebf 0fc0 bc61 b43d 3b94 4bbf 9950 b93c
00000310: c1b5 30be fdcb 403c 8041 68bd 2e04 7e3e
00000320: 948e 033f 6ba8 e83c 1973 3dbe 611e 3bbf
00000330: 8f6d a93d 35e1 70be 49af b7bc a573 71be
00000340: b72c fe3d b83b 2dbe bddb 7e3e b5ec e93e
00000350: cfe7 ce3e 980e 41be 2ebc c7bf 06c0 5d3e
00000360: 012d 6fbc 9d9d 99be cb3f 413e 6302 8abe
00000370: d119 7dbf 9698 8b3e 2d88 0e3f 8701 823e
00000380: a029 71be c5ee 063e 8ee6 c63d f3f5 6ebe
00000390: a56d 2bbf e8c6 38bf a485 a3bc 3c74 2f3e
000003a0: baa1 043e 8bc1 4dbf b7d7 b73d ab01 e4be
000003b0: 19b7 10bc 9874 e2be 3524 2bbf 899b 8a3e
000003c0: db40 b3bf 31bb f23e fbb9 bbbd bb71 82be
000003d0: fc1b 013e 6edb 69bc 1c34 1e3f fa0f de3e
000003e0: e4e5 1fbe adad 223e 6807 393e 0447 61be
000003f0: 3de0 f5be d424 2e3e 96fd 373f e509 8b3c

node_gcn2.bias f4 [64]
0.20415272 -0.48724705 0.20722441 -0.37525424 -0.15798676 -0.17747515 0.028549956 -0.45499277
0.18881011 0.31884375 -0.30244926 -0.46316355 0.27338657 0.031800885 -0.39087433 -0.15055315
-0.053212304 -0.3788343 0.14475949 0.38894367 0.19708058 0.29826075 0.5107566 0.047114998
0.28910834 0.13062394 0.009048178 0.17749141 0.15487015 0.33625358 0.047150116 0.30939162
-0.24871819 0.42475516 0.30374584 -0.24817127 0.44129238 0.37872794 -0.40374324 -0.3400212
0.33308324 0.5182841 -0.33191186 -0.49178496 -0.11632926 0.37784013 0.037750594 -0.1169569
-0.40303302 0.46638244 0.39016432 0.046826538 -0.39664748 -0.42523783 -0.45795533 -0.11319402
-0.442443 0.12235263 0.32275033 -0.4389797 -0.5342125 -0.27707833 0.4090942 -0.26101464
00000000: 690d 513e 7278 f9be a332 543e 5321 c0be
00000010: 48c7 21be 0cbc 35be 99e1 e93c d0f4 e8be
00000020: 7057 413e 7d3f a33e a1da 9abe c623 edbe
00000030: 53f9 8b3e a541 023d ae20 c8be 9b2a 1abe
00000040: 25f5 59bd 92f6 c1be d53b 143e a023 c73e
00000050: 7ecf 493e a2b5 983e f2c0 023f a8fb 403d
00000060: 0206 943e 48c2 053e cf3e 143c 4fc0 353e
00000070: 4896 1e3e 6e29 ac3e 7b20 413d 9468 9e3e
00000080: fbaf 7ebe 8279 d93e 9384 9b3e 9c20 7ebe
00000090: 13f1 e13e a1e8 c13e 6fb7 cebe 4217 aebe
000000a0: e389 aa3e 44ae 043f 5af0 a9be 3dcb fbbe
000000b0: 093e eebd 4374 c13e 5ea0 1a3d 1987 efbd
000000c0: 585a cebe aec9 ee3e 9ec3 c73e 2fcd 3f3d
000000d0: 6115 cbbe c6b8 d9be 1f79 eabe 44d2 e7bd
000000e0: e487 e2be 0494 fa3d 883f a53e f2c1 e0be
000000f0: 27c2 08bf 36dd 8dbe cc74 d13e b6a3 85be

node_gcn2.lin.weight f4 [64, 64]
-0.2711081 0.20946436 0.08979606 -0.26581106 0.041670416 0.12659615 0.38145453 -0.28159812
-0.02031593 -0.08873112 0.13392913 -0.5192033 0.31070578 -0.1471253 0.026973266 -0.10218031
-0.121754535 -0.21792975 -0.0804439 0.253233 -0.103180975 -0.22307716 0.29165053 -0.30719158
0.004401385 -0.061047312 -0.2605551 0.027943654 -0.12650089 0.0031501285 0.20403735 -0.31539536
-0.07150016 -0.05959377 0.111907125 -0.080674194 -0.17848763 0.28524077 0.05412936 -0.068835735
0.08177101 0.2161114 -0.34910485 -0.27680123 -0.04903638 0.0798967 -0.115454 0.19413812
-0.07190226 -0.19456546 -0.24506596 -0.43129322 -0.1592313 0.38721022 0.08621426 0.113224596
0.24678795 -0.50715405 -0.1678347 0.3664832 -0.14871797 0.29729143 -0.027076924 0.32500103
0.22948673 0.052055888 0.31585574 -0.07819358 -0.07814206 0.5317956 0.025976438 0.69959724
-0.023242973 0.27028134 -0.05266796 -0.047803424 0.06182447 0.08255827 -0.0074736346 -0.015734753
-0.062003855 -0.08839801 -0.18014406 0.1538391 -0.27979755 0.18448088 -0.012726285 0.02690959
-0.11298049 0.31028014 -0.2550905 -0.014216115 -0.34686735 0.30051035 0.17021127 0.008130319
0.76314646 -0.0060333298 -0.034180142 0.32757944 0.40303206 -0.0758851 -0.31831005 0.6614329
-0.15745433 0.14219895 -0.127008 0.1369258 0.8719993 0.12740491 -0.13170521 0.055255715
0.2691635 -0.20830712 -0.10615228 0.20246473 -0.13671608 0.14433768 -0.07631828 0.26435325
0.5832041 0.22693871 0.63383996 -0.06326476 0.16192909 0.16859531 -0.398531 0.34268376
0.20020132 -0.3105399 -0.11226621 0.14959718 0.20553045 0.26413268 0.12752701 -0.5867636
-0.06761722 -0.514059 -0.29483265 0.08309679 -0.81145847 -0.08156061 -0.0031214785 -0.24014142
0.21106209 -0.7102935 0.15266529 0.22629935 -0.52651834 0.08821016 -0.34861562 -0.6840969
0.021435665 -0.065403834 -0.39463565 0.22601794 -0.3254042 -0.4304136 0.051404256 0.07260888
-0.2764415 -0.34076414 0.05465962 -0.12794086 0.17001235 -0.010836057 -0.37802368 0.23947705
-0.8510662 0.19812131 -0.7965954 -0.59801567 -0.5952664 -0.577606 0.1806561 0.14154515
-0.15103896 0.007195899 -0.7288921 0.012773189 -0.76522905 -0.20906037 0.020906238 -0.3639581
0.28999794 0.06214197 -0.641049 -0.43049097 -0.0020551288 -0.2397374 -0.54793817 0.1424795
-0.5054905 0.011618809 -0.14386111 0.0983661 -0.16702114 0.090604514 -0.4813267 0.42955405
-0.09166348 0.5037838 -0.055306252 -0.568912 0.059880644 -0.2887735 -0.17944872 0.20681286
0.15901533 0.14291869 -0.14768167 0.25052232 0.34131357 -0.0081494395 -0.17724319 -0.10608349
0.03434158 0.16130954 -0.02429816 -0.036861554 0.5475622 0.082891054 -0.2443942 -0.018919658
0.28678304 -0.063110255 -0.07432074 -0.29533586 0.09763945 -0.4456134 0.07707592 0.1914044
0.45236495 -0.59099436 0.43606418 -0.025663326 0.5563506 -0.20514536 0.2103185 0.073262356
0.21930817 -0.18665308 0.22896689 -0.47638553 0.0069736387 0.26758498 0.09919339 0.2725176
0.22832486 -0.33914956 0.49652055 0.006899148 0.053638045 -0.11096655 -0.12560467 0.08031699
00000000: aece 8abe d37d 563e ffe6 b73d 6318 88be
00000010: 99ae 2a3d 6ca2 013e 024e c33e a12d 90be
00000020: 986d a6bc a9b8 b5bd b824 093e 82ea 04bf
00000030: d414 9f3e 04a8 16be 0af7 dc3c e943 d1bd
00000040: 715a f9bd fa28 5fbe c5bf a4bd c1a7 813e
00000050: 8c50 d3bd 576e 64be 3853 953e 3748 9dbe
00000060: 7e39 903b bf0c 7abd 7a67 85be 17ea e43c
00000070: 7389 01be 6372 4e3b 2bef 503e 807b a1be
00000080: ad6e 92bd 9918 74bd 902f e53d 8338 a5bd
00000090: 76c5 36be 140b 923e bfb6 5d3d c0f9 8cbd
000000a0: 8f77 a73d 4f4c 5d3e dfbd b2be e4b8 8dbe
000000b0: 5fda 48bd e2a0 a33d 2673 ecbd 25cc 463e
000000c0: 7e41 93bd 2b3c 47be 92f2 7abe 77d2 dcbe
000000d0: 880d 23be 6b40 c63e 1a91 b03d 4ce2 e73d
000000e0: fbb5 7c3e d9d4 01bf dcdc 2bbe b0a3 bb3e
000000f0: 8649 18be 9536 983e 6dd0 ddbc 8966 a63e
00000100: 92fe 6a3e 8e38 553d d8b7 a13e f523 a0bd
00000110: f208 a0bd c223 083f 8acc d43c ce18 333f
00000120: 0c68 bebc 5162 8a3e 5cba 57bd 86cd 43bd
00000130: a83b 7d3d 4f14 a93d 64e5 f4bb 2be6 80bc
00000140: c1f7 7dbd 040a b5bd af77 38be ff87 1d3e
00000150: a041 8fbe 8ee8 3c3e e881 50bc 8071 dc3c
00000160: 5162 e7bd 0add 9e3e 399b 82be b5ea 68bc
00000170: 9998 b1be 7edc 993e dd4b 2e3e 0835 053c
00000180: 915d 433f 3db3 c5bb 7a00 0cbd 7eb8 a73e
00000190: 385a ce3e a669 9bbd 89f9 a2be ab53 293f
000001a0: b53b 21be 9a9c 113e 630e 02be 4736 0c3e
000001b0: 593b 5f3f 6f76 023e bbdd 06be d153 623d
000001c0: cccf 893e 764e 55be 5e66 d9bd ea52 4f3e
000001d0: 4dff 0bbe 42cd 133e c24c 9cbd 4f59 873e
000001e0: dd4c 153f 9f62 683e 5643 223f f490 81bd
000001f0: bdd0 253e 40a4 2c3e 410c ccbe 3f74 af3e
00000200: 9301 4d3e 16ff 9ebe d4eb e5bd 0130 193e
00000210: 9376 523e 663c 873e 7196 023e 2436 16bf
00000220: e67a 8abd 5f99 03bf 4ef4 96be a62e aa3d
00000230: bebb 4fbf 4009 a7bd b891 4cbb a2e7 75be
00000240: a920 583e cbd5 35bf 4a54 1c3e 04bb 673e
00000250: e8c9 06bf 87a7 b43d bf7d b2be f920 2fbf
00000260: d999 af3c 72f2 85bd af0d cabe 3f71 673e
00000270: 619b a6be 2c5f dcbe 458d 523d f7b3 943d
00000280: be89 8dbe a378 aebe c4e2 5f3d ee02 03be
00000290: b817 2e3e b889 31bc 528c c1be 7939 753e
000002a0: 79df 59bf 50e0 4a3e aded 4bbf 8e17 19bf
000002b0: 6163 18bf fddd 13bf eafd 383e 36f1 103e
000002c0: f5a9 1abe 93cb eb3b ac98 3abf a346 513c
000002d0: 0de6 43bf ec13 56be 8f43 ab3c b758 babe
000002e0: 9c7a 943e 9488 7e3d ca1b 24bf 5069 dcbe
000002f0: 57af 06bb b97d 75be ad45 0cbf 25e6 113e
00000300: d367 01bf d15c 3e3c 5450 13be 2a74 c93d
00000310: 9707 2bbe dc8e b93d 7470 f6be 82ee db3e
00000320: 10ba bbbd faf7 003f cf88 62bd 38a4 11bf
00000330: 6845 753d 1fda 93be 68c1 37be c0c6 533e
00000340: ead4 223e 4759 123e dd39 17be 7644 803e
00000350: a7c0 ae3e 3a85 05bc 3d7f 35be 4d42 d9bd
00000360: c2a9 0c3d 542e 253e ef0c c7bc 24fc 16bd
00000370: 092d 0c3f c9c2 a93d 7942 7abe 66fd 9abc
00000380: 3ad5 923e f33f 81bd 7935 98bd 4336 97be
00000390: 31f7 c73d 7127 e4be fbd9 9d3d 84ff 433e
000003a0: 619c e73e 684b 17bf ce43 df3e e53b d2bc
000003b0: fe6c 0e3f a011 52be bc5d 573e 930a 963d
000003c0: 5292 603e fc21 3fbe 4c76 6a3e cee8 f3be
000003d0: 1f83 e43b e600 893e e725 cb3d 6d87 8b3e
000003e0: fecd 693e 03a5 adbe f137 fe3e 4012 e23b
000003f0: 91b3 5b3d 6e42 e3bd 839e 00be 3c7d a43d

edge_gcn1.bias f4 [64]
0.10165931 -0.26954177 -0.15408596 0.0 0.0 -0.08500337 -0.044127524 -0.2108571
0.14351343 -0.005194503 -0.0040884893 -0.24780147 -0.2452304 -0.068863496 0.007744151 -0.31755728
0.0 0.0 -0.10381326 -0.0007911492 0.0 0.0 -0.015234967 -0.116884604
-0.044998076 -0.17030957 -0.013209373 -0.092598855 0.0 -0.028202914 0.0 -0.0072114915
-0.2988089 -0.22337435 0.0 0.0 -0.013447508 -0.09056226 0.0 0.0
0.03300875 -0.021428842 0.0 -0.03480532 -0.12029647 0.0 -0.04985465 -0.020995352
0.0 -0.20083761 -0.06603973 -0.030988185 0.0 -0.17206669 -0.23888424 -0.0082902955
-0.19302545 -0.27549013 -0.17644006 -0.039849516 0.0 -0.042940576 -0.0016898471 -0.17976671
00000000: c232 d03d 6101 8abe b6c8 1dbe 0000 0000
00000010: 0000 0000 3f16 aebd 10bf 34bd ecea 57be
00000020: 2ff5 123e a636 aabb bcf8 85bb abbf 7dbe
00000030: ae1d 7bbe 4e08 8dbd a6c2 fd3b de96 a2be
00000040: 0000 0000 0000 0000 0c9c d4bd 2065 4fba
00000050: 0000 0000 0000 0000 159c 79bc 3261 efbd
00000060: e74f 38bd a265 2ebe 206c 58bc 78a4 bdbd
00000070: 0000 0000 cc09 e7bc 0000 0000 604e ecbb
00000080: 7bfd 98be 3fbc 64be 0000 0000 0000 0000
00000090: f052 5cbc b578 b9bd 0000 0000 0000 0000
000000a0: 2f34 073d 8a8b afbc 0000 0000 0690 0ebd
000000b0: ff5d f6bd 0000 0000 6434 4cbd 72fe abbc
000000c0: 0000 0000 60a8 4dbe d73f 87bd efda fdbc
000000d0: 0000 0000 4032 30be 129e 74be 05d4 07bc
000000e0: 77a8 45be 0b0d 8dbe b4ac 34be 3f39 23bd
000000f0: 0000 0000 75e2 2fbd dc7d ddba c414 38be

edge_gcn1.lin.weight f4 [64, 3]
-0.16372555 -0.2777634 0.46775126 -0.0022062284 -0.28224176 -0.49541837 -0.031023733 -0.18437067
0.07557216 -0.20210318 0.025236264 -0.14167035 -0.28831792 -0.2914087 -0.041017603 0.004759062
-0.37706307 -0.22060885 -0.02940569 -0.2561995 0.12722518 -0.0037754814 -0.15084049 -0.0102361655
-0.07259198 -0.24214095 -0.0049779257 -0.07950082 -0.10103203 0.07399636 -0.10063742 -0.17297985
0.08912943 -0.021160072 -0.031775177 0.07552575 0.00020527947 -0.47502223 -0.49220893 0.00027005697
-0.05583094 -0.13812007 -0.1106688 0.087018095 0.35642835 -0.0014459839 0.0042581 -0.5152535
-0.25520587 -0.19502278 -0.2639847 -0.22289893 -0.13456635 -0.24005689 -0.043289214 -0.040411577
0.17896268 -0.112998836 0.21536975 0.11072773 -0.22549601 0.055253163 -0.07031336 -0.04375406
0.034274768 -0.11307733 -0.002248663 0.15665141 -0.21380602 0.00013690181 0.011247595 -0.15832275
-0.0056844614 0.22472715 0.0026419589 0.00084216334 0.04173434 -0.058754347 -0.0011720047 -0.032800317
-0.12049479 -0.018279424 -0.05440231 0.039044138 -0.09307689 -0.12281283 -0.009265177 -0.0069844564
0.26412117 -0.21673968 -0.0055136224 -0.25526065 -0.14836887 -0.109029494 -0.1854609 0.0014178795
-0.06917254 -0.3776801 0.2432118 -0.0007566627 -0.027010975 -0.3010043 -0.20137662 0.24165596
-0.05578049 -0.029273458 -0.1889231 -0.05503926 -0.00019064947 -0.11494373 -0.15977052 -0.11442459
-0.3530607 0.56297034 -0.10140892 -0.23026623 -0.22053829 -0.22232355 0.10519016 -0.13088733
-0.056159 0.22549033 0.5906168 -0.05507442 -0.25568503 0.07332047 -0.11502565 -0.2598497
-0.2596582 -0.03204818 -0.035093993 0.027987635 -0.07593373 0.04955621 0.21406306 -0.20704465
0.19187875 -0.025802156 -0.13448022 0.2591712 0.1541705 -0.23815139 0.19039571 0.15203659
-0.26095423 0.056337856 -0.2314404 0.008657145 -0.5084301 -0.20692416 -0.0012233125 -0.2417184
-0.20896785 -0.14343338 0.10426995 0.15535834 -0.060376406 -0.20250538 -0.013249539 0.0017802324
-0.08551418 -0.15338583 -0.0022738934 -0.2637462 -0.45161015 -0.08554279 0.049245745 0.03837315
0.0037040506 -0.21841039 -0.31923002 0.0048846425 -0.19738701 -0.07299801 0.004693801 -0.25019592
-0.47228482 -0.055146452 -0.16231288 0.04103922 -0.01658389 0.21063174 -0.15812068 -0.17295346
-0.07671855 0.15508117 -0.29213706 -0.24501367 0.24220298 -5.9801972e-05 0.11714135 -0.32051784
00000000: aca7 27be 0137 8ebe 187d ef3e 5f96 10bb
00000010: fe81 90be 7aa7 fdbe 7c25 febc aacb 3cbe
00000020: 94c5 9a3d 23f4 4ebe 48bc ce3c 0812 11be
00000030: 689e 93be 8533 95be 1302 28bd e8f1 9b3b
00000040: 690e c1be 49e7 61be 34e4 f0bc 952c 83be
00000050: 5147 023e 116e 77bb ee75 1abe 97b5 27bc
00000060: 1bab 94bd ccf3 77be de1d a3bb 53d1 a2bd
00000070: e2e9 cebd 678b 973d fe1a cebd a121 31be
00000080: 7e89 b63d e357 adbc b026 02bd 3fad 9a3d
00000090: 4a40 5739 1d36 f3be cf02 fcbe 6f96 8d39
000000a0: fcae 64bd 596f 0dbe 53a6 e2bd 8b36 b23d
000000b0: c77d b63e 2b87 bdba 8887 8b3b a7e7 03bf
000000c0: 58aa 82be 0db4 47be 0129 87be 9e3f 64be
000000d0: c3cb 09be 79d1 75be 0850 31bd 9c86 25bd
000000e0: fe41 373e ef6b e7bd e389 5c3e 38c5 e23d
000000f0: 6de8 66be 2451 623d 7300 90bd 7537 33bd
00000100: b363 0c3d 1695 e7bd 4e5e 13bb 3a69 203e
00000110: f7ef 5abe 4d8d 0f39 d547 383c 5c1f 22be
00000120: b844 babb e01e 663e b724 2d3b a0c4 5c3a
00000130: a1f1 2a3d 66a8 70bd f49d 99ba a059 06bd
00000140: f9c5 f6bd bbbe 95bc f5d4 5ebd bfec 1f3d
00000150: 199f bebd 4b85 fbbd f8cc 17bc dedd e4bb
00000160: e43a 873e 02f1 5dbe 9eab b4bb 86b1 82be
00000170: 02ee 17be db4a dfbd 76e9 3dbe 24d8 b93a
00000180: 55aa 8dbd 495f c1be 840c 793e c65a 46ba
00000190: 1f46 ddbc 3c1d 9abe ac35 4ebe a974 773e
000001a0: 157a 64bd e4ce efbc 0f75 41be d970 61bd
000001b0: 14e9 47b9 9e67 ebbd e29a 23be 7057 eabd
000001c0: 5fc4 b4be d31e 103f 7baf cfbd e9ca 6bbe
000001d0: cad4 61be c9a8 63be f06d d73d 5407 06be
000001e0: fb06 66bd f0e6 663e aa32 173f b795 61bd
000001f0: 26e9 82be 0b29 963d 9192 ebbd 050b 85be
00000200: ebf1 84be f444 03bd b8be 0fbd 5346 e53c
00000210: 2583 9bbd 74fb 4a3d 5933 5b3e 8303 54be
00000220: dd7b 443e 0b5f d3bc 2fb5 09be 16b2 843e
00000230: dfde 1d3e f5dd 73be 18f7 423e 7baf 1b3e
00000240: cb9b 85be 86c2 663d b6fe 6cbe b3d6 0d3c
00000250: 7a28 02bf ede3 53be 8e57 a0ba 0785 77be
00000260: abfb 55be 33e0 12be 7c8b d53d 4216 1f3e
00000270: 404d 77bd 925d 4fbe 9814 59bc b056 e93a
00000280: 0f22 afbd 2d11 1dbe 9a05 15bb be09 87be
00000290: 7239 e7be 0f31 afbd e8b5 493d 2a2d 1d3d
000002a0: a8bf 723b f9a6 5fbe 1e72 a3be 5a0f a03b
000002b0: d21f 4abe fb7f 95bd 75ce 993b ae19 80be
000002c0: 51cf f1be 3fe1 61bd 5935 26be be18 283d
000002d0: f0da 87bc d9af 573e 63ea 21be b61a 31be
000002e0: 9d1e 9dbd 99cd 1e3e fd92 95be dde4 7abe
000002f0: 0f04 783e e1d3 7ab8 cee7 ef3d ea1a a4be

edge_gcn2.bias f4 [64]
0.0074150176 0.00077308423 -0.012491277 0.0023141468 0.001928659 -0.0062989104 -0.015285615 -0.024146207
-0.00859593 -0.013959284 0.011125849 0.0035268601 -0.003074314 -0.0029127393 -0.007834 -0.004168656
-0.001869128 0.0013729357 0.0153013915 0.0050942632 0.008174483 0.0074855504 0.003469038 -0.014262175
-0.00865776 0.018925106 -0.00818197 -0.005675375 0.013400624 0.0042508077 0.0015062073 -0.009804311
-0.00336336 -0.00049806916 0.012647752 0.019493433 -0.0021055122 -0.010786408 0.007819612 -0.01310725
0.0040578046 0.014771558 0.002177136 -0.0024841654 1.9821418e-05 -0.0024398253 0.013151643 0.0025741262
0.0033298917 0.008788669 0.009241929 0.0047624293 0.016387459 0.000489377 0.010641527 0.0017693525
-0.006085797 -0.010811802 -0.0057864417 0.006230922 0.002540261 -0.0055853184 -0.018896976 0.005872035
00000000: adf9 f23b cea8 4a3a 37a8 4cbc f1a8 173b
00000010: 0fcb fc3a 1767 cebb 8470 7abc 44ce c5bc
00000020: f2d5 0cbc 7bb5 64bc 3149 363c e522 673b
00000030: 6e7a 49bb a8e3 3ebb 2d5a 00bc 3999 88bb
00000040: 87fd f4ba 14f4 b33a b0b2 7a3c c7ed a63b
00000050: 44ee 053c 5949 f53b cd58 633b e6ab 69bc
00000060: 47d9 0dbc d308 9b3c ab0d 06bc 7ff8 b9bb
00000070: 4a8e 5b3c 5c4a 8b3b ee6b c53a 43a2 20bc
00000080: d16b 5cbb db90 02ba 8438 4f3c b1b0 9f3c
00000090: a2fc 09bb 79b9 30bc d41d 003c cbbf 56bc
000000a0: 55f7 843b 6804 723c 48ae 0e3b 61cd 22bb
000000b0: 2c46 a637 7ae5 1fbb fd79 573c acb2 283b
000000c0: 503a 5a3b 59fe 0f3c 766b 173c 270e 9c3b
000000d0: fe3e 863c 8949 003a cd59 2e3c 9ee9 e73a
000000e0: 5e6b c7bb fc23 31bc 319c bdbb c32c cc3b
000000f0: 827a 263b 0c05 b7bb d5cd 9abc 336a c03b

edge_gcn2.lin.weight f4 [64, 64]
0.16347393 -0.20031947 0.21814743 0.040080167 -0.10156602 -0.059020482 0.057240646 0.08821065
0.015363762 -0.05462719 0.09203256 -0.1397015 -0.016706748 -0.08976183 -0.13354334 -0.027755681
0.10003551 -0.11125021 -0.13872312 -0.121240385 -0.011907244 -0.012328637 0.085730016 -0.036704283
0.19241829 0.20369335 0.20522505 -0.097686276 -0.20685393 0.106036074 0.2072526 -0.0052159936
-0.104886614 0.028692469 -0.033622123 0.025045527 0.09983911 -0.033842422 -0.14361414 -0.05734953
0.15097144 0.08703099 0.17579374 -0.09852929 -0.0928487 0.21143614 0.13308933 -0.07335119
-0.12766363 -0.016693952 0.11893306 0.06507753 -0.1943397 -0.11181743 -0.1200404 -0.010507773
0.11532548 0.073977955 -0.15236205 -0.08962593 -0.009425086 0.13516249 0.09417614 -0.0011138791
-0.14458938 -0.14401434 -0.033664122 0.16112825 -0.16783072 -0.103594095 -0.033761308 -0.047040988
0.03251989 -0.034824677 -0.10988763 0.09521039 -0.16982019 -0.041346624 0.11192337 0.0020633833
0.08087036 -0.1782742 0.16752777 -0.14741108 -0.018756872 -0.21521585 -0.043407146 0.07702842
0.08769207 0.026224062 -0.16135849 -0.022641046 -0.109185465 0.21253134 -0.1713706 0.1288786
-0.11953859 -0.11638465 0.08614568 0.14283012 0.10580933 0.063377894 -0.1484849 -0.017976906
-0.30304986 -0.19142868 -0.096778624 0.16335618 0.08036329 0.20962583 0.017038468 -0.01718817
-0.048203833 -0.0580292 0.04258868 0.202458 0.15113638 0.072741166 -0.06487992 0.14060655
-0.08727166 0.14670005 -0.038815834 0.060259417 -0.09983598 -0.02119826 0.05576185 -0.09881798
0.38354188 -0.023082582 0.1786059 -0.08754009 0.011983537 0.08182929 -0.2335978 0.07423426
-0.058321934 -0.06998866 -0.066183776 0.15578812 -0.002534171 0.16521244 0.26119676 0.0049639344
-0.17484783 -0.14538413 -0.16534151 -0.0034092674 0.07848052 0.19675736 -0.14452352 -0.17821774
-0.0775295 -0.09385126 -0.0052286396 -0.043946598 0.12737285 -0.05786571 0.08333099 -0.086080775
0.18063775 0.026641354 0.057673313 0.17067148 0.119261056 0.21801399 -0.1464894 0.12940904
0.3994203 0.20091483 -0.12679633 0.059219766 0.11275299 -0.16162927 0.18888368 -0.21315895
-0.15567717 -0.1699099 0.024350561 0.051967848 -0.09154752 -0.17594162 0.10403698 0.12551494
-0.09237723 -0.14868282 -0.001233557 -0.11913317 0.15866336 -0.031198587 0.13373382 0.034850366
-0.1373382 0.022827372 -0.0117404945 -0.21057172 -0.12718625 -0.09090146 0.10700082 -0.106291525
-0.032325476 0.054486696 0.13577881 -0.0029485659 0.0016268512 0.100665614 -0.04300766 -0.0370835
-0.093537435 -0.026956648 -0.104755454 0.115722895 0.07207745 -0.14604984 -0.09779673 -0.030139435
0.055171553 0.09341799 -0.12718733 0.26807064 -0.0020167339 0.05442557 0.04350017 -0.124022566
-0.047398806 -0.09075914 -0.03333987 0.06143165 -0.13730939 0.0029227498 -0.12446886 -0.08279874
-0.25597292 0.08384463 -0.03657737 0.2543998 -0.0021265105 0.04219508 -0.14235167 -0.12193268
0.16691431 -0.1376967 0.2111242 0.10047329 0.032420482 0.031322382 0.083010994 0.014975125
-0.058111742 -0.04691574 -0.060728867 0.021239353 0.1892183 0.0652436 0.08594697 -0.13172619
00000000: b665 273e 8c20 4dbe 0a62 5f3e 1a2b 243d
00000010: d801 d0bd 76bf 71bd 2b75 6a3d c9a7 b43d
00000020: 4ab8 7b3c c3c0 5fbd 917b bc3d e90d 0fbe
00000030: 97dc 88bc 0dd5 b7bd 96bf 08be e25f e3bc
00000040: 6bdf cc3d 26d7 e3bd 6f0d 0ebe e14c f8bd
00000050: 9a16 43bc 0dfe 49bc 3893 af3d 3b57 16bd
00000060: 4d09 453e fd94 503e 8426 523e be0f c8bd
00000070: 84d1 53be 7129 d93d 073a 543e edea aabb
00000080: cbce d6bd 780c eb3c 5ab7 09bd 472c cd3c
00000090: 7378 cc3d 5a9e 0abd 960f 13be 57e7 6abd
000000a0: 4298 1a3e 4e3d b23d 4603 343e b9c9 c9bd
000000b0: 7627 bebd b782 583e 9248 083e 2639 96bd
000000c0: 41ba 02be c1c1 88bc 2d93 f33d 5e47 853d
000000d0: fc00 47be 8900 e5bd bed7 f5bd cb28 2cbc
000000e0: c42f ec3d c181 973d cc04 1cbe cd8d b7bd
000000f0: ad6b 1abc 0968 0a3e 6cdf c03d 95ff 91ba
00000100: 3d0f 14be 7f78 13be 64e3 09bd cefe 243e
00000110: d1db 2bbe 2429 d4bd 4c49 0abd 0dae 40bd
00000120: 9433 053d 52a4 0ebd c40c e1bd aafd c23d
00000130: 58e5 2dbe 145b 29bd 1438 e53d d439 073b
00000140: 5c9f a53d 838d 36be 668c 2b3e eef2 16be
00000150: 03a8 99bc 8b61 5cbe b1cb 31bd 14c1 9d3d
00000160: e697 b33d d8d3 d63c 293b 25be b779 b9bc
00000170: a19c dfbd d1a1 593e c67b 2fbe c0f8 033e
00000180: a6d0 f4bd 135b eebd 256d b03d 0f42 123e
00000190: 90b2 d83d 45cc 813d 6d0c 18be 4e44 93bc
000001a0: 5a29 9bbe e105 44be df33 c6bd d846 273e
000001b0: 8295 a43d 27a8 563e 4294 8b3c 35ce 8cbc
000001c0: 6271 45bd 07b0 6dbd 7871 2e3d 2651 4f3e
000001d0: 7fc3 1a3e 52f9 943d c3df 84bd 2afb 0f3e
000001e0: 7cbb b2bd 8a38 163e 5afd 1ebd 94d2 763d
000001f0: ce76 ccbd f9a7 adbc 8a66 643d 1561 cabd
00000200: 9a5f c43e af17 bdbc 77e4 363e 3848 b3bd
00000210: 9956 443c 1d96 a73d 4334 6fbe 2208 983d
00000220: fbe2 6ebd 3756 8fbd 5c8b 87bd ec86 1f3e
00000230: 5614 26bb 732d 293e 95bb 853e 80a8 a23b
00000240: 4f0b 33be 94df 14be 494f 29be 046e 5fbb
00000250: 65ba a03d c37a 493e f9fd 13be b67e 36be
00000260: c9c7 9ebd 1735 c0bd 0255 abbb 5901 34bd
00000270: 076e 023e 9804 6dbd 70a9 aa3d 1e4b b0bd
00000280: 1af9 383e f83e da3c da3a 6c3d 81c4 2e3e
00000290: 243f f43d 0f3f 5f3e 5101 16be ce83 043e
000002a0: d180 cc3e 9ebc 4d3e e6d6 01be 6d90 723d
000002b0: 0aeb e63d 2582 25be b96a 413e 5746 5abe
000002c0: d669 1fbe dcfc 2dbe d47a c73c 3ddc 543d
000002d0: 447d bbbd 0a2a 34be 5711 d53d fd86 003e
000002e0: 4630 bdbd 4f40 18be 4eaf a1ba 17fc f3bd
000002f0: a678 223e 2e94 ffbc 85f1 083e 42bf 0e3d
00000300: 63a2 0cbe 7800 bb3c 345b 40bc 1da0 57be
00000310: 1d3d 02be 8b2a babd 3f23 db3d 5faf d9bd
00000320: b867 04bd 712d 5f3d 9a09 0b3e ba3c 41bb
00000330: 113c d53a c629 ce3d cd28 30bd dee4 17bd
00000340: 8e90 bfbd 30d4 dcbc 078a d6bd 2000 ed3d
00000350: 589d 933d 178e 15be a749 c8bd fae6 f6bc
00000360: 91fb 613d ee51 bf3d 653d 02be 8e40 893e
00000370: 2e2b 04bb 59ed 5e3d 3c2d 323d 8bff fdbd
00000380: 4025 42bd eedf b9bd 638f 08bd c19f 7b3d
00000390: d59a 0cbe 9b8b 3f3b 88e9 febd 6392 a9bd
000003a0: e20e 83be bcb6 ab3d 27d2 15bd b140 823e
000003b0: ed5c 0bbb c0d4 2c3d a3c4 11be d7b7 f9bd
000003c0: 96eb 2a3e 5d00 0dbe f130 583e f1c4 cd3d
000003d0: 57cb 043d e64b 003d ab01 aa3d 3a5a 753c
000003e0: 9406 6ebd b82a 40bd d5be 78bd 27fe ad3c
000003f0: 71c2 413e 709e 853d f704 b03d 3be3 06be

weather_mlp1.weight f4 [64, 8]
-0.19579306 0.29664204 0.1366499 -0.04316657 0.032428812 0.12078423 -0.11213937 -0.21454331
0.41987306 -0.1938705 -0.339781 -0.25234115 0.2750255 0.7535794 -0.67037064 -0.42881036
-0.13461354 -0.095156476 0.032044996 -0.15078862 -0.16695969 -0.4025087 -0.6554722 0.24593121
-0.036499776 -0.53540677 0.25374687 0.25371104 -0.38409993 -0.33560985 0.22754845 0.15961628
-0.2706989 -0.40558892 0.27760556 0.2812241 0.4585414 0.24981844 -0.35000333 0.49109507
0.4155383 0.14129572 -0.078525774 0.7415015 0.5343625 0.4710345 -0.19829844 -0.2360593
0.5238028 0.14606501 0.019567179 0.1088587 -0.4598942 -0.2719919 0.32296237 0.033052206
0.19183604 0.23912284 0.7482923 0.121779494 -0.15955415 -0.33968487 0.09856534 -0.36489552
-0.27747533 0.72136897 -0.19485876 0.32766864 0.24192488 0.122707784 -0.089696966 -0.59464127
-0.29749715 -0.14592673 0.5729625 -0.7599483 0.3921922 -0.18368027 -0.0699099 0.5003321
0.5644218 -0.33854237 -0.068244755 0.0445683 0.2998901 0.051365193 0.3723305 -0.5894993
-0.054168615 0.037189443 0.042142186 0.12269054 -0.09618881 0.013539486 0.008688553 0.019508667
-0.33086085 -0.57950765 -0.16523042 -0.022117766 -0.120230876 0.08418935 -0.3352996 -0.8035258
0.4344881 0.26625928 0.2051574 -0.16674574 -0.27220276 -0.5933902 -0.43369305 -0.309311
0.22681955 -0.46585235 -0.20764437 -0.5663933 0.33874926 -0.45354676 -0.15698136 -0.033411384
-0.11457617 -0.5448719 0.11862088 0.21957788 0.28104082 0.2428887 -0.25661582 -0.56895673
0.37991318 0.09429989 0.25231427 0.17900787 -0.11480178 0.39585 -0.30981293 0.37664106
-0.16462258 0.12507123 0.5149901 0.15317349 0.7751318 0.17450225 0.029833816 -0.32852155
-0.10670678 0.21539898 -0.07302331 -0.006463937 0.48787308 0.32143226 -0.098866835 -0.010045578
-0.2607155 -0.17972045 0.39932895 -0.36276773 0.6712069 -0.269611 0.6080874 -0.19044012
-0.17122748 0.19203435 0.3705806 0.7147408 0.7005195 -0.3926582 0.5327205 -0.10912701
0.39657897 -0.10021163 -0.33519602 -0.14411815 -0.11775255 -0.29026765 -0.3228502 -0.3051476
-0.5490087 0.16154377 -0.044260032 -0.0064076846 -0.35242313 -0.6625031 0.32407507 -0.619561
0.36484396 -0.5256029 -0.12711167 0.28435925 -0.27233037 0.60468924 -0.31040248 0.12934549
-0.3527826 0.016130604 -0.43062884 -0.3010521 -0.31206948 -0.22288913 -0.3914865 0.24023345
-0.054077625 0.012694296 0.0101747485 0.5908048 -0.00049865054 0.540699 0.38069674 0.031047575
0.790889 -0.14668275 0.12257328 -0.3225791 -0.39267558 0.348331 -0.27922255 -0.020033585
0.2798684 0.07154216 0.51588005 -0.49232116 0.2215997 -0.11263489 0.5577266 0.03698213
0.1420612 -0.14395119 0.51158196 -0.5033618 -0.10390755 0.27789727 -0.0034409864 0.282679
-0.31445974 -0.24440542 0.467529 0.27968562 -0.27371693 0.10506728 0.7024051 -0.25203258
-0.20768811 -0.16855656 0.3167933 0.01598536 0.28572115 -0.52512556 0.6629837 -0.22554982
-0.48082808 0.3959785 0.12231477 0.535959 -0.33434913 0.30088854 -0.15295129 0.021154081
00000000: fa7d 48be 77e1 973e f4ed 0b3e 6ecf 30bd
00000010: 13d4 043d b95d f73d 53a9 e5bd 3eb1 5bbe
00000020: 9af9 d63e fd85 46be c6f7 adbe dc32 81be
00000030: 24d0 8c3e 94ea 403f 699d 2bbf 088d dbbe
00000040: 22d8 09be 66e1 c2bd 9d41 033d 5568 1abe
00000050: 7bf7 2abe 9f15 cebe 07cd 27bf 64d5 7b3e
00000060: ca80 15bd 6b10 09bf 1ceb 813e 6ae6 813e
00000070: bfa8 c4be 0ed5 abbe 7602 693e 7372 233e
00000080: 0c99 8abe 5aa9 cfbe 5122 8e3e 9bfc 8f3e
00000090: f0c5 ea3e 68d0 7f3e a333 b3be d070 fb3e
000000a0: 70c1 d43e d3af 103e 1fd2 a0bd 0bd3 3d3f
000000b0: fbcb 083f 6f2b f13e bf0e 4bbe 87b9 71be
000000c0: f117 063f 1192 153e 594b a03c 4ff1 de3d
000000d0: 4177 ebbe 8642 8bbe 535b a53e c061 073d
000000e0: ab70 443e 9edc 743e 1690 3f3f 8767 f93d
000000f0: 2a62 23be 2deb adbe a0dc c93d 96d3 babe
00000100: 3f11 8ebe a3ab 383f 0e89 47be 2fc4 a73e
00000110: 28bb 773e 384e fb3d 0bb3 b7bd 693a 18bf
00000120: 8c51 98be d16d 15be acad 123f f98b 42bf
00000130: 6bcd c83e ae16 3cbe ec2c 8fbd c415 003f
00000140: f27d 103f 6d55 adbe e8c3 8bbd 408d 363d
00000150: 328b 993e 4f64 523d 1aa2 be3e 6de9 16bf
00000160: e9df 5dbd f553 183d 499d 2c3d 2e45 fb3d
00000170: a4fe c4bd b8d4 5d3c 6f5a 0e3c a4d0 9f3c
00000180: 9866 a9be 9d5a 14bf 2a32 29be 5130 b5bc
00000190: 9b3b f6bd 776b ac3d 64ac abbe deb3 4dbf
000001a0: 3975 de3e 2353 883e c814 523e 65bf 2abe
000001b0: 295e 8bbe 6ce8 17bf 040d debe 035e 9ebe
000001c0: 6243 683e 3384 eebe baa0 54be 27ff 10bf
000001d0: 8b70 ad3e 4837 e8be b9bf 20be 60da 08bd
000001e0: e9a6 eabd ba7c 0bbf 81ef f23d 06d9 603e
000001f0: 95e4 8f3e d1b7 783e 2663 83be 26a7 11bf
00000200: fb83 c23e 4d20 c13d 562f 813e d74d 373e
00000210: 321d ebbd daac ca3e cd9f 9ebe 19d7 c03e
00000220: d292 28be ac12 003e 64d6 033f 83d9 1c3e
00000230: 0a6f 463f b8b0 323e 0c66 f43c fa33 a8be
00000240: 1689 dabd 8d91 5c3e 3f8d 95bd 6fcf d3bb
00000250: 80ca f93e c592 a43e b27a cabd 3596 24bc
00000260: 817c 85be a308 38be d874 cc3e b1bc b9be
00000270: 37d4 2b3f 740a 8abe 9eab 1b3f bc02 43be
00000280: 4256 2fbe a7a4 443e bebc bd3e 41f9 363f
00000290: 3f55 333f 7f0a c9be 5f60 083f fb7d dfbd
000002a0: 660c cb3e c13b cdbd d09e abbe b593 13be
000002b0: 4028 f1bd f69d 94be 9f4c a5be 4e3c 9cbe
000002c0: d68b 0cbf bb6b 253e 024a 35bd 8ef7 d1bb
000002d0: ce70 b4be ce99 29bf 2bed a53e 8d9b 1ebf
000002e0: d4cc ba3e e98d 06bf 9029 02be 8997 913e
000002f0: e36e 8bbe eacc 1a3f 13ed 9ebe 2573 043e
00000300: ec9f b4be 5424 843c 627b dcbe 8023 9abe
00000310: 92c7 9fbe 0c3d 64be eb70 c8be c2ff 753e
00000320: 8080 5dbd bdfb 4f3c fdb3 263c fc3e 173f
00000330: dfb7 02ba 406b 0a3f afea c23e 7c57 fe3c
00000340: b477 4a3f 0134 16be b307 fb3d 1629 a5be
00000350: c60c c9be 7158 b23e 42f6 8ebe 791d a4bc
00000360: e94a 8f3e b284 923d b710 043f 8511 fcbe
00000370: 08eb 623e 1fad e6bd 2cc7 0e3f 937a 173d
00000380: 7e78 113e f167 13be 09f7 023f 52dc 00bf
00000390: 7bcd d4bd 8d48 8e3e 2c82 61bb 4dbb 903e
000003a0: de00 a1be 6a45 7abe f65f ef3e f432 8f3e
000003b0: a024 8cbe 842d d73d d2d0 333f 6a0a 81be
000003c0: 31ac 54be 179a 2cbe bb32 a23e bbf3 823c
000003d0: 0b4a 923e a16e 06bf 4db9 293f 88f6 66be
000003e0: 192f f6be b2bd ca3e 2b80 fa3d 9c34 093f
000003f0: cf2f abbe 100e 9a3e 439f 1cbe 534b ad3c

weather_mlp1.bias f4 [64]
-0.30380216 -0.2827948 -0.4783423 -0.28777245 -0.1694957 -0.29083595 -0.39920032 -0.3373837
-0.62096304 0.2657056 -0.50889426 -0.19527176 -0.37139997 -0.14706774 -0.2793074 -0.53585047
-0.75009024 -0.18426104 -0.16303477 -0.21038517 -0.0023953351 -0.29321063 -0.14772637 -0.43939805
-0.25771073 -0.163899 -0.2859761 -0.6998762 -0.36906648 -0.5458278 -0.5863562 -0.6560422
-0.5731733 -0.17583543 -0.3511707 -0.4398249 -0.5818616 -0.77644676 -0.4612126 -0.2522486
0.038153265 -0.30585447 -0.029160084 -0.30277714 -0.3912402 -0.17306499 -0.6345429 -0.55346215
-0.8982714 -0.18442352 -0.58275664 0.11718285 -0.061760694 -0.45482352 -0.67402726 -0.48489565
-0.4839405 -0.32965204 -0.22630163 -0.58645004 -0.62830055 -0.5731332 -0.40088516 -0.41327566
00000000: f58b 9bbe 7bca 90be 48e9 f4be e956 93be
00000010: 4890 2dbe 73e8 94be fc63 ccbe 8ebd acbe
00000020: 6ff7 1ebf 900a 883e e546 02bf 52f5 47be
00000030: 2328 bebe ed98 16be 6101 8fbe 7f2d 09bf
00000040: ea05 40bf edae 3cbe 96f2 26be 366f 57be
00000050: 0efb 1cbb b41f 96be 9545 17be c8f8 e0be
00000060: a9f2 83be 24d5 27be 766b 92be 162b 33bf
00000070: 48f6 bcbe 5fbb 0bbf 711b 16bf 62f2 27bf
00000080: 7cbb 12bf 340e 34be a5cc b3be bb30 e1be
00000090: e2f4 14bf 37c5 46bf 0f24 ecbe ba26 81be
000000a0: 9946 1c3d f598 9cbe 21e1 eebc 9b05 9bbe
000000b0: a350 c8be f337 31be 6771 22bf b2af 0dbf
000000c0: 1df5 65bf 85d9 3cbe 8a2f 15bf 90fd ef3d
000000d0: c8f8 7cbd a1de e8be 0d8d 2cbf 3e44 f8be
000000e0: 0dc7 f7be 27c8 a8be 9dbb 67be 9721 16bf
000000f0: 4ed8 20bf dbb8 12bf d240 cdbe de98 d3be

weather_mlp2.weight f4 [64, 64]
-0.030172732 0.7178486 -0.4209946 0.18773243 0.16906181 0.38462976 -0.32091007 -0.8277597
-0.6023661 0.32450238 0.2770869 0.1351197 0.77207124 -0.033324935 0.09855425 0.32344675
-0.4806586 0.29302034 0.109184034 -0.30695608 0.60858864 0.006132333 -0.6576796 -0.35826132
0.22693762 0.37931728 0.0208962 -0.69635 -0.38885272 -0.15154494 -0.59793967 -0.0036193547
-0.019831222 -0.02265998 0.21577674 -0.04543151 -0.3733254 -0.16994411 0.021376267 0.10588138
-0.050922908 -0.08979216 -0.028588919 -0.25211155 -0.78701335 0.13082582 -0.40510327 0.003776766
-1.1874365 -0.55212265 -0.855589 0.37896132 0.17104186 0.059610464 0.76684856 -0.19076477
-0.39167765 -0.07697242 0.13123408 -0.22140232 -0.3375394 -0.65152115 -0.32577527 -0.2903004
0.068114445 -0.09549571 0.40723282 -0.3422377 0.09698471 -0.34488335 0.26182926 0.5649916
1.1756052 -0.45173427 -0.54206485 0.06925069 -0.66222245 -0.29455665 -0.53998816 -0.43545282
0.6515134 0.27597898 0.07734376 0.82375145 0.022221308 -0.14690489 0.1407245 0.3618178
-0.11456661 0.31351498 0.40177882 0.08364306 -0.004945198 0.06039438 0.75116014 -0.21667247
-0.4186219 0.1964193 0.15445462 0.99478155 -0.057490118 0.88629264 0.3329772 0.09533485
-0.034256767 0.62255156 -0.27259114 0.094545424 -0.11484375 -0.040559445 0.16533576 -0.6224376
0.74841124 0.21179537 0.54713523 0.14120716 0.039385654 0.29616812 -0.35303062 -0.086112484
0.2921482 -0.18982345 -0.3545043 -0.26582316 0.011645408 -0.15886544 0.38979885 0.09485569
0.08498428 0.20102054 -0.039856415 0.17050724 -0.07730745 -0.1032563 -0.23659733 -0.0038208254
-0.4332465 0.2229845 0.23207691 -0.025004918 0.23555401 0.37667245 0.007967758 0.22373173
0.035041887 -0.6719998 0.07935788 -0.52412033 -0.23277014 -0.07767932 0.38726646 0.21752921
-0.045419555 0.23601091 -0.23398687 -0.30049828 0.25547555 -0.5508058 -0.41084877 -0.32082152
0.0043765465 -0.4064832 -0.79242975 0.17822167 0.03418357 -0.8385194 -0.7584482 -0.08241731
0.1425729 -0.5435912 -0.10310921 0.105385885 0.13543856 -0.088860355 0.027388945 0.028143702
-0.59579617 -0.47741723 -0.35074663 0.2808967 -0.31199107 -0.295644 0.09222277 0.10072021
0.13794424 -0.049851738 0.42844668 -0.32189336 -0.07939142 -0.28678578 -0.0023264345 -0.18603423
0.01576849 -0.39293113 0.31791463 -0.3743044 -0.23318079 -0.42532453 0.14983769 0.43120593
0.50167835 -0.4872147 -0.43649533 -0.16098122 -0.731658 -0.40445608 0.008553316 -0.4933857
0.5769117 -0.1495681 0.06497563 0.54429334 -0.42501473 -0.08283553 0.44252673 0.09222048
0.055318434 -0.116673835 0.31543744 0.21624567 -0.16760518 0.21134038 0.48850113 -0.06411632
0.11358974 0.16918758 0.0088455565 0.34456545 0.49042493 0.2905862 0.06296769 -0.20606725
-0.2859864 0.4833465 0.03626402 0.15003215 0.250287 -0.16452184 0.14086637 0.18426971
0.9736181 0.6169959 0.7703772 -0.34799466 0.013344818 -0.12221751 -0.5363981 0.2378423
0.09168885 0.15533653 -0.509444 0.25497344 0.13013399 -0.026496548 0.17694166 0.18777241
00000000: ce2c f7bc edc4 373f 9b8c d7be ee3c 403e
00000010: 8a1e 2d3e 31ee c43e 534e a4be 0fe8 53bf
00000020: aa34 1abf 2d25 a63e 56de 8d3e d25c 0a3e
00000030: 76a6 453f ba7f 08bd d0d6 c93d d09a a53e
00000040: e218 f6be c306 963e e19b df3d 5929 9dbe
00000050: 77cc 1b3f bdf1 c83b b15d 28bf 076e b7be
00000060: 5662 683e e035 c23e 822e ab3c fe43 32bf
00000070: b417 c7be 992e 1bbe 9312 19bf b232 6dbb
00000080: 1675 a2bc 6ca1 b9bc 94f4 5c3e 6416 3abd
00000090: 8224 bfbe d405 2ebe 481d af3c 56d8 d83d
000000a0: 8a94 50bd f4e4 b7bd 4f33 eabc c414 81be
000000b0: b579 49bf 34f7 053e b269 cfbe 9e83 773b
000000c0: ebfd 97bf e957 0dbf e107 5bbf 3807 c23e
000000d0: 9925 2f3e 1a2a 743d 3050 443f d757 43be
000000e0: f989 c8be b7a3 9dbd 3a62 063e 4ab7 62be
000000f0: f7d1 acbe 17ca 26bf 04cc a6be 41a2 94be
00000100: 967f 8b3d 4193 c3bd d280 d03e c839 afbe
00000110: eb9f c63d 8d94 b0be 7c0e 863e 4aa3 103f
00000120: 3b7a 963f b749 e7be c3c4 0abf 4ed3 8d3d
00000130: 6987 29bf 21d0 96be aa3c 0abf acf3 debe
00000140: 95c9 263f 1e4d 8d3e 6866 9e3d 60e1 523f
00000150: 7609 b63c 3c6e 16be 151a 103e 2f40 b93e
00000160: e6a1 eabd 0985 a03e f4b5 cd3e 0d4d ab3d
00000170: 540b a2bb 1960 773d 084c 403f 63df 5dbe
00000180: 9c55 d6be 2422 493e 5a29 1e3e 01aa 7e3f
00000190: c27a 6bbd 13e4 623f fd7b aa3e eb3e c33d
000001a0: d350 0cbd 8a5f 1f3f 1191 8bbe 08a1 c13d
000001b0: 3333 ebbd a921 26bd c74d 293e 1258 1fbf
000001c0: e197 3f3f e3e0 583e 0e11 0c3f 9c98 103e
000001d0: da52 213d 59a3 973e 6ec0 b4be be5b b0bd
000001e0: 7394 953e 1461 42be 9681 b5be f919 88be
000001f0: 62cc 3e3c 9fad 22be b793 c73e b343 c23d
00000200: 3d0c ae3d 54d8 4d3e 7b40 23bd 7399 2e3e
00000210: 5e53 9ebd 0a78 d3bd 9246 72be d066 7abb
00000220: 7cd2 ddbe 0c56 643e 92a5 6d3e 1dd7 ccbc
00000230: 1235 713e 36db c03e 338b 023c ee19 653e
00000240: 1588 0f3d 2e08 2cbf 6286 a23d c02c 06bf
00000250: 4c5b 6ebe 5616 9fbd ca47 c63e fabf 5e3e
00000260: db09 3abd d8ac 713e 419a 6fbe e9da 99be
00000270: b1cd 823e 9c01 0dbf c55a d2be b842 a4be
00000280: 2269 8f3b 911e d0be addc 4abf be7f 363e
00000290: 1204 0c3d 35a9 56bf a929 42bf 68ca a8bd
000002a0: a1fe 113e cb28 0bbf ec2a d3bd 8ed4 d73d
000002b0: 68b0 0a3e 6bfc b5bd c85e e03c 9f8d e63c
000002c0: 1986 18bf 0870 f4be 1095 b3be b1d1 8f3e
000002d0: 4bbd 9fbe a65e 97be 4bdf bc3d 6646 ce3d
000002e0: 4141 0d3e 5631 4cbd 5d5d db3e 35cf a4be
000002f0: f897 a2bd 96d5 92be 1877 18bb c27f 3ebe
00000300: ec2c 813c 452e c9be b5c5 a23e d4a4 bfbe
00000310: f2c6 6ebe 23c4 d9be 0d6f 193e 06c7 dc3e
00000320: fe6d 003f 3574 f9be 517c dfbe 43d8 24be
00000330: f04d 3bbf de14 cfbe 3523 0c3c 0d9d fcbe
00000340: 7cb0 133f 6128 19be f111 853d cf56 0b3f
00000350: 889b d9be ada5 a9bd dd92 e23e 17de bc3d
00000360: 9595 623d b1f2 eebd 0481 a13e 816f 5d3e
00000370: b1a0 2bbe 9d69 583e d21c fa3e 6b4f 83bd
00000380: bda1 e83d 823f 2d3e f4ec 103c e26a b03e
00000390: fa18 fb3e b7c7 943e 34f5 803d 4b03 53be
000003a0: cf6c 92be 3179 f73e 9589 143d 07a2 193e
000003b0: 9e25 803e 6a78 28be 463f 103e 33b1 3c3e
000003c0: 093f 793f 71f3 1d3f 7137 453f 5b2c b2be
000003d0: 39a4 5a3c 2d4d fabd 6351 09bf ef8c 733e
000003e0: 5dc7 bb3d 8a10 1f3e ec6a 02bf e18b 823e
000003f0: d841 053e 4a0f d9bc 3230 353e 6947 403e

weather_mlp2.bias f4 [64]
0.23629269 -0.024264632 0.014324298 -0.19668217 -0.011089608 0.2689693 -0.16773733 0.13746276
-0.14809461 0.17303166 0.0859178 -0.080946356 0.17436121 -0.16297884 -0.053997032 -0.24267907
0.16772161 0.057939224 0.14029336 0.11416359 0.039638035 -0.16881455 0.23987314 -0.04529605
-0.14910065 -0.1408192 0.00470899 0.14629799 0.065864 0.02740951 -0.021141117 -0.21116672
-0.00026328838 -0.006602141 0.027677512 -0.138585 -0.1820848 0.17265677 0.2291104 0.100455955
0.101730414 0.10400697 0.16564274 -0.032527197 0.17019206 -0.013342935 0.11495885 0.2404714
-0.2068809 0.052328892 -0.06046344 -0.016631944 -0.05639467 -0.070693195 -0.16827393 -0.03662279
0.24766243 -0.07104917 0.14115427 0.08073921 -0.044320285 0.034000304 -0.09146654 0.041124523
00000000: b6f6 713e 9fc6 c6bc 76b0 6a3c 0d67 49be
00000010: 30b1 35bc 58b6 893e 56c3 2bbe 0ac3 0c3e
00000020: 1da6 17be 362f 313e acf5 af3d 34c7 a5bd
00000030: bf8b 323e ede3 26be fe2b 5dbd dd80 78be
00000040: 37bf 2b3e ae51 6d3d 10a9 0f3e 9ace e93d
00000050: 7e5b 223d b9dd 2cbe 4ea1 753e 5a88 39bd
00000060: d7ad 18be e932 10be df4d 9a3b 24cf 153e
00000070: b4e3 863d e989 e03c 2330 adbc 173c 58be
00000080: f809 8ab9 c656 d8bb f3bb e23c 3ae9 0dbe
00000090: 7074 3abe f0cc 303e eb9b 6a3e dabb cd3d
000000a0: 0958 d03d 9b01 d53d 409e 293e 3d3b 05bd
000000b0: d446 2e3e 539c 5abc 8c6f eb3d 223e 763e
000000c0: 96d8 53be d256 563d 83a8 77bd b73f 88bc
000000d0: 19fe 66bd 98c7 90bd 0050 2cbe c701 16bd
000000e0: 389b 7d3e 3a82 91bd bf8a 103e 995a a53d
000000f0: 3089 35bd e743 0b3d cf52 bbbd 3072 283d
