src/scenario_eval_model/model_dir/improve_v2/gnn_binary_classification_model_1.pt (torch, 647634 bytes, 47 tensors)

node_gat1.att_src f4 [1, 4, 64]
000000 d1 95 13 3f 65 25 be 3d 81 49 06 bf 30 aa 7d bf
       0.57650477 0.09284476 -0.5245591 -0.9908781
000010 95 05 24 bf d7 8a 9d 3e 54 a4 33 be e1 2e 58 bf
       -0.6407102 0.3076999 -0.17543155 -0.8444653
000020 63 f6 9c bc 0f b7 bb 3d 25 b1 3c be e2 ed 0f 3e
       -0.019160455 0.09165775 -0.1842695 0.14055589
000030 0e f1 07 40 bf 1f e8 be 25 9a 91 3e d6 78 18 bf
       2.1240878 -0.4533672 0.28437915 -0.5955938
000040 95 32 bf be e1 34 e3 3f f2 4f fa be 74 fe 11 be
       -0.3734328 1.7750512 -0.48889118 -0.14257222
000050 1d 6d d8 be f4 2c c1 3f b6 f5 1c bf c4 be 98 bd
       -0.42270747 1.5091844 -0.61312425 -0.07458261
000060 ab 02 98 be c9 59 01 be ec e2 4d be 6a 28 75 3e
       -0.29689535 -0.12631907 -0.20106095 0.23941198
000070 ee 2e 9c bf ac 36 10 bf b2 fe 49 3f 7f 77 af 3d
       -1.2201822 -0.5633342 0.7890426 0.08567714
000080 7d f5 25 3d 53 fa 84 be b6 02 92 bf 02 d8 e0 3c
       0.04051732 -0.25972232 -1.1407077 0.02744675
000090 9b 11 a4 3e 6a 61 13 3f 11 92 ab bf 57 8e cc be
       0.32044682 0.5757052 -1.3403951 -0.39952347
0000a0 00 08 25 3e b2 93 de 3c f5 b2 62 3e de e4 e4 3e
       0.16116333 0.027170036 0.22138579 0.44705862
0000b0 02 3e bb 3e c6 5d c9 be b6 49 10 40 d3 9f 9b bf
       0.36570746 -0.39329356 2.254499 -1.215815
0000c0 a8 07 48 3e 02 6c c7 bd ab e1 81 3f 4e 4a 97 3e
       0.1953417 -0.09737398 1.0146993 0.29548877
0000d0 7e e7 9d bf 62 45 49 3e 9a 36 de 3e e4 a0 ad 3d
       -1.2336271 0.19655374 0.43401033 0.08477953
0000e0 ea cc a3 3e 16 f8 52 3e 6a 63 6e bf 4f 77 c2 3c
       0.31992275 0.2060245 -0.93120444 0.023738531
0000f0 c3 e6 c4 bd 0e a3 65 bf 23 3a 93 39 c5 f5 09 3e
       -0.09614327 -0.89701927 0.0002808134 0.1347266
000100 de f0 75 be 61 a8 74 be df 7a 94 bf 8d d8 5f 3e
       -0.24017665 -0.23892356 -1.1599997 0.21859951
000110 29 ce 2b 3d 2b ab 01 bf be f7 39 3d d6 f6 58 3e
       0.041944657 -0.50651807 0.04540228 0.2118791
000120 2a 9d 2f bf 53 7a 3e bf 48 bc 31 bf db e7 c8 3c
       -0.6859919 -0.744054 -0.6942792 0.02452462
000130 79 b3 bf be 8f eb 9c 3e 0b f5 24 bd f6 77 1d 3f
       -0.37441614 0.30648467 -0.040272754 0.6151117
000140 4c 1d 3d be 91 28 21 bf f4 14 89 3e bb 7e 07 be
       -0.18468207 -0.62952524 0.26773798 -0.13231938
000150 67 1a 36 bf 00 44 19 bf 3b 9a 80 3d 1e 9a ba bb
       -0.71134037 -0.59869385 0.06279417 -0.0056946417
000160 23 d3 83 bd 85 1c da be 8c 86 03 bf 74 a2 dc be
       -0.064367555 -0.42599884 -0.5137718 -0.43092692
000170 4c 61 3c 3d 31 a7 f8 3e 54 b3 84 bf 96 47 14 be
       0.045991227 0.48565057 -1.0367227 -0.14480433
000180 67 18 16 bf b7 37 ab b9 88 4b 86 3d 99 22 12 3f
       -0.58630985 -0.00032657172 0.06557375 0.5708404
000190 18 16 c8 3e b7 0a 39 3e bb 1f 51 3e 09 3b 66 be
       0.39079356 0.18070494 0.2042226 -0.22483458
0001a0 c5 75 c7 be 21 09 34 3f 8c 94 14 bd d2 88 b0 be
       -0.3895704 0.7032643 -0.036274478 -0.34479386
0001b0 5d 55 85 3e 5e 9b 72 3e c4 62 76 bf 32 2c 9b 3d
       0.2604169 0.2369208 -0.96244454 0.07576789
0001c0 70 ad 53 3e 75 59 bd bd ec 3f a9 be 5d 70 90 3d
       0.2067163 -0.09245578 -0.3305658 0.070526816
0001d0 86 79 78 3e 18 55 37 3e 76 2a e6 be c4 05 06 bd
       0.24265108 0.17903554 -0.4495427 -0.032720342
0001e0 fa 02 68 3e d6 53 db 3e 27 12 ae 3d 75 f4 89 bf
       0.22657385 0.428374 0.08499556 -1.0777727
0001f0 e0 0c df 3d ef 00 fd 3e da 0c 5d 3e 48 84 9e 3e
       0.108911276 0.49414775 0.21586934 0.30960298
000200 b7 ea 05 be 8a 3d 6a 3d a3 75 1d 3d fd a8 10 3d
       -0.13077818 0.057187594 0.038442265 0.03531741
000210 88 e1 9b bc fe b6 6f 3d b6 d7 12 3e 17 01 94 be
       -0.01902844 0.058524124 0.143401 -0.2890708
000220 41 37 8d bc 33 27 46 3d 15 c1 2b bf d0 c5 9d 3c
       -0.017238261 0.048377227 -0.67091495 0.019259363
000230 03 f8 5f 3e 61 63 9b 3e 36 78 4d be a9 d1 f5 3b
       0.21871953 0.30349258 -0.20065388 0.0075018
000240 98 73 f2 3d 6a 3c e4 3d 46 dd 34 be da 74 70 3e
       0.11838454 0.111443356 -0.17662534 0.23482075
000250 f6 9c da bc ac 9f b3 3e 0f 66 e0 be 42 f4 97 bd
       -0.026686173 0.35082757 -0.43827865 -0.07419635
000260 8e 3b 2b bf 12 ce e5 bd 92 87 94 be 04 0b 11 be
       -0.6688775 -0.112209454 -0.29009682 -0.14164358
000270 8a 9d e8 bd 44 d0 3c bf a5 bf 2c 3e bf 68 62 be
       -0.11358173 -0.7375529 0.16869982 -0.2211027
000280 04 d3 90 bc fa a4 a1 be 26 98 76 bd 75 23 03 3e
       -0.017678745 -0.3157118 -0.060203694 0.12806495
000290 1d 32 9c be 13 07 08 be 44 e7 e2 3e 83 09 02 be
       -0.30506983 -0.13283949 0.44317067 -0.12698941
0002a0 58 14 4f be 78 75 b1 3e fe 0e 2c be e7 3d 59 3e
       -0.20222604 0.34659934 -0.16802594 0.2121502
0002b0 43 38 8d 3e 9d 28 b5 bd 8b e2 94 3d 52 f7 73 bf
       0.27581987 -0.08845637 0.07269772 -0.95299256
0002c0 1e 04 e2 3e e2 34 a1 3d 53 63 40 3f ae fa d0 be
       0.44143766 0.07871415 0.75151557 -0.40816253
0002d0 64 0f 1f be aa ca 3d 3f a3 f5 80 3e c1 02 bd 3d
       -0.15533215 0.74137366 0.25187406 0.09229041
0002e0 9b 2c 87 3e 53 68 88 be f7 71 39 3e ea 2e 11 bf
       0.2640122 -0.26642093 0.1810988 -0.5671221
0002f0 c1 a2 27 bf 44 78 5b 3e de a7 e1 3d 98 be cc 3b
       -0.6548272 0.21432596 0.11018346 0.0062483065
000300 10 1e 08 3e 19 f0 9e 3d 0d d3 cd 3d a6 8e d5 3d
       0.13292718 0.07760639 0.1005002 0.10427599
000310 22 50 00 be bb 47 b3 3d aa 69 05 3e a4 d6 ad 3e
       -0.12530568 0.08753916 0.13028589 0.3395282
000320 a3 1d 34 bf 6f f9 07 be 66 5a 51 3d 5f 0e 29 be
       -0.7035772 -0.13278745 0.0511116 -0.16509388
000330 6e c7 b6 be 0e 6f 93 3e a0 87 33 bf 14 a3 24 3f
       -0.35699028 0.28795666 -0.7012882 0.6431134
000340 97 34 30 be cc 07 a4 3e f4 cb ec bd 0a b3 a5 be
       -0.17207561 0.320372 -0.115623385 -0.32363158
000350 c5 f2 1d bf f0 d9 b6 bf 99 13 54 3c 89 ca 60 3e
       -0.6169856 -1.4285259 0.012944126 0.21952261
000360 e0 c5 1c bc d2 29 28 bf 8b 20 04 3f 65 e1 1d 3d
       -0.009568661 -0.6568881 0.51612157 0.03854503
000370 99 b8 2e bf fb 1c 8c 3e f2 01 8a be ae 63 ef bd
       -0.68250424 0.2736586 -0.2695461 -0.11688934
000380 44 d4 56 be 1d 54 03 be 17 3c 94 3d 31 33 df 3d
       -0.2097941 -0.12825055 0.07238024 0.10898436
000390 2b 97 f6 be 6b 54 c7 bc 09 e7 00 3e 86 b0 ea bd
       -0.48162207 -0.024332246 0.12588133 -0.114594504
0003a0 3e da 42 bf d7 fa 53 3e d9 56 14 3f 90 22 d1 3e
       -0.7611426 0.20701157 0.5794502 0.40846682
0003b0 a6 be 82 3f 04 f5 10 3e 99 c5 13 be 53 cc cd be
       1.0214431 0.14155966 -0.14430846 -0.4019495
0003c0 a5 2f d9 be 52 44 60 3d e8 cb 14 3f 32 a0 8a 3f
       -0.42419162 0.054752655 0.58123636 1.0830138
0003d0 e9 a7 cc bd db 04 17 bf d6 0d 72 bf 46 68 53 bf
       -0.09992964 -0.58991784 -0.9455236 -0.82580984
0003e0 8f dc dd 3e 93 04 22 3d 4c 9c 1e be 22 bc 07 3f
       0.43332335 0.039555144 -0.1548931 0.5302144
0003f0 34 e1 f3 be 25 d2 d7 3d 67 69 00 3f 92 01 ba be
       -0.47632754 0.10538129 0.5016083 -0.36329323

node_gat1.att_dst f4 [1, 4, 64]
000000 57 15 28 bf 1e 76 2e 3d 96 39 90 3e 91 17 64 3f
       -0.6565756 0.042593114 0.28168935 0.8909846
000010 b9 f6 91 3e af e0 36 be cd 67 4c be 41 6b c6 3e
       0.28508547 -0.17859147 -0.19961472 0.38753703
000020 53 fa a1 be 53 7b af 3d c3 bd 88 3d ed b6 81 3d
       -0.31636295 0.08568444 0.06676819 0.063337184
000030 05 8b 4c be 2f 17 2a 3f be 65 d1 3c 67 15 61 3e
       -0.19974907 0.66441625 0.02556121 0.2198082
000040 5d d1 cc 3e 64 05 60 be fc 02 d2 3e d9 9c a2 3e
       0.40003482 -0.21877056 0.41017902 0.3176029
000050 32 b1 d4 3e 99 aa 0c bf 1a 95 03 3f 86 7d 5a 3d
       0.4154144 -0.5494781 0.51399386 0.053342365
000060 0d 30 c5 be 60 8c 32 bc 64 35 ce 3d 6f 6b b5 bb
       -0.38513222 -0.010897726 0.10068777 -0.0055364887
000070 27 a2 31 3e 20 4e 9a 3e 57 89 ca bd 4d 30 cf 3e
       0.17347012 0.3013773 -0.09889477 0.40466538
000080 93 26 a1 3d f1 17 e0 bd c4 2c f5 3c 5c 6d c5 3e
       0.078686856 -0.109420665 0.029928572 0.38559997
000090 ef ff b3 be 36 90 dc be c3 9d 83 3d 61 46 69 be
       -0.351562 -0.43078774 0.06426575 -0.22780754
0000a0 1e 22 14 bc 75 2a 8a 3d a9 e4 27 3c 9a 73 33 bf
       -0.009041337 0.06746379 0.010247388 -0.7009827
0000b0 48 a2 30 be 62 53 18 3f 9b b1 ac be 91 ea ee 3d
       -0.17249405 0.5950223 -0.33729252 0.11665834
0000c0 71 b7 51 3e 0c 2a 8d 3d 01 e1 38 be 4f f1 ac be
       0.20480134 0.068927854 -0.18054582 -0.33777854
0000d0 ca 91 8c 3e 33 68 a1 be 9f 2f 02 be cc 69 15 bf
       0.27454978 -0.3152481 -0.12713479 -0.5836456
0000e0 ff d3 39 bf 94 0f ad 3e e7 74 f9 3d 3f 1b 16 3f
       -0.72589105 0.33800948 0.121805005 0.58635324
0000f0 0e 85 34 be bd 35 1e 3f 06 a3 e3 3e 35 3c 22 3f
       -0.17628881 0.6180075 0.44460315 0.6337312
000100 a9 f5 f0 bd 94 97 dd bd 7c 73 90 3e 04 ca 44 be
       -0.11765606 -0.10819927 0.28213108 -0.19217688
000110 49 25 e9 be 7f 77 39 bf 62 50 b1 be b0 3d eb be
       -0.4553626 -0.7244796 -0.3463164 -0.459455
000120 50 3b ac bc 41 bd 35 3f e9 4e 39 3d 39 9b ba 3e
       -0.021024376 0.70991904 0.04524127 0.3644655
000130 57 78 13 3f 50 a6 b8 3c 55 4f 0f 3e fe a1 14 be
       0.576055 0.022540241 0.13995107 -0.1451492
000140 aa 47 47 be 4e ca 11 bf 8e 6d 52 be 77 6e a0 3e
       -0.19460931 -0.5694932 -0.20549604 0.31334278
000150 72 c0 b9 3e ba b5 0b bf 05 07 83 be 78 f2 a3 be
       0.36279637 -0.5457417 -0.25591293 -0.32020926
000160 04 da af 3e d4 09 b9 be 35 68 54 bf 53 77 8d bf
       0.3434602 -0.3614031 -0.8297151 -1.105204
000170 f5 ac 14 3e b0 11 42 be 01 1a 3d 3e 84 a6 17 3e
       0.14519103 -0.1895206 0.18466951 0.14809614
000180 23 e3 33 3e 87 ed 43 bf 77 79 87 bd 1e dd a2 3d
       0.17567115 -0.7653431 -0.066149645 0.07952331
000190 e8 35 a9 be 69 92 b7 3e 94 f8 90 be 2e 11 10 bf
       -0.3304894 0.3585389 -0.2831465 -0.56276214
0001a0 aa ff 9b bd 2f c3 75 be 03 8b 7d be 99 7c 4f bd
       -0.076171234 -0.24000238 -0.2476006 -0.050655935
0001b0 ae 3a 60 3e 7f 9d d6 3d a4 47 44 3f d8 2e cb bd
       0.21897385 0.10479259 0.76671815 -0.09921044
0001c0 6f 04 c8 3e 98 a7 df 3d 9a d3 06 3f d8 c4 08 3e
       0.39065883 0.10920638 0.5266663 0.1335634
0001d0 67 62 5a bc 88 e0 fb 3c 23 6d 0b 3f df a6 cf 3d
       -0.013329125 0.030746713 0.54463404 0.1013925
0001e0 8d 99 aa be fb 7a f9 be 46 56 83 3d 50 fa 7c 3e
       -0.33320275 -0.4872664 0.0641294 0.24704862
0001f0 a3 50 d9 3e 33 e6 3e be c9 a5 b6 3e 7c 54 f0 3c
       0.42444333 -0.18642502 0.3567336 0.02933716
000200 a3 e5 04 bd e8 de 57 bc cf ea 7c be 36 65 fb 3e
       -0.03244556 -0.013175704 -0.24698947 0.49100655
000210 4a 22 e4 be 56 4d 1c 3f cb d5 8d bf b7 15 98 3f
       -0.4455741 0.61055505 -1.108087 1.1881627
000220 ae c7 0a 3f 48 e6 21 3f 47 23 51 be 3f 85 85 3f
       0.5421094 0.63242006 -0.20423613 1.0431288
000230 f5 c2 30 bd 2d 69 54 3e 08 80 f5 3e 2a b3 47 3f
       -0.043154676 0.20743246 0.47949243 0.7800776
000240 f8 ea 97 3e 42 2d 0b be a5 b0 8d be 5c 6c 90 bf
       0.29671454 -0.13591483 -0.27673832 -1.1283069
000250 30 ee 13 bf e6 b1 ec 3e cb 35 70 be 76 f4 b2 3e
       -0.5778532 0.46229476 -0.2345802 0.34952134
000260 62 6c 17 3f 08 80 12 3e 6a 99 03 3f b9 c8 22 3e
       0.59149754 0.14306653 0.51405966 0.15896882
000270 02 0b 7d 3b ad 72 bc 3d 1c bd ee bd b2 0e c5 bf
       0.0038611297 0.0920156 -0.116571635 -1.539511
000280 f1 86 38 3d 0e a4 54 3e 88 57 b4 3f 15 3b 8c be
       0.045050565 0.20765707 1.4089212 -0.27388826
000290 be 92 0c bf 80 52 73 3f 21 23 ba be 25 c6 62 3f
       -0.5491141 0.9504776 -0.36354926 0.88583595
0002a0 9b a1 cd 3d 32 71 20 bf 7e b4 08 3e f5 7b 2c bf
       0.100405894 -0.6267272 0.13350102 -0.67376643
0002b0 da 46 2c bf 89 d7 2f bf af 1c a3 3e 4c c0 05 bf
       -0.6729561 -0.68688256 0.3185782 -0.52246547
0002c0 cc c8 3a be 99 c7 57 3e d7 7f 9f be 58 d7 7a bf
       -0.1824066 0.21072234 -0.31152222 -0.9798484
0002d0 08 4b 13 3d 3b f4 1a bf 10 90 8b 3e c6 a1 c4 bd
       0.035960227 -0.60528916 0.27258348 -0.09601168
0002e0 e5 fc 59 be 33 bb 1e bf c1 2a 24 bf 16 a2 9b 3e
       -0.21287878 -0.62004393 -0.6412774 0.303971
0002f0 4c ec 17 be 5f 4e 52 bd 3c 21 98 bf d9 e6 35 3f
       -0.14836234 -0.05134427 -1.1885142 0.7105537
000300 73 08 b8 be 50 f5 31 3f a3 ea 28 be 44 45 1c bf
       -0.35943946 0.6951494 -0.16495757 -0.6104319
000310 46 36 2b bf ff 06 f4 be 6a 3e 42 be 89 98 60 be
       -0.6687969 -0.47661588 -0.18969122 -0.21933188
000320 f5 20 81 3e 88 2c 62 3f a4 76 7e 3e b5 a3 9b bf
       0.25220457 0.883492 0.24849945 -1.2159334
000330 1d 60 6f 3f e0 cf 45 3f 97 4b c0 3e cb b2 1d bf
       0.9350603 0.7727032 0.3755767 -0.6160094
000340 ea a5 49 3e d6 e0 6f bd 7d 38 64 bc d9 03 b2 3e
       0.19692197 -0.05856403 -0.0139294835 0.3476856
000350 b0 0a 2c 3f 7c 85 8a 3f 50 6b 9d bf c0 c3 35 3f
       0.6720381 1.0821986 -1.2298374 0.71001816
000360 4f 38 65 bf ca 84 96 3f 98 d6 cf be d3 8c 3a bf
       -0.89539045 1.1759274 -0.4059341 -0.7287113
000370 5f 0d b0 3e ce ca 69 3f c2 f2 3d bf df fd f1 3d
       0.343852 0.9132508 -0.74198544 0.11816
000380 4e 76 5b 3f 2a b0 5c be 31 96 b8 bd 1e 5b 81 bf
       0.85727394 -0.21551576 -0.09013022 -1.0105932
000390 ce 97 01 3f 19 09 50 3e ec c2 c2 3e d2 4b 48 be
       0.5062226 0.2031597 0.3803934 -0.19560173
0003a0 66 7a da 3e 60 e3 2b 3f 86 45 37 bf 14 b7 92 bd
       0.42671508 0.6714382 -0.7159046 -0.07163826
0003b0 0e 23 6c bf a4 67 91 be 46 44 26 bf ed 94 8a 3e
       -0.9224099 -0.28399384 -0.64947927 0.27066746
0003c0 58 a3 d2 3e bd 2c f1 3d 4d ff 59 bf f3 2b 0e bf
       0.41140246 0.11776111 -0.85155183 -0.5553581
0003d0 1e 32 23 be 40 0d 8c 3f b6 fd c3 3e 36 1e 72 3f
       -0.15937087 1.0941544 0.38279504 0.9457735
0003e0 3a 63 93 3e 8e 8a 1b 3f 8a 31 f9 be ea 58 26 be
       0.2878664 0.6075829 -0.48670608 -0.16244856
0003f0 cc d1 9e 3f f7 77 be bd f3 a6 d4 be fb 05 eb be
       1.2407775 -0.09300225 -0.41533622 -0.45903

node_gat1.bias f4 [256]
000000 02 ab de be c4 a3 e8 3e f8 e1 b5 be cc dc 75 bf
       -0.43489844 0.45437443 -0.35523963 -0.96040034
000010 83 f7 ce bd 7a 15 86 bc de 50 45 3e 23 3f a4 bf
       -0.10105803 -0.016367663 0.1926913 -1.2831768
000020 5c de f6 bf 9f a4 06 bf 17 33 03 bf 65 59 03 c0
       -1.9286609 -0.5259494 -0.5124983 -2.0523312
000030 7c e1 87 bf 77 83 b3 3e 8e bf 33 3f c2 9b 8e 3e
       -1.0615687 0.35061237 0.70214164 0.2785321
000040 40 69 b5 be 96 9d 29 bf b4 27 1e bf 2a 3f 8a bf
       -0.35431862 -0.6625608 -0.6177933 -1.0800526
000050 d3 df 6e 3d 6d 70 13 c0 07 99 59 bf ec 7a 02 bf
       0.058318924 -2.303737 -0.84999126 -0.50968814
000060 93 30 ee bf 44 cf db be a0 a9 43 bf f1 de 95 bf
       -1.8608574 -0.4293157 -0.764307 -1.1708661
000070 db f7 9b be 7a 26 e5 be 1e ea 8d bf d2 41 bb 3e
       -0.30462536 -0.44755918 -1.1087072 0.36573654
000080 80 29 5e bf 94 85 86 be 01 db 9a be 5f f0 4c bf
       -0.86782074 -0.26273787 -0.30245212 -0.8005428
000090 ea db 7c bf 42 cc ed 3e ce d7 59 bf b6 44 4d bf
       -0.9877306 0.464449 -0.85094917 -0.8018297
0000a0 24 4c 07 c0 d7 ee 8b bf 7a 4e bb bf 54 db 45 3f
       -2.1140223 -1.0932263 -1.4633324 0.77287793
0000b0 84 7b 28 bf b2 9f a0 be bd c7 b2 bf 82 e8 02 bf
       -0.6581347 -0.31371838 -1.3967205 -0.5113603
0000c0 36 89 0c c0 2e 16 f1 be d6 ff 91 bf b8 fb 7c be
       -2.1958747 -0.47087234 -1.14062 -0.24705398
0000d0 8e bb b1 bf 5b 2f da be b4 74 64 bf 1a 69 1b 3f
       -1.3885362 -0.42614254 -0.89240575 0.6070725
0000e0 8b 01 86 3e 51 17 55 bd 12 0b 32 bf 4c 2c 21 bf
       0.26173052 -0.05202419 -0.6954814 -0.62958217
0000f0 b4 66 21 bf 0a 2a 87 bf 10 3e ea be 74 f3 bc bf
       -0.6304734 -1.0559704 -0.45750475 -1.4761796
000100 e6 4c 07 3f 3f 15 75 be 79 5d c5 3d eb c1 5b 3e
       0.5285171 -0.23933886 0.09636969 0.21460693
000110 e7 46 49 bf 23 48 ce 3e fd 08 24 bf 9c e2 fe bd
       -0.78623813 0.4028941 -0.64076215 -0.12445566
000120 e6 98 e6 be 8a 99 05 3f 01 81 96 3f 44 aa a4 bf
       -0.45038527 0.52187407 1.1758119 -1.2864461
000130 6b 5b 5e bf 54 aa 3e bf b6 0a 85 be 5c e5 50 bf
       -0.8685824 -0.7447865 -0.25984734 -0.81599975
000140 0e 27 8c bc 20 4b 9d be ce fa 41 3e c1 48 36 bf
       -0.017108466 -0.30721378 0.1894333 -0.71204764
000150 f6 fb 02 3e a4 2b 5a bf 6b 91 92 bf fe 66 80 bf
       0.12791428 -0.8522284 -1.1450628 -1.0031431
000160 6e dd 47 bd c3 6f 3e bf b7 68 d0 bd b3 4b 22 bf
       -0.048795156 -0.74389285 -0.10176223 -0.6339676
000170 9a 17 fe be 45 55 3d 3e 65 22 08 3f a4 c4 2f bf
       -0.49627382 0.18489559 0.5317748 -0.68659425
000180 57 4b 40 bf 1f 58 41 bf 99 b9 fd 3e ee 41 7a bf
       -0.7511496 -0.7552509 0.49555662 -0.9775685
000190 7c e0 8f bf 97 ec 21 bf 17 3b 3e 3f 9f 0c f4 bb
       -1.1240382 -0.6325163 0.74308914 -0.0074477936
0001a0 73 3a c0 be 4f 14 f3 3a c8 38 4d bd b0 2c 86 be
       -0.37544593 0.0018545481 -0.05010298 -0.2620597
0001b0 d1 2b a9 bf 2c b2 3a be a8 d0 b9 3e 7b 4a 08 bf
       -1.3216497 -0.1823203 0.36292005 -0.5323865
0001c0 c5 d9 1c be 19 f9 d0 be 9c 3d 16 3e 7a 9d 19 bd
       -0.15317447 -0.40815046 0.1467194 -0.037503697
0001d0 ff 0e f3 3e 4b 33 57 bf 2b 30 8e bd 2d 40 93 be
       0.4747238 -0.8406264 -0.06942781 -0.287599
0001e0 1c 68 52 bf 4d a3 9b bf e3 68 ba bf ef f8 a2 bf
       -0.8219011 -1.215921 -1.4563259 -1.2732219
0001f0 2d 75 8a bf 51 7d b3 3e c5 2e 9d be 10 c0 64 bf
       -1.0817009 0.35056546 -0.30699745 -0.89355564
000200 7d 80 1a bf 6d c7 5f 3d 79 3b e0 bd 13 5b 8e bf
       -0.6035231 0.054633547 -0.109488435 -1.1121544
000210 d5 09 06 3e a1 f6 13 3e 5f 9c f1 3e 07 9b 32 bf
       0.13089688 0.1444955 0.47189614 -0.697678
000220 c7 de 91 bf 18 a8 6c bf 4a 8f ab be df fa b0 be
       -1.1396111 -0.9244399 -0.33507758 -0.345664
000230 45 9a 87 be 81 be 3b bf 6d 71 bb bf d3 09 41 3e
       -0.26484886 -0.7333756 -1.464399 0.18851404
000240 6e fe 37 bf ae ef 9a bf ad 6a 18 bf 35 89 5d 3f
       -0.71872604 -1.2104394 -0.59537774 0.86537486
000250 0c 23 a5 bf cb fb 0f be b3 25 e7 be f4 aa b7 be
       -1.290132 -0.14060895 -0.4514595 -0.35872614
000260 c9 32 30 be c7 d1 21 be 4f dd 07 3d 2c 4d 07 bf
       -0.17206873 -0.1580268 0.03317004 -0.5285213
000270 8f 12 c3 be 67 2c 17 bf 39 19 0f 3e 5c 82 d7 be
       -0.38100097 -0.5905213 0.13974465 -0.42091644
000280 c5 8a 4b bf 01 01 e9 bd 3e 4e 19 bf f0 c6 81 bf
       -0.7950862 -0.113771446 -0.59885013 -1.0138836
000290 dd e5 b7 3d b0 2b d0 3c 34 e4 66 be 44 ea 39 bf
       0.0897939 0.025411457 -0.2254799 -0.72623086
0002a0 cd a1 db 3e 21 fe 9c bf 2e 93 f1 be a8 f2 94 bf
       0.42896882 -1.2265054 -0.47182602 -1.1636553
0002b0 29 d9 9d bf 3c 6e 61 bf ec fa b4 be a6 10 62 bf
       -1.2331897 -0.8805883 -0.35347688 -0.88306653
0002c0 f0 eb d9 3d 79 43 59 bf 54 9e 36 bf 67 7c 4b 3f
       0.10640705 -0.8486858 -0.7133534 0.794867
0002d0 f0 50 8f bf 61 34 7b bf 91 be e5 be 8f 59 a7 be
       -1.1196575 -0.981268 -0.44871953 -0.32685515
0002e0 9a 7f 9b bf 01 87 d2 be e3 0b 1f 3d c4 51 54 3e
       -1.2148316 -0.41118625 0.038829695 0.20734316
0002f0 be 4f a9 be 88 12 18 bf 42 ad ba 3e 82 4a 43 bf
       -0.3306865 -0.59403276 0.3646031 -0.76285565
000300 98 5e 6e bf f1 db 5e bf 3c cf 46 3d 20 08 62 3e
       -0.9311309 -0.87054354 0.048537478 0.22073412
000310 88 56 d8 3e 98 00 26 bf 79 68 84 bf 08 66 e1 bf
       0.42253518 -0.64844656 -1.0344383 -1.7609262
000320 34 6a f3 3e 48 9c a8 bf e9 6f e0 be 72 9f 07 3f
       0.47541964 -1.3172693 -0.4383538 0.5297767
000330 c3 dd 54 bf 3b 71 a4 bf 0e 74 ae 3e 6c 87 bc bf
       -0.8315088 -1.2847055 0.34072918 -1.4728827
000340 42 91 0f be 98 a3 bd bf d3 c9 3c bf 89 56 86 be
       -0.14020255 -1.481555 -0.7374546 -0.26237896
000350 79 ad a4 be 8a 41 63 bf 3e 50 8c bf 59 08 71 bf
       -0.321636 -0.8877188 -1.0961988 -0.9415336
000360 b4 73 0b be de 0f 1e 3f 30 63 53 bf 4c 36 3d bf
       -0.13618356 0.6174296 -0.82573223 -0.73910975
000370 a8 14 9c 3d 86 52 4d bf 18 98 1c bf 91 d2 8b be
       0.07621127 -0.80204046 -0.61169577 -0.27309087
000380 fd e3 2b 3e 0a 19 6f bf 69 84 7c be a1 ce 1b bf
       0.1678619 -0.9339758 -0.24659885 -0.60862166
000390 90 bd 0a 3e 55 84 b9 be fb 2f 3d bf 64 d4 d3 3e
       0.13548875 -0.36233774 -0.7390134 0.4137298
0003a0 98 9b 23 bf 83 3b 96 bf 59 bc 9c bf 2d 12 93 bf
       -0.6390929 -1.1736912 -1.2244979 -1.1489922
0003b0 50 6d d4 bf 55 39 29 bf 4e b5 16 bf 38 16 1e be
       -1.659586 -0.66103107 -0.588704 -0.15438163
0003c0 bf a4 c9 3e 7b 94 54 bf 9f 8e d0 bf 34 98 34 bf
       0.39383504 -0.83039063 -1.6293525 -0.70544744
0003d0 be f9 9a be 6e cc e6 be db ea 6a bf e3 84 82 bf
       -0.30268663 -0.45077842 -0.9176461 -1.0196804
0003e0 77 f8 21 3e 29 b8 78 be 4e 04 46 3e e0 0a 0e 3f
       0.15817438 -0.24289002 0.1933758 0.55485344
0003f0 89 a4 c4 3e 6b 19 06 be b9 15 78 3e 17 64 d4 3e
       0.3840678 -0.13095634 0.24227037 0.41482612

node_gat1.lin_src.weight f4 [256, 6]
000000 91 f1 da bd 2e ad c5 3f ae c4 73 3f 69 87 3c be
       -0.106906064 1.5443475 0.95221984 -0.1841103
000010 e7 21 68 3e 68 0f 0a 3e f7 ea 2b be c3 15 1b 40
       0.22669183 0.1348244 -0.1678885 2.4232032
000020 9b 94 0a bf 90 d3 de 3d 98 ef e1 be 2a 8e 22 3e
       -0.54133004 0.10880196 -0.44128108 0.15874544
000030 6f 62 dc 3e 15 c3 7f bf cb d0 cf be 45 0b 12 bf
       0.4304385 -0.99907047 -0.40588984 -0.57048446
000040 67 16 e9 3e c9 ae c7 3e 52 43 16 3e 54 bd 1f 3e
       0.45524904 0.39000538 0.14674118 0.15599567
000050 03 37 24 bf b0 8f fb be eb 88 9d be e0 fb 0f bf
       -0.6414644 -0.49133062 -0.30768523 -0.56243706
000060 d0 a0 1e be dd 7e e2 3c 17 ac 8a 3d 36 64 77 bf
       -0.15491033 0.027648384 0.06771105 -0.96637285
000070 8a 0a 30 bf 55 2e 31 bf 58 95 a1 bf 0b d4 ec be
       -0.6876608 -0.6921132 -1.2623701 -0.46255526
000080 98 40 73 3f fe 94 ab 3e 78 31 03 c0 b4 d9 15 be
       0.9502044 0.3351211 -2.0498943 -0.14633828
000090 ee 0f ab 3d b0 4f 85 3e b2 7b 9a 3f 1c db 06 be
       0.08352648 0.2603736 1.2068999 -0.13169521
0000a0 d8 04 8a 3f e6 5f 32 3e 24 86 34 3e d6 43 01 bd
       1.0782728 0.17419395 0.17629296 -0.031558834
0000b0 6a 32 a2 be 63 51 f6 be 85 74 57 be 1c 80 2f bf
       -0.31679088 -0.48108968 -0.21040542 -0.68554854
0000c0 1c 75 8d 3f f3 e6 2e bd b2 10 a2 3e 28 0c c2 3e
       1.1051364 -0.04270072 0.31653363 0.378999
0000d0 37 27 1e 3f 47 e2 52 3d 72 96 c4 be 00 9d 4b c0
       0.6177859 0.051485326 -0.3839603 -3.1814575
0000e0 e1 a4 09 3c 6a 03 40 3d f0 ba 6a 3f 6b e0 32 bd
       0.008401127 0.046878256 0.91691494 -0.043671053
0000f0 7d 29 e1 be ca 30 c7 3e 39 b5 49 3f 8a 6a 08 3e
       -0.43976966 0.3890441 0.7879215 0.13321891
000100 f7 48 44 3f f9 f5 bb be 82 48 90 3e 46 13 3e be
       0.76673836 -0.367111 0.2818032 -0.1856204
000110 ab 87 63 3e 7d 24 3e 3f 18 2a c0 be 16 66 bd bd
       0.22219722 0.74274427 -0.37532115 -0.09247987
000120 36 66 8e 3d cd 2c 19 3f 35 94 e3 3e ed 5e fa 3e
       0.06953089 0.59833986 0.4444901 0.48900548
000130 d0 61 b5 3e ef 3d fb 3f 98 77 13 3f 78 a9 f9 be
       0.35426188 1.9628276 0.5760436 -0.48762107
000140 d3 8e c8 bc a2 f2 84 bd b1 e9 98 bf 38 4e 91 be
       -0.024482166 -0.06491591 -1.1946317 -0.2837999
000150 3b 29 8c be 38 16 2c 40 3b 9b bc 3e ed 35 be 3d
       -0.27375206 2.6888561 0.3683718 0.09287629
000160 30 1a 7d bd 36 d7 b0 3d 03 80 fd 3b 62 82 86 3c
       -0.061792552 0.08634798 0.0077362075 0.016419593
000170 3e e7 88 bd fc 71 48 bf 7f 3a 54 bf 03 de 33 bf
       -0.06684731 -0.78298926 -0.8290176 -0.7026064
000180 fd 8a 58 be c3 dd 92 be 93 0c 0d bd 4a 9a 1e bf
       -0.2114677 -0.28684816 -0.03443582 -0.61954176
000190 18 f1 8b bf 0c 5e fd be 8a cc f0 3e ed c8 09 3f
       -1.0932951 -0.49485815 0.4703105 0.53822213
0001a0 f0 81 7f 3e b7 58 ee 3e 1b e8 01 3e 8f b9 e2 3f
       0.24951911 0.4655206 0.12686197 1.7712878
0001b0 ac 0d 3b bc 9e 7a 09 bf d0 31 07 3f bf ec 83 be
       -0.011416834 -0.53702724 0.5281038 -0.2576656
0001c0 6d 14 98 3f ba 18 86 be 18 4e 95 3f b7 62 63 bf
       1.1881233 -0.2619074 1.1664457 -0.888225
0001d0 6f 63 a6 be 11 0c 35 be a5 b9 a7 bf ba f7 02 3e
       -0.32497737 -0.17680384 -1.3103529 0.12789813
0001e0 9f e3 9d 3e ef fa 50 bf 99 e1 cf 3e ec 61 2a bf
       0.30837724 -0.81632894 0.40601805 -0.66555667
0001f0 5b 0f 00 bf 4a 3f 76 be fa 92 80 be 21 14 21 3f
       -0.5002343 -0.2404758 -0.25112134 0.6292134
000200 74 a6 e9 3e b5 4a 6e 3e 76 ce cc bd 4a 77 03 40
       0.45634806 0.23270686 -0.10000317 2.0541558
000210 57 22 ab 3e 25 f9 11 bf 83 8d d3 3e 23 d3 f7 be
       0.33424637 -0.5702079 0.41318902 -0.48403272
000220 b0 2e 0e bd 99 63 aa be 11 4a 25 3e e7 4c 13 3f
       -0.034712493 -0.33279112 0.16141535 0.5753922
000230 63 8b f7 3e 1c da d2 be c8 8f 68 3e 6a b5 1a be
       0.4834853 -0.4118203 0.22711098 -0.15108266
000240 03 b5 6d 3f 52 a1 ac bd 9b 85 a0 be 79 6a 5b be
       0.92854327 -0.08429207 -0.31351933 -0.21427335
000250 77 50 14 3e 28 41 ae be 7e d0 04 3f a5 ce 01 3f
       0.1448382 -0.34034085 0.51880634 0.5070594
000260 6b 4d 57 3f 6f c3 dc be 2b 81 c9 3e f4 e2 02 3e
       0.84102505 -0.43117854 0.3935636 0.12781888
000270 bc f7 1c bf 83 a5 e2 3e dd e0 25 be 50 68 ed 3e
       -0.6131551 0.442669 -0.1619906 0.46368647
000280 70 e9 5e 3e aa 5d 3c bf cc de 69 be 10 0e 9c bf
       0.21768737 -0.7358042 -0.22838897 -1.2191792
000290 ef 45 49 bd af 59 09 bc c4 44 99 3f 66 47 0c bd
       -0.04913896 -0.008383199 1.1974111 -0.03424778
0002a0 92 af 86 3e d6 be 4a 3d ce de 4b 3f ce a1 ce bd
       0.26305825 0.0494984 0.7963685 -0.100894555
0002b0 ab cb 8d bb 87 f6 b1 bf 46 be 7f 3e 92 17 66 3e
       -0.0043272576 -1.3903359 0.24974927 0.22469929
0002c0 57 47 6f 3f 96 a8 74 bc da 3b 8f be 80 6b 7b bf
       0.9346823 -0.014932772 -0.2797535 -0.98210907
0002d0 6a 9a b1 3f da f8 5f 3e f1 8b 6d 3e b7 04 8d 3d
       1.3875248 0.21872273 0.23197915 0.06885665
0002e0 21 e8 c9 3c 53 7a 95 3f 8f 64 d8 bc 41 3e 37 40
       0.02464682 1.1677955 -0.026415138 2.8631747
0002f0 19 3c 9d be 2b 93 db 3d 25 b6 c6 bd 27 4b 14 3e
       -0.30709913 0.107214294 -0.0970271 0.14481793
000300 5a 0e 15 3e b4 bd 37 be 79 3d aa 3d 67 43 58 bd
       0.14556256 -0.1794346 0.08312506 -0.052798655
000310 59 ca c5 bd 93 45 75 be 41 1c e3 3d 5a 3b 74 bf
       -0.096577354 -0.23952322 0.110893734 -0.95403063
000320 bc fc e3 3e 08 8e ad 3e 5c 88 57 3e 3f 3a 7d bf
       0.4452876 0.33897424 0.2104811 -0.98917
000330 57 5a 94 3e 8c 24 f9 3d 72 d7 39 3f 5e ed 27 bd
       0.28975174 0.12165174 0.7259437 -0.040997855
000340 8d 19 c2 bd 00 d2 ca bf af cf b1 3e de 47 80 3e
       -0.0947753 -1.5845337 0.34728763 0.2505483
000350 74 15 f9 3e 41 30 8b be 5c 7a 06 bf d5 1f de 3d
       0.4864918 -0.27185252 -0.52530456 0.10845915
000360 4e 08 55 bf 1c b8 91 bf 54 21 4e bf ef 6c 92 3e
       -0.83215797 -1.1384311 -0.80519605 0.28598735
000370 ef 38 c4 bd b3 64 76 3e a4 e3 8a bf 97 94 d3 3f
       -0.09581172 0.24061851 -1.085072 1.6529721
000380 6f 3b 1d 3f 8b e1 1a be 2c 37 02 bf 47 2f 0d 3e
       0.61418813 -0.151251 -0.50865436 0.13787566
000390 41 4f ca 3e 4e bb 40 bf 4a d6 26 3f 99 a2 db 3d
       0.3951359 -0.75285804 0.6517073 0.107243724
0003a0 ef 04 6d be 0d 4d 9e bf e9 4e ec bd 62 de 57 bf
       -0.23146413 -1.2367264 -0.115384884 -0.84323704
0003b0 b1 64 8c 3c aa 1c c3 3e 7f 88 d9 bd ed 57 0e bf
       0.017137857 0.38107806 -0.10621738 -0.55602914
0003c0 55 4e 83 3f 84 16 66 bd 38 a8 d0 bd 27 b0 e5 3e
       1.025828 -0.056173816 -0.10188335 0.44860956
0003d0 b0 67 05 3f df d9 29 3e 7b fe 88 3e 49 f6 01 bf
       0.5211134 0.16587017 0.26756653 -0.50766426
0003e0 42 f6 d5 3c 50 14 1c 3f fc 4f 44 c0 10 f7 f8 bd
       0.026118401 0.60968494 -3.0673819 -0.121564984
0003f0 84 50 4d be d6 1a 34 3e 6f c2 aa 3d 88 b2 43 3f
       -0.20050246 0.17588362 0.083378665 0.7644429

node_gat1.lin_dst.weight f4 [256, 6]
000000 91 f1 da bd 2e ad c5 3f ae c4 73 3f 69 87 3c be
       -0.106906064 1.5443475 0.95221984 -0.1841103
000010 e7 21 68 3e 68 0f 0a 3e f7 ea 2b be c3 15 1b 40
       0.22669183 0.1348244 -0.1678885 2.4232032
000020 9b 94 0a bf 90 d3 de 3d 98 ef e1 be 2a 8e 22 3e
       -0.54133004 0.10880196 -0.44128108 0.15874544
000030 6f 62 dc 3e 15 c3 7f bf cb d0 cf be 45 0b 12 bf
       0.4304385 -0.99907047 -0.40588984 -0.57048446
000040 67 16 e9 3e c9 ae c7 3e 52 43 16 3e 54 bd 1f 3e
       0.45524904 0.39000538 0.14674118 0.15599567
000050 03 37 24 bf b0 8f fb be eb 88 9d be e0 fb 0f bf
       -0.6414644 -0.49133062 -0.30768523 -0.56243706
000060 d0 a0 1e be dd 7e e2 3c 17 ac 8a 3d 36 64 77 bf
       -0.15491033 0.027648384 0.06771105 -0.96637285
000070 8a 0a 30 bf 55 2e 31 bf 58 95 a1 bf 0b d4 ec be
       -0.6876608 -0.6921132 -1.2623701 -0.46255526
000080 98 40 73 3f fe 94 ab 3e 78 31 03 c0 b4 d9 15 be
       0.9502044 0.3351211 -2.0498943 -0.14633828
000090 ee 0f ab 3d b0 4f 85 3e b2 7b 9a 3f 1c db 06 be
       0.08352648 0.2603736 1.2068999 -0.13169521
0000a0 d8 04 8a 3f e6 5f 32 3e 24 86 34 3e d6 43 01 bd
       1.0782728 0.17419395 0.17629296 -0.031558834
0000b0 6a 32 a2 be 63 51 f6 be 85 74 57 be 1c 80 2f bf
       -0.31679088 -0.48108968 -0.21040542 -0.68554854
0000c0 1c 75 8d 3f f3 e6 2e bd b2 10 a2 3e 28 0c c2 3e
       1.1051364 -0.04270072 0.31653363 0.378999
0000d0 37 27 1e 3f 47 e2 52 3d 72 96 c4 be 00 9d 4b c0
       0.6177859 0.051485326 -0.3839603 -3.1814575
0000e0 e1 a4 09 3c 6a 03 40 3d f0 ba 6a 3f 6b e0 32 bd
       0.008401127 0.046878256 0.91691494 -0.043671053
0000f0 7d 29 e1 be ca 30 c7 3e 39 b5 49 3f 8a 6a 08 3e
       -0.43976966 0.3890441 0.7879215 0.13321891
000100 f7 48 44 3f f9 f5 bb be 82 48 90 3e 46 13 3e be
       0.76673836 -0.367111 0.2818032 -0.1856204
000110 ab 87 63 3e 7d 24 3e 3f 18 2a c0 be 16 66 bd bd
       0.22219722 0.74274427 -0.37532115 -0.09247987
000120 36 66 8e 3d cd 2c 19 3f 35 94 e3 3e ed 5e fa 3e
       0.06953089 0.59833986 0.4444901 0.48900548
000130 d0 61 b5 3e ef 3d fb 3f 98 77 13 3f 78 a9 f9 be
       0.35426188 1.9628276 0.5760436 -0.48762107
000140 d3 8e c8 bc a2 f2 84 bd b1 e9 98 bf 38 4e 91 be
       -0.024482166 -0.06491591 -1.1946317 -0.2837999
000150 3b 29 8c be 38 16 2c 40 3b 9b bc 3e ed 35 be 3d
       -0.27375206 2.6888561 0.3683718 0.09287629
000160 30 1a 7d bd 36 d7 b0 3d 03 80 fd 3b 62 82 86 3c
       -0.061792552 0.08634798 0.0077362075 0.016419593
000170 3e e7 88 bd fc 71 48 bf 7f 3a 54 bf 03 de 33 bf
       -0.06684731 -0.78298926 -0.8290176 -0.7026064
000180 fd 8a 58 be c3 dd 92 be 93 0c 0d bd 4a 9a 1e bf
       -0.2114677 -0.28684816 -0.03443582 -0.61954176
000190 18 f1 8b bf 0c 5e fd be 8a cc f0 3e ed c8 09 3f
       -1.0932951 -0.49485815 0.4703105 0.53822213
0001a0 f0 81 7f 3e b7 58 ee 3e 1b e8 01 3e 8f b9 e2 3f
       0.24951911 0.4655206 0.12686197 1.7712878
0001b0 ac 0d 3b bc 9e 7a 09 bf d0 31 07 3f bf ec 83 be
       -0.011416834 -0.53702724 0.5281038 -0.2576656
0001c0 6d 14 98 3f ba 18 86 be 18 4e 95 3f b7 62 63 bf
       1.1881233 -0.2619074 1.1664457 -0.888225
0001d0 6f 63 a6 be 11 0c 35 be a5 b9 a7 bf ba f7 02 3e
       -0.32497737 -0.17680384 -1.3103529 0.12789813
0001e0 9f e3 9d 3e ef fa 50 bf 99 e1 cf 3e ec 61 2a bf
       0.30837724 -0.81632894 0.40601805 -0.66555667
0001f0 5b 0f 00 bf 4a 3f 76 be fa 92 80 be 21 14 21 3f
       -0.5002343 -0.2404758 -0.25112134 0.6292134
000200 74 a6 e9 3e b5 4a 6e 3e 76 ce cc bd 4a 77 03 40
       0.45634806 0.23270686 -0.10000317 2.0541558
000210 57 22 ab 3e 25 f9 11 bf 83 8d d3 3e 23 d3 f7 be
       0.33424637 -0.5702079 0.41318902 -0.48403272
000220 b0 2e 0e bd 99 63 aa be 11 4a 25 3e e7 4c 13 3f
       -0.034712493 -0.33279112 0.16141535 0.5753922
000230 63 8b f7 3e 1c da d2 be c8 8f 68 3e 6a b5 1a be
       0.4834853 -0.4118203 0.22711098 -0.15108266
000240 03 b5 6d 3f 52 a1 ac bd 9b 85 a0 be 79 6a 5b be
       0.92854327 -0.08429207 -0.31351933 -0.21427335
000250 77 50 14 3e 28 41 ae be 7e d0 04 3f a5 ce 01 3f
       0.1448382 -0.34034085 0.51880634 0.5070594
000260 6b 4d 57 3f 6f c3 dc be 2b 81 c9 3e f4 e2 02 3e
       0.84102505 -0.43117854 0.3935636 0.12781888
000270 bc f7 1c bf 83 a5 e2 3e dd e0 25 be 50 68 ed 3e
       -0.6131551 0.442669 -0.1619906 0.46368647
000280 70 e9 5e 3e aa 5d 3c bf cc de 69 be 10 0e 9c bf
       0.21768737 -0.7358042 -0.22838897 -1.2191792
000290 ef 45 49 bd af 59 09 bc c4 44 99 3f 66 47 0c bd
       -0.04913896 -0.008383199 1.1974111 -0.03424778
0002a0 92 af 86 3e d6 be 4a 3d ce de 4b 3f ce a1 ce bd
       0.26305825 0.0494984 0.7963685 -0.100894555
0002b0 ab cb 8d bb 87 f6 b1 bf 46 be 7f 3e 92 17 66 3e
       -0.0043272576 -1.3903359 0.24974927 0.22469929
0002c0 57 47 6f 3f 96 a8 74 bc da 3b 8f be 80 6b 7b bf
       0.9346823 -0.014932772 -0.2797535 -0.98210907
0002d0 6a 9a b1 3f da f8 5f 3e f1 8b 6d 3e b7 04 8d 3d
       1.3875248 0.21872273 0.23197915 0.06885665
0002e0 21 e8 c9 3c 53 7a 95 3f 8f 64 d8 bc 41 3e 37 40
       0.02464682 1.1677955 -0.026415138 2.8631747
0002f0 19 3c 9d be 2b 93 db 3d 25 b6 c6 bd 27 4b 14 3e
       -0.30709913 0.107214294 -0.0970271 0.14481793
000300 5a 0e 15 3e b4 bd 37 be 79 3d aa 3d 67 43 58 bd
       0.14556256 -0.1794346 0.08312506 -0.052798655
000310 59 ca c5 bd 93 45 75 be 41 1c e3 3d 5a 3b 74 bf
       -0.096577354 -0.23952322 0.110893734 -0.95403063
000320 bc fc e3 3e 08 8e ad 3e 5c 88 57 3e 3f 3a 7d bf
       0.4452876 0.33897424 0.2104811 -0.98917
000330 57 5a 94 3e 8c 24 f9 3d 72 d7 39 3f 5e ed 27 bd
       0.28975174 0.12165174 0.7259437 -0.040997855
000340 8d 19 c2 bd 00 d2 ca bf af cf b1 3e de 47 80 3e
       -0.0947753 -1.5845337 0.34728763 0.2505483
000350 74 15 f9 3e 41 30 8b be 5c 7a 06 bf d5 1f de 3d
       0.4864918 -0.27185252 -0.52530456 0.10845915
000360 4e 08 55 bf 1c b8 91 bf 54 21 4e bf ef 6c 92 3e
       -0.83215797 -1.1384311 -0.80519605 0.28598735
000370 ef 38 c4 bd b3 64 76 3e a4 e3 8a bf 97 94 d3 3f
       -0.09581172 0.24061851 -1.085072 1.6529721
000380 6f 3b 1d 3f 8b e1 1a be 2c 37 02 bf 47 2f 0d 3e
       0.61418813 -0.151251 -0.50865436 0.13787566
000390 41 4f ca 3e 4e bb 40 bf 4a d6 26 3f 99 a2 db 3d
       0.3951359 -0.75285804 0.6517073 0.107243724
0003a0 ef 04 6d be 0d 4d 9e bf e9 4e ec bd 62 de 57 bf
       -0.23146413 -1.2367264 -0.115384884 -0.84323704
0003b0 b1 64 8c 3c aa 1c c3 3e 7f 88 d9 bd ed 57 0e bf
       0.017137857 0.38107806 -0.10621738 -0.55602914
0003c0 55 4e 83 3f 84 16 66 bd 38 a8 d0 bd 27 b0 e5 3e
       1.025828 -0.056173816 -0.10188335 0.44860956
0003d0 b0 67 05 3f df d9 29 3e 7b fe 88 3e 49 f6 01 bf
       0.5211134 0.16587017 0.26756653 -0.50766426
0003e0 42 f6 d5 3c 50 14 1c 3f fc 4f 44 c0 10 f7 f8 bd
       0.026118401 0.60968494 -3.0673819 -0.121564984
0003f0 84 50 4d be d6 1a 34 3e 6f c2 aa 3d 88 b2 43 3f
       -0.20050246 0.17588362 0.083378665 0.7644429

node_gat2.att_src f4 [1, 4, 64]
000000 2e 3a 8c 3e 41 cc 0d 3f c4 7f 71 bd fb cc c2 3d
       0.27388138 0.5538979 -0.058959737 0.09511753
000010 e8 ad 8b 3e 98 50 7d bc b0 8d b9 3e 67 66 4c 3c
       0.27281117 -0.01546111 0.3624091 0.0124755865
000020 06 ab 13 3e 7f d6 4e 3d 57 f8 cc 3e 77 09 11 be
       0.14420709 0.05049753 0.40033218 -0.14163767
000030 2d 35 75 be 30 b5 0c bf 13 54 c0 3f 05 0a ee be
       -0.23946066 -0.5496397 1.5025657 -0.4649202
000040 a3 5c cd 3f af ba 99 be 45 72 60 3f c5 94 3d 3f
       1.6043895 -0.3002524 0.8767436 0.7405513
000050 d8 2b 38 be 78 85 cf be f2 a1 c0 be 04 d1 03 3e
       -0.17985475 -0.40531516 -0.37623554 0.12872702
000060 1f ea c5 3d a2 a4 74 3e b2 36 74 be 86 51 85 3f
       0.09663796 0.23890927 -0.2384899 1.0415504
000070 9d a7 29 3f 56 8c 15 3f 6a 3d ff 3d 20 fa 57 3e
       0.6627138 0.5841726 0.12462886 0.21091509
000080 67 25 f6 bd ed a8 1d 3c 2d 8b c7 bd f9 48 8a bd
       -0.12018853 0.009622795 -0.097433425 -0.067522
000090 09 a6 05 3c 4d 73 29 3e b2 10 76 3e c7 14 0f bd
       0.008157262 0.1654789 0.24029806 -0.034931924
0000a0 16 ab b7 be 1d 91 1d 3e 78 a8 ff bd d4 14 86 be
       -0.35872716 0.15387388 -0.12483305 -0.26187766
0000b0 3f d8 b1 be 09 2b 13 3e 0d c1 ff 3e c7 ec b3 be
       -0.34735295 0.14371885 0.49951974 -0.35141584
0000c0 b5 64 0a 3f 3b 4a b8 3e 46 5c 64 3e 84 83 c6 3d
       0.54059917 0.35994133 0.22300825 0.09693053
0000d0 9e 6a 92 3e 35 d5 08 be 7c ed 9a 3d db fd 6a 3e
       0.28596967 -0.13362582 0.07564828 0.229484
0000e0 24 70 8d 3f be 00 78 3f 4a 1d 0b 3f 41 af 7f 3f
       1.1049848 0.9687613 0.54341567 0.9987679
0000f0 72 f0 bc 3e 32 f0 72 3e 94 0d 5f 3e 67 38 64 3f
       0.36902195 0.2372444 0.21782523 0.89148563
000100 95 59 c3 3e 2b 2d de 3e cf 9f be 3d c0 f4 2a 3d
       0.38154283 0.43393835 0.09307825 0.041737318
000110 bf de 8a 3e 9f bc 4a 3e 4a c9 ff 3d cf c3 0c 3e
       0.27123067 0.19798516 0.12489565 0.1374657
000120 da 22 2e be 5c 19 2b be a6 0b a5 bd 12 eb 10 be
       -0.17005482 -0.16708893 -0.080588624 -0.14152172
000130 40 b1 d0 3d b6 e3 97 3d 76 d4 c6 3e 00 69 7d 3e
       0.10190058 0.07416479 0.3883397 0.24747086
000140 6c 98 b9 bf e0 de c8 be 92 cb 2c bf 55 d8 18 bf
       -1.449964 -0.3923254 -0.67498124 -0.59705096
000150 54 cb ce be ac 3b df bf d3 a1 f8 be b4 b4 a7 bf
       -0.40389502 -1.7440085 -0.48560962 -1.3102021
000160 5c 05 be 3e d7 1f 71 3d fb 0f d2 bd 77 21 e2 3d
       0.37113464 0.058868255 -0.10256954 0.11041539
000170 12 cf b2 3e 97 94 a3 3d d8 a4 48 3e 5e 86 4b 3f
       0.34923607 0.07987326 0.19594133 0.79501903
000180 cb 17 66 3d 88 f8 0f bd 94 34 6e be 4b fd 18 be
       0.056175034 -0.035149127 -0.23262244 -0.14940374
000190 5d f6 4c be 3b 74 d5 be 7f 68 49 3f 29 21 e6 3c
       -0.20015855 -0.4169024 0.78675073 0.028091984
0001a0 56 64 50 be fa d8 0d be 5a 2e 45 be f4 ac c1 bd
       -0.20350775 -0.13852301 -0.19255963 -0.09456816
0001b0 31 b4 9b bf ef 83 84 bf 00 58 81 bf ec 87 4d 3e
       -1.2164365 -1.0352763 -1.010498 0.20071381
0001c0 ee c1 2e be 65 cc 98 3e 94 81 32 bc 88 f8 34 3e
       -0.17066166 0.2984344 -0.010895152 0.17672932
0001d0 8c 1a c6 3e 49 e2 7f be 02 a9 97 be e0 3b 55 3e
       0.3869213 -0.24988665 -0.2962113 0.20823622
0001e0 00 a7 0d be cd 6d 23 3f 86 d6 8e be 89 c4 b9 bd
       -0.13833237 0.6383942 -0.27898043 -0.09070689
0001f0 ea f5 37 3f bd ea 9c 3e 6b 98 72 3e 9e 38 a1 3e
       0.7185961 0.3064784 0.23690955 0.31488508
000200 af 77 8e be 7a 0c 98 be 0e 1c a3 be 7d 5b 9e be
       -0.27825686 -0.2969702 -0.31857342 -0.30929175
000210 79 f9 4e 3e 2e 0f 49 3e b7 59 92 bf fd 0d 37 3e
       0.20212354 0.19634697 -1.1433629 0.1787643
000220 8d 6f 38 be e0 62 2d be b2 fe 0b 3e e0 20 2c be
       -0.18011303 -0.16932249 0.13671377 -0.16809416
000230 d5 22 5f 3e 94 1b a9 3f de db 6b 3f ec e4 8a 3f
       0.21790631 1.3211541 0.92132366 1.0851111
000240 a8 29 84 bf d4 9b 4d be f7 9b 46 bd b0 6f b2 bc
       -1.0325212 -0.20078975 -0.048488583 -0.021781772
000250 f5 3e 08 bd 2c 8b 12 be f6 18 e8 3d ec e6 d5 3e
       -0.033263166 -0.14310902 0.11332886 0.41777742
000260 5f 8f ac 3f 72 b7 49 3f 27 02 8f 3e 49 c6 97 3f
       1.3481253 0.7879554 0.2793133 1.1857387
000270 56 ac f9 bd b8 e0 81 bc 47 1c 8b bc 91 90 df bd
       -0.121910736 -0.015854225 -0.016981257 -0.10916246
000280 00 e1 b5 3d bd 73 b2 bd 56 fb 2b be d2 08 15 3e
       0.08880806 -0.087134816 -0.16795096 0.14554146
000290 3d 02 6e bd 08 69 43 3f 38 35 53 bd b2 d8 eb 3c
       -0.058107603 0.7633214 -0.051564425 0.028789852
0002a0 fb b8 2c bc 18 59 ce 3e df 58 c6 3e 5c 9b b3 3e
       -0.01054215 0.40302348 0.38739678 0.35079467
0002b0 8b 7f ac 3e c9 4f b7 3e f3 62 cb 3e 8b 87 89 3e
       0.33691058 0.3580306 0.3972393 0.26861224
0002c0 9f af 87 be a8 5a a9 bc 37 9e 34 bc 82 e3 b4 bd
       -0.26501176 -0.020673111 -0.0110240495 -0.08832456
0002d0 f0 71 e3 3e b1 95 ce 3e 55 65 b7 3e 57 d8 73 3e
       0.44422865 0.4034858 0.35819498 0.23812996
0002e0 79 53 ef bd bb 75 a1 3e 75 e9 0b bc 2c 01 d5 bd
       -0.11685843 0.31535134 -0.008539547 -0.10400614
0002f0 da b9 c4 3d e1 b8 3d be 12 90 9b 3d 6c d5 88 bc
       0.09605761 -0.18527557 0.075958386 -0.01670333
000300 2e 04 a3 3e 8f 30 4a 3e 69 61 1e 3e d3 f9 2d 3e
       0.31839126 0.19745086 0.15466847 0.16989832
000310 ca c5 6d 3f f2 68 48 3f eb 6c 81 3f 4c 32 85 3f
       0.9287993 0.78285134 1.0111364 1.0405974
000320 91 f0 17 bb 04 e7 e9 3c e0 f9 84 bc b8 e2 83 bd
       -0.002318416 0.02855254 -0.016232431 -0.064397275
000330 df 9b 97 3d e5 e9 e9 3d 00 73 70 bc 2c 84 95 3d
       0.07402777 0.11421565 -0.014675856 0.073006004
000340 0d ea ca 3e 60 9b 0d 3d 5b 8b ba 3e 92 82 38 3e
       0.39631692 0.034572005 0.36434445 0.18018559
000350 ab 46 3f be 8e 71 3c bf 0d 34 df bd 3b 2b 94 bd
       -0.18679301 -0.7361077 -0.108986 -0.07234808
000360 b1 e2 64 3e 02 d1 ae bc 9d fe 38 3e e4 6f b7 3d
       0.22352101 -0.021339897 0.18065877 0.08956888
000370 dd 7d cb 3d 17 f3 e8 bb 3d 36 92 be 57 0c fe 3d
       0.09936116 -0.0071090567 -0.28557006 0.124046974
000380 83 f8 93 3e 0c c1 4e 3e 23 dd 7d 3e d3 60 8e 3e
       0.28900537 0.20190829 0.24791388 0.27808246
000390 a8 b9 02 3c 5d c8 90 3c bc 21 b9 bd 89 7b a9 bb
       0.007978834 0.017673666 -0.090396374 -0.0051721972
0003a0 5f 7e e2 3d 72 0b 76 3c f0 e4 56 bd e8 7d 07 3d
       0.110592596 0.015017377 -0.052464426 0.033079058
0003b0 77 7d 23 3e cb ca 70 3f 8e 1d 3a 3f 1d ed b5 3d
       0.1596583 0.9405944 0.72701347 0.088831164
0003c0 d6 8d c1 bd 46 79 55 bd 18 12 78 be c2 0a 5e bd
       -0.09450881 -0.05211761 -0.24225652 -0.05420948
0003d0 f5 59 1e 3f 23 56 f0 3d 8f 9b fa 3e 32 c2 a4 3e
       0.61856014 0.11735179 0.48946807 0.3217941
0003e0 aa 5b 8b be b9 1a 46 bf 60 5a ca be 0f 81 d2 be
       -0.27218372 -0.77384526 -0.39522076 -0.4111409
0003f0 e7 4d 8f 3e c8 5b 8f 3e 0f 66 a2 3e c8 ca 84 3e
       0.27989122 0.2799971 0.3171849 0.2593596

node_gat2.att_dst f4 [1, 4, 64]
000000 40 24 c7 bd 81 c1 d4 be 20 55 6a be be 25 20 bf
       -0.09723711 -0.41553882 -0.22884035 -0.6255759
000010 68 b7 41 3f 9c 4e db 3e 89 60 aa 3e 87 ec 4d 3f
       0.7567048 0.42833412 0.33276775 0.8043904
000020 0d 29 dd 3f e6 4e df 3f 5a 7c 9d 3f d4 2e 9a 3f
       1.7278153 1.7445953 1.2303574 1.2045541
000030 e9 03 ea 3e 7f f4 3c 3f 9e 8f 20 bf cc 89 0c 3f
       0.45706108 0.7381057 -0.6271914 0.5489776
000040 11 da 80 bf dd e6 89 be a2 9b 0c bf 02 2c 1c be
       -1.0066549 -0.26933947 -0.54924977 -0.15251163
000050 63 59 a2 3e 28 46 03 3e de 20 e2 be 2a d1 92 be
       0.31708822 0.12819731 -0.441657 -0.28675205
000060 76 57 aa 3e ef a7 5e 3e 28 03 01 bf bc 87 44 be
       0.33269852 0.21743749 -0.5039544 -0.19192404
000070 6e 0d 4c bf a9 68 12 bf 58 f9 57 ba a1 c4 6d be
       -0.7970799 -0.5719095 -0.0008238754 -0.23219539
000080 31 27 3d 3f ca d5 72 3f 5f b3 14 3f 12 05 2f 3f
       0.73887926 0.94857466 0.580862 0.6836711
000090 a4 55 c5 3f 4c b7 69 3f 33 b8 86 3f 72 f7 b1 3f
       1.541676 0.91295314 1.0524963 1.3903639
0000a0 95 b4 37 bf 2d 93 ae be f6 06 43 bf ef 3d 1d bf
       -0.7175992 -0.3409666 -0.76182497 -0.6142263
0000b0 d5 9e ab 3c 92 9a 6e be d3 64 02 bf 99 e7 35 bd
       0.02094976 -0.23301151 -0.50935096 -0.04441032
0000c0 2c e3 4e 3a 49 80 98 be 95 da e6 3e ed 24 05 bb
       0.00078921276 -0.29785374 0.4508864 -0.00203162
0000d0 d1 06 53 3f f8 e2 73 3f 00 3e f6 3f 66 de 6c 3f
       0.82432276 0.952682 1.9237671 0.92526853
0000e0 73 3d 5c 3d 64 70 b1 bd 7f 4e 7b 3e b3 d7 e0 3e
       0.05376954 -0.08664015 0.24541663 0.43914565
0000f0 ae 14 66 bf 5a 35 ca bf 49 cf cc bf 29 d9 52 bf
       -0.89875305 -1.5797532 -1.6000758 -0.8236261
000100 c1 be 25 3f 3b 05 dd 3c a7 56 1a 3f 9f 55 c7 3e
       0.6474419 0.026980033 0.6028847 0.3893251
000110 d2 9a 6f be d8 2d 00 3e 1d 9e 55 3f 84 3d 2f 3e
       -0.23398903 0.12517488 0.83444387 0.1711331
000120 53 88 53 bd 17 b8 8d 3e 1e 22 00 be 8a 48 25 3d
       -0.05164368 0.27679512 -0.12513015 0.04035238
000130 7c 58 1c bf 69 92 61 bf ba ec 4a bf b6 73 72 bf
       -0.61072516 -0.8811403 -0.79267466 -0.9470781
000140 15 12 bd 3e 52 27 12 be 55 c8 2a 3e b0 b2 f6 3c
       0.36927858 -0.14272812 0.16677983 0.030114502
000150 61 23 05 bf d3 c0 28 3d 2e 72 2f 3d 54 2d 2a be
       -0.5200711 0.041199517 0.0428335 -0.16618854
000160 20 85 99 3e c4 0f 30 3f d8 16 33 3f 1a 64 8e 3e
       0.2998438 0.68774056 0.6995673 0.27810746
000170 c7 ec 39 3f d1 61 7a 3f 41 8c ef 3e c4 41 db 3d
       0.7262692 0.97805506 0.46786693 0.10705903
000180 67 24 17 3f 32 6e 36 3f 8d cd 51 3f 96 a0 ad 3e
       0.5903992 0.71261895 0.8195427 0.3391158
000190 42 90 a3 be fd 2e fc bd dc 3b 23 bf 34 7f 47 bf
       -0.31945997 -0.1231365 -0.63763213 -0.7792847
0001a0 49 8f ed be b2 54 1d bf 60 6f b1 be 0e a4 55 bf
       -0.4639838 -0.6145736 -0.34655285 -0.8345345
0001b0 af 72 20 3e 76 96 0a be 5e 0d 3a 3e 07 e7 11 bf
       0.15668748 -0.13533959 0.18169162 -0.56993145
0001c0 57 e4 dd be a4 9e b3 bf 44 d0 3a bf 45 c8 14 bf
       -0.43338272 -1.4032788 -0.7297404 -0.5811809
0001d0 c7 bb 29 bc 85 ca 02 3e 16 72 10 3d 3f 29 f4 be
       -0.010359711 0.12772568 0.03526505 -0.47687718
0001e0 f7 b1 36 3f 9b 7c 89 3e 12 58 10 3f 2b 84 e7 3e
       0.713653 0.2685288 0.56384385 0.45218024
0001f0 db bc 2e bf 2e 96 9b bf f4 12 71 bf 82 d5 c8 bf
       -0.6825692 -1.2155206 -0.94169545 -1.5690157
000200 f9 15 bc bf 91 3a d0 bf c5 ea 8e bf ad 85 56 bf
       -1.4694206 -1.6267873 -1.1165396 -0.83797723
000210 3f f0 06 c0 05 ca 02 c0 01 2c da 3e 36 fa b1 bf
       -2.1084135 -2.0435803 0.42611697 -1.3904483
000220 9f 3e 6c 3f bd 5c 40 3e c2 c8 5f be b7 09 a0 3f
       0.9228305 0.18785377 -0.21853927 1.2502965
000230 f7 ac 33 3f e3 96 6e bd 20 71 99 be 71 62 0b 3e
       0.701858 -0.058249366 -0.2996912 0.13611771
000240 14 0d 85 3f 91 9e 93 3f c1 5c f2 bd ef 10 20 bf
       1.0394616 1.1532766 -0.11834098 -0.6252584
000250 69 de 1a bf a5 d7 e5 3d a3 9c 86 bf d3 bc 83 bf
       -0.6049562 0.112227716 -1.0516552 -1.0292
000260 66 de b8 3d 67 13 82 bd dc 73 a4 3f 2e b0 1b be
       0.09026794 -0.06351357 1.2847857 -0.15203926
000270 77 d0 0d 3f aa 16 50 bf c1 1d 88 3e 3d 13 cc 3e
       0.5539622 -0.8128458 0.265852 0.39858428
000280 29 01 5e 3c a8 70 25 be 59 b3 ad 3c c4 41 88 bf
       0.013550081 -0.16156256 0.021203684 -1.064507
000290 43 8c 45 3f 3a ca 59 bf ec 2d 69 3f f9 2a 8b be
       0.7716715 -0.850742 0.91085696 -0.27181223
0002a0 e6 50 0f 3f 22 0e 30 bf 60 0a e2 be 19 0b 14 be
       0.55982816 -0.68771565 -0.4414854 -0.14457358
0002b0 59 5c 33 3d 18 34 6f bd 88 72 05 3e 49 ff cc 3e
       0.04378924 -0.05839929 0.13031971 0.40038517
0002c0 a5 2c 50 3e c6 ed bf bf bb d0 d8 bf 0f 24 50 bf
       0.2032953 -1.4994438 -1.69387 -0.8130502
0002d0 35 1c 13 3f 80 e4 37 3f 74 22 16 3f d9 8d e2 3f
       0.57464916 0.7183304 0.5864632 1.7699538
0002e0 76 10 cd 3e 1a 8c 0e bf 0b af d3 be db 05 8e 3d
       0.4005162 -0.5568253 -0.41344485 0.069347106
0002f0 0a ec 44 bf e9 56 2c 3d fb 31 51 bf 91 2a d9 bf
       -0.7692267 0.04207507 -0.8171689 -1.6966115
000300 9a 44 53 3f 68 e1 28 be e9 78 28 bd 42 76 17 bf
       0.8252655 -0.16492236 -0.041130934 -0.5916482
000310 af 7e ad be 42 af fa 3d 13 93 c7 be 90 ee 65 bf
       -0.33885714 0.12240459 -0.38979396 -0.8981714
000320 4f 27 7a bd 41 6b fb 3d 86 f3 31 be f0 03 03 bf
       -0.061072644 0.122763164 -0.17378053 -0.51177883
000330 35 56 fd 3e 1a c9 31 3e 43 c0 8c bd 31 d8 47 3f
       0.49479833 0.1736187 -0.068726085 0.78064257
000340 4f 48 ea bd a7 16 78 3f 9b 92 c8 3e 19 8d ae 3e
       -0.11439573 0.96909565 0.3917435 0.34092024
000350 57 ae 8f be 63 6c cf 3e 65 15 46 be d1 be 10 bf
       -0.28062698 0.4051238 -0.19344099 -0.5654116
000360 4f 69 dd bd 27 f0 6f 3d 3b 44 58 bf 9e 44 9d be
       -0.10811102 0.058578636 -0.8447911 -0.30716413
000370 63 97 c1 be 56 77 08 3e 2d 13 0b bc 22 df 00 bf
       -0.3781081 0.13326773 -0.008488459 -0.50340474
000380 57 d0 53 3f 6e ec f3 3f 02 7f bc 3f 54 11 4c 3f
       0.82739776 1.9056528 1.472626 0.7971394
000390 fe 3b 0c 3f 36 dc 81 3d e5 b6 0d 3f 2d ac 8f 3f
       0.5477904 0.0634083 0.553572 1.1224419
0003a0 ef 9b cb be 8d e2 ce 3f 92 46 f2 3f 0c c0 4c 3f
       -0.39767405 1.6162888 1.8927786 0.7998054
0003b0 53 ba 31 3f d2 3a d5 be f8 8d 82 bd a6 d2 26 3f
       0.69424933 -0.4164644 -0.06374735 0.65165174
0003c0 5d 02 cc be 01 8c 8b 3f 71 51 8e bf a7 fe 67 3e
       -0.39845553 1.0902101 -1.1118604 0.22655736
0003d0 bb 44 25 bc 21 58 19 3f c9 22 7b bf d2 9d 18 3f
       -0.010087187 0.599001 -0.9809995 0.59615815
0003e0 4f 49 4d 3f b9 48 b5 3f 61 5e 04 3f 59 de be 3f
       0.80189985 1.4162818 0.5170651 1.4911605
0003f0 83 70 a7 bf 4e 28 3b bf db eb 3d bf 5f 43 0b bf
       -1.3081211 -0.73108375 -0.7418801 -0.54399675
