src/scenario_eval_model/model_dir/improve_v3/gnn_binary_classification_model_1.pt (torch, 647634 bytes, 47 tensors)

node_gat1.att_src f4 [1, 4, 64]
000000 f4 b7 ee be ad f9 82 bf 50 97 72 3e 93 cb 91 bd
       -0.4662472 -1.0232445 0.23690534 -0.07118907
000010 6b 6f 8d be e2 ac 3c 3e 2c 54 2b bf 9e 36 ef bd
       -0.27624068 0.18425325 -0.6692531 -0.11680339
000020 4d 4a 4d 3a 4c 22 aa be d3 b5 be 3d 9f cc 56 bc
       0.0007831201 -0.3322929 0.09312024 -0.013110309
000030 0e 91 8f be bf a1 63 bf dc c3 0b 3f 1a 93 87 3e
       -0.28040355 -0.8891868 0.5459573 0.26479417
000040 80 c1 33 bf 8c dd a9 bd bd e5 ec 3e 48 a4 e7 be
       -0.7021713 -0.0829421 0.46269026 -0.45242524
000050 ff f5 19 be 8a bc 2b 3e 21 a4 6c bf a0 92 c4 be
       -0.15035246 0.1677114 -0.9243794 -0.38393116
000060 03 d8 0c bc 1c 45 f1 be ce 01 66 bd b4 ee 33 3e
       -0.008596423 -0.4712304 -0.056154065 0.17571527
000070 92 42 85 3e aa b7 85 bd 59 ab 81 bd cd dd 84 3e
       0.26027352 -0.06529172 -0.0633151 0.2595047
000080 37 27 12 3d d0 15 7c bf 74 3a 78 3d 4e e1 81 bd
       0.03568193 -0.98470783 0.06060262 -0.063418016
000090 33 47 b0 3e a1 c1 e1 3d 7c 29 95 be 72 aa 6c bf
       0.3442932 0.1102326 -0.29133213 -0.9244758
0000a0 90 df 87 3e b4 42 9d bd 2c 84 26 be 51 95 f4 bc
       0.26537752 -0.07678738 -0.16261357 -0.029856356
0000b0 09 f9 a1 bd cb 8a cf 3d 52 5d 68 3e 30 56 49 bf
       -0.07908828 0.101338945 0.22691849 -0.78647137
0000c0 d8 c1 d3 be 1e 76 48 bf 79 f4 77 be 5f 0b 2f be
       -0.4135883 -0.7830523 -0.24214353 -0.17094181
0000d0 f2 7b 19 bf 0b 2d e6 3e 59 2d 83 3e 68 89 68 bd
       -0.5995475 0.4495624 0.25620535 -0.056771666
0000e0 fc 31 fd 3e 54 5d be bf 56 84 76 3e d6 49 26 be
       0.49452198 -1.4872231 0.2407392 -0.16239104
0000f0 da 5a 48 3d f3 7b 16 3e 32 32 68 bf dc fa 9c be
       0.048914768 0.1469572 -0.9070159 -0.3066014
000100 5d d2 23 3e 24 7c fb 3c e7 07 de 3d b8 4e 0f 3b
       0.15998216 0.030698843 0.10841351 0.0021866988
000110 1a 5d 97 be f1 02 73 3e d4 b2 25 3f 5a 4d 2f 3e
       -0.29563218 0.23731591 0.64725995 0.17119351
000120 63 b2 92 3e 9a a7 42 3e b3 bb 65 3d af bd b3 3d
       0.28651723 0.19009247 0.056087207 0.08776414
000130 69 13 63 3d fc 41 4a bd 7a b5 94 bc d5 b2 b5 3d
       0.055438433 -0.049379334 -0.018152941 0.08872
000140 b0 a9 83 be 6f d0 f9 3d 0c 42 2f 3f bb 04 12 bf
       -0.257154 0.12197959 0.68460155 -0.5703847
000150 16 6b 21 be 97 b4 52 bb 3f a6 81 3d 57 87 d6 3e
       -0.15763506 -0.0032151097 0.06330537 0.4190013
000160 9c 23 15 be fc 4e 62 be d4 f1 34 3f 34 d9 17 3f
       -0.14564365 -0.22100443 0.706815 0.593158
000170 f2 5e bd be 20 f5 60 bd e6 ee db 3d d8 e4 5d bd
       -0.369865 -0.05492127 0.10738926 -0.05417332
000180 da e8 9d 3d b6 f5 c9 be 44 22 ad 3c 9f 5e 28 3f
       0.077104285 -0.39445275 0.021134503 0.6576938
000190 f1 bd ce be c8 62 46 3d 4b e4 ba bd a9 f7 29 3e
       -0.4037929 0.04843405 -0.09125575 0.16598381
0001a0 df 2c b9 3c 4d 66 26 3e 13 40 82 be 7e 6c a4 be
       0.022604404 0.16249962 -0.2543951 -0.32114023
0001b0 c6 2d a5 3d b5 0b 99 be 4e 29 86 3c 9c 25 da 3d
       0.08065371 -0.29891744 0.016377117 0.10651705
0001c0 ea c1 35 be 8d 7f fa bd 3c 76 0e 3e 3f 53 4b 3a
       -0.17749754 -0.1223136 0.1391229 0.000775624
0001d0 6f 73 91 3d 4b f5 2a 3e af d4 74 3d 88 3d 0a be
       0.07102095 0.16695134 0.059773143 -0.13500035
0001e0 d7 5e c7 3e be b2 a6 3a 37 18 b5 bd ca a1 a3 3e
       0.38939545 0.0012718064 -0.08842509 0.31959373
0001f0 6e 18 54 bf 73 40 67 3e b0 f1 1b bd 2a a1 30 3d
       -0.82849777 0.22583179 -0.038072288 0.043122448
000200 26 bd 24 3e 71 68 b9 3d 15 f5 3f 3d 22 0d 52 3e
       0.1608778 0.09053124 0.046864588 0.20512822
000210 9d c1 98 be d0 98 0c 3e e9 c0 f6 be bc 92 86 be
       -0.29835215 0.13730168 -0.48194054 -0.26283824
000220 57 55 31 bf 95 9d 6b be d3 f0 d5 3d 57 ec 23 3e
       -0.69270843 -0.23009332 0.10446324 0.16008125
000230 5c fb 79 3e 2b f3 fe 3d d9 01 5d be 2e 14 b2 be
       0.24412292 0.12448724 -0.21582736 -0.3478102
000240 fa 77 dc 3b 86 03 ec 3e a6 b1 1e 3e c1 13 09 be
       0.0067281695 0.46096438 0.15497455 -0.13386442
000250 01 45 4d bc a4 6f 4d bd 91 60 1a bd bc 5e c7 be
       -0.012528659 -0.050155297 -0.03768975 -0.38939464
000260 fc 04 70 3c f0 2f 72 be 8b ad e2 bd a3 fd 90 bd
       0.014649626 -0.23651099 -0.11068257 -0.07079627
000270 29 25 2a bf a4 30 a6 bd d7 99 80 3e 7a b7 bc bd
       -0.6646295 -0.08114746 0.2511737 -0.09214683
000280 56 ba 03 be ff b4 cf bd 06 ef 25 be ed f4 ef 3e
       -0.1286405 -0.10141944 -0.16204461 0.4686655
000290 62 cc 2c 3e 55 27 87 bd 2c 95 73 3e d4 2f 9c be
       0.16874841 -0.06599299 0.23787373 -0.3050524
0002a0 1e e0 85 3e f1 81 29 bd e3 b3 e2 3e 6c 03 2e be
       0.2614755 -0.041383687 0.44277868 -0.16993493
0002b0 09 79 22 be 10 db c0 be 07 ae 3f 3e 94 22 bb be
       -0.15866484 -0.3766713 0.1871873 -0.3654982
0002c0 16 df 4f bd e4 5f b5 3e a1 bd b1 bd f8 26 2b 3f
       -0.05074986 0.3542472 -0.08678747 0.66856337
0002d0 ea 80 2a be 69 c4 40 be e1 e8 01 3d 75 32 97 3e
       -0.1665074 -0.18824925 0.03171623 0.29530683
0002e0 b9 5a 3d 3f e4 d7 31 3e 03 3b ef bd a3 f1 ca be
       0.73966557 0.17367512 -0.116811775 -0.3963748
0002f0 ac ce 28 bf 78 55 ab be 19 e1 3c 3e af 78 05 be
       -0.65940356 -0.33463645 0.18445243 -0.13034318
000300 55 fc 33 3d 67 d2 0f be be 17 75 be b5 57 17 be
       0.043941814 -0.14045106 -0.23934838 -0.14779551
000310 e3 9b 8f be bb 55 a7 3e 8b 36 a2 bd ba 3c 39 be
       -0.2804862 0.32682595 -0.079205595 -0.18089572
000320 17 1c 77 3f 55 92 d6 be f9 31 74 3d e5 2d 0d 3e
       0.96527237 -0.41908517 0.05961797 0.13787039
000330 c5 99 fb be 67 ca 91 3e dd 6b 25 be c7 07 26 3e
       -0.49140754 0.28474733 -0.16154428 0.16213904
000340 73 5d 80 bf 24 f5 21 bf 80 6a 81 3f 9f 77 08 3f
       -1.0028518 -0.6326468 1.0110626 0.5330753
000350 d0 df 00 bf 6c 76 5b 3e bb a6 af bd d0 cf e2 bd
       -0.5034151 0.21431893 -0.08576723 -0.11074793
000360 98 fa d2 3f 48 b8 e4 be d2 15 a0 bc 07 0b a7 bd
       1.6482725 -0.44671845 -0.019541655 -0.081564
000370 ae d6 45 bf 82 92 18 bf 86 e8 88 bf 36 25 0d 3e
       -0.772807 -0.59598553 -1.069596 0.13783726
000380 9a 31 7c 3e 4e 16 1f bf a3 2b 22 bf 1f 32 0b bd
       0.24628296 -0.6214341 -0.63347834 -0.033983346
000390 64 24 ba be 83 3a b5 be 5b ad 80 bf 79 92 d7 bd
       -0.3635589 -0.35396203 -1.0052904 -0.10525984
0003a0 97 54 ca bf 3c 59 a4 be 91 f2 87 3f a1 92 45 bf
       -1.5807065 -0.3209933 1.06209 -0.7717686
0003b0 eb 25 d2 be 8d b6 25 bf 5a 5d ec be 54 41 17 ba
       -0.41044554 -0.64731675 -0.46164972 -0.00057699275
0003c0 f8 87 fb bd 63 00 e4 3d 93 09 d3 be 0b 25 8a 3e
       -0.12281793 0.11132886 -0.41218242 0.26981387
0003d0 0c 7d 1c 3f 81 3a 61 3d f2 f7 ab 3e 03 95 60 bf
       0.61128306 0.054987434 0.33587605 -0.87727374
0003e0 67 a0 2b be bc bd bb be 52 04 87 bd af 68 de 3d
       -0.16760407 -0.36668193 -0.06592621 0.108598106
0003f0 b7 46 35 3e 81 38 99 bd a7 28 bc 3b 2a 4c 2c bf
       0.17702757 -0.074814804 0.005742151 -0.6730372

node_gat1.att_dst f4 [1, 4, 64]
000000 97 2f 91 3d 5e 33 b9 bc 2a cf 35 bf 9d eb 8d be
       0.07089155 -0.022607502 -0.7101923 -0.2771882
000010 5d df aa 3e ad 4c 6f 3e 2f b8 53 3d c0 68 97 be
       0.33373538 0.23369093 0.051689323 -0.29572105
000020 19 9d 15 3a f4 73 b6 3d 83 87 f5 3e 66 88 b6 bc
       0.00057073083 0.08908835 0.4795495 -0.022281837
000030 eb 7f 93 be a3 fa 24 3e a9 64 8f be 73 1d 24 bf
       -0.2880853 0.16111235 -0.28006485 -0.64107436
000040 81 06 99 be ae e3 14 3e b8 7c 93 3f e2 47 57 bf
       -0.29887775 0.14539978 1.1522436 -0.8409406
000050 5e 2b c0 be a4 b3 45 be 69 d6 4a bf dc 8d e9 3d
       -0.37533087 -0.19306809 -0.79233414 0.11404011
000060 ab b5 92 be 3b d4 b6 be 57 44 cf be d3 6b 97 3e
       -0.28654227 -0.35708794 -0.40481827 0.2957445
000070 91 61 a2 3e 18 b6 43 3e e5 58 e5 be ef ce 4f 3e
       0.31715062 0.19112432 -0.44794384 0.20293783
000080 61 88 86 3e 81 b4 2a bf ef 3e b9 be 73 91 49 bd
       0.26275924 -0.6668168 -0.36180827 -0.049210977
000090 cc 8e 49 3f 8d 42 cc 3d 8e b9 5b bf 43 39 ff be
       0.78733516 0.09973631 -0.8583001 -0.49848375
0000a0 20 5d 87 3e 3c 09 17 bc 1d b8 a6 3e 18 f0 66 3e
       0.26438236 -0.00921851 0.32562342 0.22552526
0000b0 7d c4 92 be e3 b5 2c bf fe 96 30 be 0e f2 98 be
       -0.28665534 -0.6746504 -0.17245099 -0.29872173
0000c0 4c a7 d2 be 2a 26 1d bf bc 44 97 be 1d 77 bf bf
       -0.41143262 -0.6138636 -0.29544628 -1.4958225
0000d0 a7 8c d2 be fd de 02 3f dc 19 e0 3e e8 3c 3e bf
       -0.41122934 0.51121503 0.4376973 -0.74311686
0000e0 df b4 9a be 79 f9 90 bf 09 a8 04 bf 74 27 7f bf
       -0.3021612 -1.1326133 -0.518189 -0.99669576
0000f0 0c a4 ae 3e aa 7a bc bd c5 59 0e bf 6d e7 c8 be
       0.34109533 -0.09203084 -0.5560573 -0.39239064
000100 ac ef 19 3e 42 92 65 3e c4 19 ca 3d fd 09 46 3d
       0.15032834 0.22419074 0.09868196 0.04834937
000110 6c ff b3 3d 7a d6 88 bd c6 2f ea be b8 52 83 3e
       0.08788952 -0.06681533 -0.45739573 0.25649047
000120 3c 18 34 bd 9d db 80 3e 2a ed a9 3d 63 db 66 3e
       -0.043968424 0.25167552 0.082971886 0.22544627
000130 14 04 be 3e 9f 08 13 3e 02 47 87 be 43 0d 97 be
       0.37112486 0.14358757 -0.26421362 -0.29502305
000140 6c ee c9 be 31 31 c0 3d 6b 9a 27 3e 50 d6 47 3e
       -0.39439714 0.093843825 0.163675 0.19515347
000150 76 57 d0 be 30 38 0d be 75 17 10 bf b6 cd 2d be
       -0.40691727 -0.13790965 -0.5628579 -0.16973004
000160 4f 52 f3 3e 8d 34 54 3e 8d 77 08 bf 65 6e eb be
       0.47523734 0.20723172 -0.5330742 -0.45982662
000170 d6 ca 78 bf 1e 23 16 bf 5d 1a 3b 3f 07 f9 5a 3e
       -0.97184503 -0.58647335 0.730871 0.21384059
000180 0c 09 9b be 62 c2 4b bd be 9a e3 3e ca 32 a6 be
       -0.3028034 -0.049745925 0.44453996 -0.32460624
000190 e4 7a 61 3e 53 f5 54 bf e8 6f 55 3d f9 06 1a 3f
       0.22019535 -0.83186835 0.052108675 0.6016689
0001a0 96 32 a7 3b 2c 6d c4 be 18 c7 ed 3d f5 30 3d bf
       0.005102466 -0.38364542 0.1161024 -0.7390283
0001b0 c2 76 05 bf f0 50 2c bd c9 c6 3f 3f 0d 38 dc 3e
       -0.52134335 -0.042069376 0.749127 0.43011513
0001c0 14 64 67 be 8b 51 c6 bd ad 21 f3 3d e5 58 b6 3e
       -0.2259677 -0.09683522 0.118716575 0.35614696
0001d0 a5 8a 3d be 30 6a 82 be ce c4 0c 3d 0c 6d f1 39
       -0.1850992 -0.2547164 0.034367375 0.00046048348
0001e0 a5 b6 3e be bb 34 97 3e 00 92 02 3f 6f 75 22 3e
       -0.18624361 0.29532418 0.5100403 0.1586511
0001f0 23 7a b2 3d 36 00 4e bf 4b 8b cd 3e b3 39 1e bf
       0.08714702 -0.8046907 0.40145335 -0.6180679
000200 3b d9 33 bf 03 d3 4e 3f 6e 18 38 bf a5 d1 2f 3f
       -0.7025334 0.8079073 -0.71912277 0.6867927
000210 b5 47 84 bd 2c 7b db bf 89 2b e1 3d 17 44 8e 3f
       -0.064589895 -1.7146964 0.10994632 1.1114529
000220 02 92 ed 3e 4d bd 64 3f 5c 0c af 3e cb 0c cf be
       0.46400458 0.8935135 0.34189117 -0.40439448
000230 cc 66 59 3f 32 00 e7 be 36 1b 6b 3e d4 1d 73 3e
       0.8492248 -0.45117337 0.22959599 0.23741847
000240 8c 8e 15 3e 8c b7 a9 3f 4b 88 09 3f 5b 26 fe 3e
       0.14605159 1.3259139 0.5372359 0.49638638
000250 da 80 26 3f a0 45 40 3f 3a f8 cf 3e ac b6 d4 3e
       0.6504036 0.7510624 0.4061907 0.41545618
000260 50 42 5a bf 71 bb 8e 3e 8c b1 bb be fc ae 5f bf
       -0.85257435 0.2787738 -0.36658895 -0.8737638
000270 94 ac ca 3d df 8d 77 3e 3e b5 0e 3e 4b f8 89 3e
       0.09896198 0.24175213 0.13936326 0.26947245
000280 c9 0f 95 be 10 23 5a be 90 56 ae bd ff d4 23 3f
       -0.29113606 -0.21302438 -0.08512604 0.6399688
000290 fa bb 55 3f c7 7f ae 3d f4 f6 87 bf 47 97 76 3e
       0.83489954 0.08520465 -1.0622239 0.24081145
0002a0 5e 02 41 3f 1d ed 27 bf f4 e0 c2 bd 0d 09 3f 3f
       0.7539424 -0.6559618 -0.09515563 0.74623185
0002b0 d5 6f 84 bf 4d 3f 24 3e a2 7a 84 3e 3a 6d 53 3f
       -1.0346628 0.16039772 0.2587481 0.8258854
0002c0 13 3b 29 3f 6c 8a 84 bf fc b5 8c 3f 89 6f 0d bf
       0.66105765 -1.0354743 1.0993037 -0.55248314
0002d0 b6 22 84 bf d2 d9 ea 3e 4b 09 6b 3f 58 e3 60 bf
       -1.0323093 0.4586931 0.91811055 -0.878469
0002e0 ec 13 cb be dc 55 4c bf 0a 41 64 3f 7e a9 42 bf
       -0.39663637 -0.7981851 0.8916174 -0.76039875
0002f0 c4 e8 fa 3d f0 0a 14 3f 7e 06 dc bf d7 7b df bf
       0.12251428 0.5782919 -1.7189481 -1.7459668
000300 fa 79 0f bf fb 92 26 3f f2 9a a1 be 05 2b 4f 3f
       -0.56045496 0.65068024 -0.31563526 0.8092502
000310 70 9b 01 bf 24 35 40 be d2 10 fb bc a5 26 b2 be
       -0.50627804 -0.18770272 -0.030647669 -0.34795108
000320 78 86 da be d9 94 58 3f b6 e9 87 3e 82 2d 00 bf
       -0.42680717 0.84602123 0.26545495 -0.5006944
000330 02 51 fc 3e 6e ad 27 bf bb f0 b1 be 14 2e fd 3e
       0.49280554 -0.6549901 -0.34753975 0.49449217
000340 9b 59 63 3f 91 89 55 3f 6f a3 33 be 3a 0d 2d bf
       0.888086 0.83413035 -0.17542814 -0.6759831
000350 e3 c7 99 be 76 8b 83 bf 6a 8a c5 be 82 f9 ca 3e
       -0.30035314 -1.0276935 -0.38582164 0.39643484
000360 a0 9a be be 89 58 1d bf 0c e1 06 bf 8d 2c 26 3f
       -0.37227345 -0.6146322 -0.52687144 0.6491173
000370 6a 93 97 3f e1 28 3e be a0 b6 77 3e 3a 6e 48 bf
       1.1841862 -0.18570282 0.2419076 -0.7829319
000380 63 a3 eb be 12 d5 ff 3e 18 63 47 3f cc 19 0a bf
       -0.46023092 0.49967247 0.7788558 -0.5394561
000390 8f 5c 2a 3f d3 d8 17 be 3a 67 11 3d b0 1f 48 3f
       0.66547483 -0.14828806 0.035498835 0.7817335
0003a0 26 cd 9b 3f 27 3f 4e 3f 91 00 50 bf bb 6f c6 3d
       1.2171981 0.8056511 -0.81250864 0.0968928
0003b0 2e f7 2a 3f d9 3b b9 3d 67 5f 22 3f 1a a7 81 be
       0.66783416 0.09044618 0.6342682 -0.253228
0003c0 91 41 66 3f 00 56 93 be 53 e5 a2 be de 0a df be
       0.89943796 -0.2877655 -0.31815585 -0.43562979
0003d0 1e 66 42 bf 16 3c 10 bf e9 86 9d bf 32 0b c6 3e
       -0.7593707 -0.56341684 -1.2306796 0.38680416
0003e0 fd 0b 8b 3e cd 9b dd bd cc 39 a7 bf 37 4a e6 be
       0.27157584 -0.10820732 -1.3064513 -0.44978496
0003f0 4a f5 42 bf 7b ea 95 3e 4d a8 1c 3f 02 17 60 3f
       -0.7615553 0.29280457 0.61194307 0.8753511

node_gat1.bias f4 [256]
000000 56 0a 47 be 5f 15 25 bf 1e ba 53 bd 86 2f 45 3e
       -0.19437537 -0.64485735 -0.051691167 0.1925641
000010 6a a7 47 bf cc b6 09 bf 27 4f 23 3f 28 c3 f5 3d
       -0.7798983 -0.5379455 0.6379265 0.12000114
000020 11 82 9f bf ed 06 06 bf 4d ef 77 be ea cf 92 3d
       -1.2461568 -0.5235432 -0.2421238 0.07168563
000030 9d 9a 21 bf 81 34 b0 3d 5c 29 02 be 73 e0 08 bf
       -0.63126546 0.08603764 -0.1271109 -0.5346748
000040 83 d5 c6 bd 9c 13 26 bf 3a 48 9a bf b2 ca d1 3d
       -0.09708693 -0.6487367 -1.2053292 0.10243739
000050 21 4f ad bf ac 6d b0 bf 51 76 4e bc 57 83 2c bf
       -1.3539773 -1.3783469 -0.012601451 -0.6738791
000060 10 2b f6 3e 19 8d 51 3d 72 26 ed 3e 94 e9 9b bf
       0.4807973 0.05115995 0.46318394 -1.2180657
000070 07 2e 8d bf 19 f5 4d 3f 2b 8f d4 3e c5 38 a1 be
       -1.1029671 0.80452114 0.41515478 -0.31488624
000080 ca 2f ec 3e 08 92 29 3d 49 bd 89 bf dd 0d 2c bf
       0.4613021 0.041399032 -1.076089 -0.67208654
000090 1d 73 21 bf d0 51 9e bc 94 92 0f bf 1f c9 a6 be
       -0.63066274 -0.01932612 -0.56083035 -0.32575318
0000a0 6b 39 aa bf 57 53 c7 bf 4d 55 83 be c8 26 17 3e
       -1.3298773 -1.5572308 -0.25651017 0.14760888
0000b0 6c f4 44 3f 64 b5 e9 3d 04 22 5e bf a3 f7 db be
       0.7693546 0.11411551 -0.86770654 -0.4296237
0000c0 d5 7e b7 3e 76 9e 88 be 2f 68 88 be b2 e1 a0 bf
       0.35838953 -0.26683396 -0.26641986 -1.2568877
0000d0 dd 30 29 3e df 33 46 bf a4 79 80 bf d9 c8 82 bf
       0.16522546 -0.774229 -1.0037122 -1.0217544
0000e0 2f ce ed be b8 b1 95 3e 4c 05 b7 bf 9a 84 b7 bf
       -0.46446368 0.2923715 -1.4298491 -1.4337342
0000f0 52 08 a7 bf b6 95 37 bf e9 31 11 be ae 0c ef be
       -1.3049414 -0.71712816 -0.14179195 -0.4668936
000100 88 6d 3a be e1 50 d5 be d8 f5 5e bd 87 3d 2e bf
       -0.18205845 -0.41663268 -0.054433674 -0.68062633
000110 60 c3 33 3d 85 be 9b bd e9 1c 8f 3e ca ea 71 3e
       0.043887496 -0.07604698 0.27951744 0.23624721
000120 e5 5f e4 be 08 53 37 3f 22 47 85 bf ce f6 93 bf
       -0.44604412 0.7161107 -1.0412333 -1.1559694
000130 80 ea 7a 3f c2 fb 43 3b 7b c0 b6 be c5 0a a4 3e
       0.9801407 0.0029904698 -0.35693726 0.32039467
000140 61 a2 5c 3e 61 8b 4d 3e 59 c2 2d 3f df 70 f5 3e
       0.21546318 0.200727 0.67874676 0.47937676
000150 0d d0 90 bd 22 9d 5f be 24 86 b6 be 9d 8d 42 bf
       -0.070709325 -0.21837285 -0.35649216 -0.75997335
000160 80 6e 85 bf f6 a4 c2 be d5 39 1a 3f 87 89 02 bf
       -1.0424347 -0.3801648 0.60244495 -0.509911
000170 3d 13 4b bd b6 52 8e bf 15 2d fe 3d 77 65 42 bf
       -0.049578894 -1.1118991 0.124109425 -0.75936073
000180 fc f3 fa be 3f d9 bd 3e f9 b9 ab be 5b 23 e7 bd
       -0.4901427 0.37079808 -0.33540323 -0.112860404
000190 de 27 17 3e 3e 62 ce 3e f9 d9 70 bf 0f 79 2c bf
       0.14761302 0.40309328 -0.940826 -0.6737222
0001a0 30 25 fb 3e d1 8f 14 be 1d 4b 05 3f e9 8d 5c be
       0.4905181 -0.14507987 0.5206774 -0.2153851
0001b0 c7 9a eb 3e b2 5f 98 bd 93 fd b5 bd 68 75 94 bd
       0.46016523 -0.074401274 -0.08886256 -0.07248956
0001c0 74 a4 84 be 28 e6 b2 bf 66 f6 38 3e 95 f7 1c be
       -0.25906718 -1.3976488 0.18062744 -0.1532882
0001d0 13 f2 87 bd 18 2c df bb 67 23 18 be 77 02 bf be
       -0.06637969 -0.0068106763 -0.14857255 -0.37306568
0001e0 72 95 f8 3c 4d db 79 be f7 8d d1 be 4f 91 3a 3f
       0.030344699 -0.24400063 -0.40928623 0.72877973
0001f0 51 b9 e8 be 30 cd 89 bf de ea 6d be 2a 8c 36 bf
       -0.45453885 -1.0765743 -0.23234126 -0.71307623
000200 31 12 46 3e 5c 4e 9b bf 1f b1 1e bb 9d 5d 84 bf
       0.19342877 -1.2133288 -0.002421446 -1.0341069
000210 f3 d0 8a bf 78 57 59 3d 5b 73 97 bd f1 11 2f be
       -1.0845016 0.053061932 -0.07395049 -0.17096688
000220 62 9a 9d 3d ba ea 79 bf ce ea 10 bf a0 ed e7 be
       0.07695462 -0.9762379 -0.56608284 -0.4529848
000230 96 b0 e2 be 78 2d 84 bf ad d8 40 bf ab 7c f7 be
       -0.4427535 -1.0326376 -0.7533062 -0.48337302
000240 46 d8 a9 3e 7a 27 09 bf 20 15 22 be 4a 85 17 be
       0.33172816 -0.5357586 -0.15828371 -0.1479694
000250 cf 13 51 bf 59 22 48 bf db 9a 56 bf 78 3a 60 be
       -0.8167085 -0.7817741 -0.8383004 -0.21897304
000260 88 6f ea be 25 dd c0 3d fb e5 a0 bf b5 85 c8 be
       -0.45788217 0.0941718 -1.2570184 -0.3916451
000270 68 50 46 3d f2 3a 90 bf e8 cc 1c bf a6 31 f5 3e
       0.048416525 -1.1267989 -0.6125016 0.4788944
000280 25 20 17 bf bb 20 c5 be 15 2f b7 3e 6f b2 86 be
       -0.59033424 -0.38501534 0.35778108 -0.2630801
000290 2a a0 42 bf 8a 69 ca bf 40 5d 99 3e b8 ff a8 be
       -0.7602564 -1.5813458 0.29953957 -0.33007598
0002a0 f4 86 3b be c7 e1 53 bf 3d 30 99 3d e2 7a 58 bf
       -0.183132 -0.82766384 0.07479904 -0.84562504
0002b0 6a 90 52 3e 1b ba 31 be 11 cd 1a bc 80 fe 32 3e
       0.20562902 -0.1735615 -0.009448306 0.17479897
0002c0 2f 90 3b bf fe ce a7 3e dd 7d 05 bc f0 cb 47 3e
       -0.7326688 0.3277511 -0.008147684 0.1951139
0002d0 f2 3c cd be 43 37 93 bf a8 6f 18 bf d9 73 a3 3f
       -0.4008556 -1.150124 -0.59545374 1.2769729
0002e0 62 62 be 3e 6f 62 4c bf 69 fb 30 3e c6 92 38 be
       0.37184435 -0.798377 0.17283405 -0.1802474
0002f0 c5 e8 2e bf e2 ea 8f bf 82 6d 0c be 35 c7 2a bf
       -0.6832393 -1.1243556 -0.13713649 -0.66710216
000300 eb 7d 45 be 8c 38 3e bf 88 7b 06 3d 90 7d 13 bf
       -0.19286315 -0.74305034 0.032832652 -0.5761347
000310 04 fd 9e 3e 1b 30 01 bf 15 0b 09 be e2 b4 db 3e
       0.3105241 -0.5046403 -0.13383134 0.4291144
000320 30 4f ec be 6a 4f 40 be e8 25 a4 3d 9c 5c 10 bd
       -0.46154165 -0.18780294 0.080150425 -0.03524457
000330 1e 0c 67 be a1 79 22 be fb fa 1f 3f 7f 7a a7 3d
       -0.22563216 -0.1586671 0.6249234 0.08177661
000340 26 c0 22 bf 2c 60 0b bc 9c e6 da bf 60 99 a2 bf
       -0.63574445 -0.008506816 -1.7101626 -1.2703056
000350 d1 35 d7 be c4 38 cc bd af 12 81 bf 27 9c 8f bf
       -0.42033246 -0.09971765 -1.0083827 -1.1219529
000360 c4 a7 cb bf 96 93 c9 bd 96 6b a3 3e ae ce 96 3e
       -1.5910573 -0.09842603 0.3191802 0.2945456
000370 12 09 35 be ae d5 f3 bd ff d8 b5 3e 2e ed 51 bf
       -0.17679241 -0.119059905 0.35517117 -0.8200253
000380 5e 07 db be 5b 87 21 bf 3d 26 54 be a8 1c 5f 3e
       -0.42779058 -0.6309716 -0.20717712 0.21788275
000390 f7 a3 97 bf 15 f9 64 3d 3b b9 d8 3e 35 d7 96 3e
       -1.1846913 0.055901606 0.4232882 0.29461065
0003a0 f1 a2 8e 3d 97 6f 40 bf f6 17 44 3f 40 84 bd 3e
       0.06964672 -0.7517027 0.7659906 0.3701496
0003b0 93 ec 12 bf 66 e6 25 3f 82 eb 62 bf 8f a8 69 be
       -0.57392234 0.64804685 -0.88640606 -0.22818206
0003c0 0d 3d c2 bf 67 50 94 bf e7 22 d2 3d 29 f7 67 bf
       -1.5174881 -1.1587037 0.10260563 -0.9061151
0003d0 5f 6f 81 bd aa e7 04 be f6 bd 98 be 82 b9 a4 3e
       -0.063200705 -0.12978998 -0.2983243 0.3217278
0003e0 c4 75 99 3e 9e cc d0 3e 65 b9 1c bf 43 2c 32 bf
       0.2997266 0.4078111 -0.6122039 -0.6959879
0003f0 5a 79 08 3f 6a 2d 07 3f bd d4 03 3f a4 f9 29 bf
       0.5331017 0.5280367 0.5149649 -0.66396546

node_gat1.lin_src.weight f4 [256, 6]
000000 b3 1f 68 3f 54 1e 5c bf 2a d5 ab 3f dc 77 cb 3e
       0.9067337 -0.8598378 1.3424428 0.39739883
000010 d7 af 72 3e d8 bd 2d 3e 5b 04 fe 3d dd aa 54 bf
       0.2369989 0.16966951 0.124031745 -0.83073217
000020 00 f2 39 3e 3e d0 b3 3e b1 91 93 bf ed ef cf 3e
       0.18158722 0.35119814 -1.1528836 0.40612736
000030 67 91 48 bf 5b 12 89 be 57 3f 07 3f 68 ca 0b bf
       -0.78346866 -0.26771817 0.52831024 -0.5460572
000040 24 30 c7 3c b2 29 db be 8b a0 d6 3e 15 79 7e bc
       0.024314947 -0.42805248 0.4191936 -0.015531798
000050 ed dc cf be a4 dd 4b 3e 2d 0a 5b be 1a cf e5 be
       -0.4059824 0.19908768 -0.213906 -0.44884568
000060 4e 0a ad 3f ee b2 f8 be 4e 73 d6 3e 58 52 2d bd
       1.351877 -0.48574013 0.41884845 -0.042314857
000070 a4 0f cb be 3f 18 ed 3e 19 53 9c be ab 81 37 3e
       -0.3966037 0.4630756 -0.30532148 0.17920558
000080 be 41 18 be 07 bb 22 3e ce 51 24 3f b1 2d c5 be
       -0.14868829 0.15891658 0.64187324 -0.38511422
000090 22 82 4e bf 37 39 e2 3e 04 9e 84 3f 74 e2 06 3e
       -0.80667317 0.44184276 1.0360723 0.13172323
0000a0 02 f3 67 bf 70 ec 20 3f c0 cf 49 bf 80 a7 96 3c
       -0.90605175 0.62860775 -0.78832626 0.018390417
0000b0 fe 07 13 bf 78 fc 08 be cd f0 d9 be e3 7b 96 3e
       -0.5743407 -0.13377559 -0.4256653 0.29391393
0000c0 04 0e 17 bf 41 94 65 bf 7d 1f fd bd 29 94 79 be
       -0.5900576 -0.8967934 -0.123595215 -0.24372925
0000d0 e5 5d ce bd ed cb da 3d 6f 8e 6d 3e 2d f1 a4 be
       -0.10076503 0.10683427 0.23198865 -0.32215253
0000e0 48 17 b5 3e d5 1c 54 be 18 23 7f bf 91 98 0f 3f
       0.35369325 -0.20714124 -0.99662924 0.5609217
0000f0 0b b9 8e be a5 c6 2c 3f c4 03 50 bd 9f 3d 75 be
       -0.27875552 0.6749061 -0.05078484 -0.23949288
000100 54 36 68 bd 38 44 04 3f 85 60 5a bf 8f 4e a5 3b
       -0.056692436 0.51666594 -0.8530353 0.0050447653
000110 e3 d3 36 3f 5e ca 8a 3d a2 49 1e bd 89 f3 7d 3e
       0.71417063 0.0677688 -0.03864444 0.24799933
000120 4b dd b8 3f 6f 8b 2a be e6 e1 e9 3e 82 9e 33 3e
       1.4442533 -0.16654752 0.4568016 0.17540935
000130 f3 18 2f bd e2 d7 83 3e 49 04 86 3e 25 ae a0 be
       -0.042748403 0.25750643 0.26175144 -0.31382862
000140 d6 76 72 3f 03 26 39 3f 27 95 f5 be 8b c4 ea 3e
       0.9471258 0.72323626 -0.47965357 0.45853075
000150 8a 93 85 bf 0e aa 8e be 3e af 83 be 2d 9b 48 bf
       -1.043565 -0.27864116 -0.25719637 -0.7836178
000160 c0 46 04 3d 28 35 ca be 84 ca c9 be ce 5f 44 be
       0.032294035 -0.3949368 -0.3941232 -0.19177172
000170 25 23 0e bf 80 5f a3 3e 95 1a 9e 3e 6e e0 72 bf
       -0.55522376 0.31908798 0.30879655 -0.948737
000180 15 1d 4c bf 1d 30 17 be 79 38 dc 3f ee 32 a6 3e
       -0.79731876 -0.14764448 1.7204734 0.3246073
000190 ad 85 81 bf 99 1e e2 3d c7 d9 c9 3f 81 34 74 be
       -1.011892 0.11040992 1.5769585 -0.23848154
0001a0 0e 76 c1 3d fb 15 35 3e bb fc 92 3e a4 aa f5 bc
       0.09446345 0.17684166 0.28708443 -0.029988594
0001b0 a5 c3 e3 3e 4d d7 af 3f 7e d5 ed be d2 db cf be
       0.44485202 1.373758 -0.46451944 -0.40597397
0001c0 94 b2 4e 3e 48 85 cf 3d ec ba 36 bf b7 ad 1e bf
       0.2018531 0.10132843 -0.7137897 -0.6198382
0001d0 1a c9 dd 3f f9 b7 b7 3d 68 7d a6 bf 9e de b4 be
       1.7326996 0.08970637 -1.3007021 -0.35326093
0001e0 74 a5 93 be 00 ff dd 3d 70 c7 a2 3e bd b2 ac bd
       -0.28837168 0.10839653 0.31792784 -0.08432529
0001f0 07 ce 90 bf f6 73 cd 3d 86 97 45 bf 70 c3 2d 3e
       -1.1312875 0.100318834 -0.7718433 0.16969085
000200 c8 bf 00 3d e3 a8 0d 3e 8f a6 86 3a 64 c6 22 be
       0.031432897 0.13833956 0.0010273027 -0.15895993
000210 98 de 9c be 4e 66 20 bf 35 f1 b0 3f a7 63 0a 3e
       -0.30638576 -0.62656105 1.382361 0.13514577
000220 3e 7d 65 bf a7 d5 56 3e 5d 95 94 3f a5 a4 49 be
       -0.8964423 0.2097994 1.1608082 -0.19691713
000230 69 b2 ee 3e 7e 48 84 3e 29 b8 57 bc 1a 6e 6d 3d
       0.4662049 0.25836557 -0.013166466 0.05796633
000240 c9 07 38 3f 36 10 87 3d 93 96 c3 3d 31 c5 0d bc
       0.7188688 0.06594889 0.09550204 -0.008652971
000250 0e 21 b7 be 4b b7 a7 be 9f 82 36 3f 6a 5b 46 bf
       -0.35767406 -0.3275703 0.7129306 -0.77483237
000260 94 80 d5 3e ab e8 a6 bd 68 ee 4a bf 71 ce 63 3d
       0.4169966 -0.08149847 -0.7927003 0.0556168
000270 d2 ed 6a 3c 43 98 fa be 2f 10 77 3d e7 46 96 3e
       0.014338927 -0.4894429 0.06031817 0.2935097
000280 c3 3e af be e2 14 68 be 9b d2 97 3c 42 78 6d 3f
       -0.3422757 -0.22664216 0.018533042 0.92761624
000290 e8 98 a8 be 14 da 16 bb ce 29 36 be a6 a2 f9 be
       -0.32929158 -0.0023018168 -0.17789385 -0.48756903
0002a0 d0 9c c0 3e 9e 71 7e 3f 06 48 26 3f 92 60 1b be
       0.37619638 0.99392116 0.6495365 -0.15173557
0002b0 37 c7 cd 3d 73 87 02 bf c9 21 1c bf 61 e6 a7 3e
       0.10047763 -0.5098793 -0.6098905 0.32792953
0002c0 4e cb 64 3f c9 a6 4d be f4 d8 33 3d ab 43 9d 3e
       0.8937272 -0.20083155 0.043908074 0.3071569
0002d0 d3 07 b4 3e 53 ca ce 3e 56 10 6d 3e c4 89 46 3f
       0.3516222 0.40388736 0.23150763 0.77553964
0002e0 e1 bb 81 3d 7a bf 6b be b1 a6 17 bf ff 7b e8 3e
       0.06334663 -0.23022261 -0.59238726 0.45407102
0002f0 95 7b a9 3e ad fe fa 3d 17 20 1b 3f 02 0c b3 3e
       0.33102098 0.12255607 0.6059584 0.349701
000300 8b 32 f9 3e 87 47 e6 3e 03 e1 65 3e 9b 21 68 3e
       0.48671374 0.44976446 0.22449116 0.2266907
000310 36 0a 6b be d4 cd e4 be 83 8e 4b 3f 28 ae 45 bf
       -0.22953114 -0.44688284 0.7951433 -0.77218866
000320 7b b8 98 3f 3d e8 a3 3d 2f f6 7c bf 9d eb b9 3d
       1.1931299 0.0800328 -0.98813146 0.09078143
000330 8f 74 16 3f 73 fe 37 bf 07 8a bc 3e fc 99 34 be
       0.58771604 -0.71872634 0.36824057 -0.17636865
000340 4f 5d 60 3e 48 a1 f7 bd 03 fd da 3d f6 ea d4 3e
       0.21910594 -0.12091309 0.106927894 0.4158551
000350 8f ea 0d bf 24 59 f7 be 10 b7 d0 be b6 1b c1 3e
       -0.55436033 -0.48310196 -0.40764666 0.37716454
000360 0b a9 d3 be 15 29 8f 3f 1e 4a ab 3e e3 47 c7 bd
       -0.41339907 1.1184412 0.33454984 -0.09730508
000370 08 40 d2 3e 38 86 d2 bc fc c6 3b bf 17 7a aa bd
       0.41064477 -0.025698766 -0.733505 -0.08324068
000380 37 98 56 3f 52 69 0f bf 6a 9d ce bc f6 f9 c6 3d
       0.8382601 -0.5602008 -0.025221545 0.09715645
000390 0b bd 08 3f a9 f9 3f bf e3 e7 e7 3e ac 0f 14 3f
       0.53413457 -0.74990326 0.45294103 0.57836413
0003a0 89 da aa bd 6d 44 4b be 47 9e 84 3e 39 66 cc bf
       -0.083424635 -0.19850321 0.25902006 -1.5968696
0003b0 1e 6f ff 3f ef f2 df bd f2 a6 e3 be 1d e5 ef 3d
       1.9955785 -0.10935008 -0.44463307 0.11713622
0003c0 52 c9 38 bf 18 30 96 3e 9b 67 05 bf 43 19 53 be
       -0.7218219 0.29333568 -0.52111214 -0.20615105
0003d0 43 6d e2 3e 6b ac 36 3d 1b 62 12 3d f2 ff af 3d
       0.44223985 0.044598024 0.035738092 0.085937396
0003e0 22 48 95 3e 6c ac 73 be f3 d2 73 bb 83 2b cb 3d
       0.29156595 -0.23796242 -0.0037204593 0.099204086
0003f0 da 1d d8 be c9 d0 28 3f 69 c2 6e bf 73 e1 76 bd
       -0.42210275 0.6594358 -0.93265396 -0.0602736

node_gat1.lin_dst.weight f4 [256, 6]
000000 b3 1f 68 3f 54 1e 5c bf 2a d5 ab 3f dc 77 cb 3e
       0.9067337 -0.8598378 1.3424428 0.39739883
000010 d7 af 72 3e d8 bd 2d 3e 5b 04 fe 3d dd aa 54 bf
       0.2369989 0.16966951 0.124031745 -0.83073217
000020 00 f2 39 3e 3e d0 b3 3e b1 91 93 bf ed ef cf 3e
       0.18158722 0.35119814 -1.1528836 0.40612736
000030 67 91 48 bf 5b 12 89 be 57 3f 07 3f 68 ca 0b bf
       -0.78346866 -0.26771817 0.52831024 -0.5460572
000040 24 30 c7 3c b2 29 db be 8b a0 d6 3e 15 79 7e bc
       0.024314947 -0.42805248 0.4191936 -0.015531798
000050 ed dc cf be a4 dd 4b 3e 2d 0a 5b be 1a cf e5 be
       -0.4059824 0.19908768 -0.213906 -0.44884568
000060 4e 0a ad 3f ee b2 f8 be 4e 73 d6 3e 58 52 2d bd
       1.351877 -0.48574013 0.41884845 -0.042314857
000070 a4 0f cb be 3f 18 ed 3e 19 53 9c be ab 81 37 3e
       -0.3966037 0.4630756 -0.30532148 0.17920558
000080 be 41 18 be 07 bb 22 3e ce 51 24 3f b1 2d c5 be
       -0.14868829 0.15891658 0.64187324 -0.38511422
000090 22 82 4e bf 37 39 e2 3e 04 9e 84 3f 74 e2 06 3e
       -0.80667317 0.44184276 1.0360723 0.13172323
0000a0 02 f3 67 bf 70 ec 20 3f c0 cf 49 bf 80 a7 96 3c
       -0.90605175 0.62860775 -0.78832626 0.018390417
0000b0 fe 07 13 bf 78 fc 08 be cd f0 d9 be e3 7b 96 3e
       -0.5743407 -0.13377559 -0.4256653 0.29391393
0000c0 04 0e 17 bf 41 94 65 bf 7d 1f fd bd 29 94 79 be
       -0.5900576 -0.8967934 -0.123595215 -0.24372925
0000d0 e5 5d ce bd ed cb da 3d 6f 8e 6d 3e 2d f1 a4 be
       -0.10076503 0.10683427 0.23198865 -0.32215253
0000e0 48 17 b5 3e d5 1c 54 be 18 23 7f bf 91 98 0f 3f
       0.35369325 -0.20714124 -0.99662924 0.5609217
0000f0 0b b9 8e be a5 c6 2c 3f c4 03 50 bd 9f 3d 75 be
       -0.27875552 0.6749061 -0.05078484 -0.23949288
000100 54 36 68 bd 38 44 04 3f 85 60 5a bf 8f 4e a5 3b
       -0.056692436 0.51666594 -0.8530353 0.0050447653
000110 e3 d3 36 3f 5e ca 8a 3d a2 49 1e bd 89 f3 7d 3e
       0.71417063 0.0677688 -0.03864444 0.24799933
000120 4b dd b8 3f 6f 8b 2a be e6 e1 e9 3e 82 9e 33 3e
       1.4442533 -0.16654752 0.4568016 0.17540935
000130 f3 18 2f bd e2 d7 83 3e 49 04 86 3e 25 ae a0 be
       -0.042748403 0.25750643 0.26175144 -0.31382862
000140 d6 76 72 3f 03 26 39 3f 27 95 f5 be 8b c4 ea 3e
       0.9471258 0.72323626 -0.47965357 0.45853075
000150 8a 93 85 bf 0e aa 8e be 3e af 83 be 2d 9b 48 bf
       -1.043565 -0.27864116 -0.25719637 -0.7836178
000160 c0 46 04 3d 28 35 ca be 84 ca c9 be ce 5f 44 be
       0.032294035 -0.3949368 -0.3941232 -0.19177172
000170 25 23 0e bf 80 5f a3 3e 95 1a 9e 3e 6e e0 72 bf
       -0.55522376 0.31908798 0.30879655 -0.948737
000180 15 1d 4c bf 1d 30 17 be 79 38 dc 3f ee 32 a6 3e
       -0.79731876 -0.14764448 1.7204734 0.3246073
000190 ad 85 81 bf 99 1e e2 3d c7 d9 c9 3f 81 34 74 be
       -1.011892 0.11040992 1.5769585 -0.23848154
0001a0 0e 76 c1 3d fb 15 35 3e bb fc 92 3e a4 aa f5 bc
       0.09446345 0.17684166 0.28708443 -0.029988594
0001b0 a5 c3 e3 3e 4d d7 af 3f 7e d5 ed be d2 db cf be
       0.44485202 1.373758 -0.46451944 -0.40597397
0001c0 94 b2 4e 3e 48 85 cf 3d ec ba 36 bf b7 ad 1e bf
       0.2018531 0.10132843 -0.7137897 -0.6198382
0001d0 1a c9 dd 3f f9 b7 b7 3d 68 7d a6 bf 9e de b4 be
       1.7326996 0.08970637 -1.3007021 -0.35326093
0001e0 74 a5 93 be 00 ff dd 3d 70 c7 a2 3e bd b2 ac bd
       -0.28837168 0.10839653 0.31792784 -0.08432529
0001f0 07 ce 90 bf f6 73 cd 3d 86 97 45 bf 70 c3 2d 3e
       -1.1312875 0.100318834 -0.7718433 0.16969085
000200 c8 bf 00 3d e3 a8 0d 3e 8f a6 86 3a 64 c6 22 be
       0.031432897 0.13833956 0.0010273027 -0.15895993
000210 98 de 9c be 4e 66 20 bf 35 f1 b0 3f a7 63 0a 3e
       -0.30638576 -0.62656105 1.382361 0.13514577
000220 3e 7d 65 bf a7 d5 56 3e 5d 95 94 3f a5 a4 49 be
       -0.8964423 0.2097994 1.1608082 -0.19691713
000230 69 b2 ee 3e 7e 48 84 3e 29 b8 57 bc 1a 6e 6d 3d
       0.4662049 0.25836557 -0.013166466 0.05796633
000240 c9 07 38 3f 36 10 87 3d 93 96 c3 3d 31 c5 0d bc
       0.7188688 0.06594889 0.09550204 -0.008652971
000250 0e 21 b7 be 4b b7 a7 be 9f 82 36 3f 6a 5b 46 bf
       -0.35767406 -0.3275703 0.7129306 -0.77483237
000260 94 80 d5 3e ab e8 a6 bd 68 ee 4a bf 71 ce 63 3d
       0.4169966 -0.08149847 -0.7927003 0.0556168
000270 d2 ed 6a 3c 43 98 fa be 2f 10 77 3d e7 46 96 3e
       0.014338927 -0.4894429 0.06031817 0.2935097
000280 c3 3e af be e2 14 68 be 9b d2 97 3c 42 78 6d 3f
       -0.3422757 -0.22664216 0.018533042 0.92761624
000290 e8 98 a8 be 14 da 16 bb ce 29 36 be a6 a2 f9 be
       -0.32929158 -0.0023018168 -0.17789385 -0.48756903
0002a0 d0 9c c0 3e 9e 71 7e 3f 06 48 26 3f 92 60 1b be
       0.37619638 0.99392116 0.6495365 -0.15173557
0002b0 37 c7 cd 3d 73 87 02 bf c9 21 1c bf 61 e6 a7 3e
       0.10047763 -0.5098793 -0.6098905 0.32792953
0002c0 4e cb 64 3f c9 a6 4d be f4 d8 33 3d ab 43 9d 3e
       0.8937272 -0.20083155 0.043908074 0.3071569
0002d0 d3 07 b4 3e 53 ca ce 3e 56 10 6d 3e c4 89 46 3f
       0.3516222 0.40388736 0.23150763 0.77553964
0002e0 e1 bb 81 3d 7a bf 6b be b1 a6 17 bf ff 7b e8 3e
       0.06334663 -0.23022261 -0.59238726 0.45407102
0002f0 95 7b a9 3e ad fe fa 3d 17 20 1b 3f 02 0c b3 3e
       0.33102098 0.12255607 0.6059584 0.349701
000300 8b 32 f9 3e 87 47 e6 3e 03 e1 65 3e 9b 21 68 3e
       0.48671374 0.44976446 0.22449116 0.2266907
000310 36 0a 6b be d4 cd e4 be 83 8e 4b 3f 28 ae 45 bf
       -0.22953114 -0.44688284 0.7951433 -0.77218866
000320 7b b8 98 3f 3d e8 a3 3d 2f f6 7c bf 9d eb b9 3d
       1.1931299 0.0800328 -0.98813146 0.09078143
000330 8f 74 16 3f 73 fe 37 bf 07 8a bc 3e fc 99 34 be
       0.58771604 -0.71872634 0.36824057 -0.17636865
000340 4f 5d 60 3e 48 a1 f7 bd 03 fd da 3d f6 ea d4 3e
       0.21910594 -0.12091309 0.106927894 0.4158551
000350 8f ea 0d bf 24 59 f7 be 10 b7 d0 be b6 1b c1 3e
       -0.55436033 -0.48310196 -0.40764666 0.37716454
000360 0b a9 d3 be 15 29 8f 3f 1e 4a ab 3e e3 47 c7 bd
       -0.41339907 1.1184412 0.33454984 -0.09730508
000370 08 40 d2 3e 38 86 d2 bc fc c6 3b bf 17 7a aa bd
       0.41064477 -0.025698766 -0.733505 -0.08324068
000380 37 98 56 3f 52 69 0f bf 6a 9d ce bc f6 f9 c6 3d
       0.8382601 -0.5602008 -0.025221545 0.09715645
000390 0b bd 08 3f a9 f9 3f bf e3 e7 e7 3e ac 0f 14 3f
       0.53413457 -0.74990326 0.45294103 0.57836413
0003a0 89 da aa bd 6d 44 4b be 47 9e 84 3e 39 66 cc bf
       -0.083424635 -0.19850321 0.25902006 -1.5968696
0003b0 1e 6f ff 3f ef f2 df bd f2 a6 e3 be 1d e5 ef 3d
       1.9955785 -0.10935008 -0.44463307 0.11713622
0003c0 52 c9 38 bf 18 30 96 3e 9b 67 05 bf 43 19 53 be
       -0.7218219 0.29333568 -0.52111214 -0.20615105
0003d0 43 6d e2 3e 6b ac 36 3d 1b 62 12 3d f2 ff af 3d
       0.44223985 0.044598024 0.035738092 0.085937396
0003e0 22 48 95 3e 6c ac 73 be f3 d2 73 bb 83 2b cb 3d
       0.29156595 -0.23796242 -0.0037204593 0.099204086
0003f0 da 1d d8 be c9 d0 28 3f 69 c2 6e bf 73 e1 76 bd
       -0.42210275 0.6594358 -0.93265396 -0.0602736

node_gat2.att_src f4 [1, 4, 64]
000000 67 d9 84 3f dd 9e 23 3f 45 4d d6 3e 15 e9 be 3f
       1.0378846 0.6391428 0.41855827 1.4914881
000010 4b ed f3 be 7c 47 c9 be 66 5f 9f be a3 2d c5 be
       -0.47641978 -0.3931235 -0.3112747 -0.3851138
000020 fb 6e 3a 3e 63 0a 13 3e ee d2 66 3e 0c be ed 3d
       0.18206398 0.14359431 0.22541401 0.11608514
000030 a0 12 50 bc 4c 04 1b 3e bf 56 f8 bc bb e9 d6 be
       -0.012699753 0.15138358 -0.030314801 -0.41975197
000040 a7 54 6f be ef 9b bb 3e 01 16 4a be 2a 90 67 3c
       -0.23372136 0.36642405 -0.19734956 0.0141334925
000050 c4 05 53 3f 92 ae 63 3e 5f 5b a1 3e fe c1 65 3e
       0.8243067 0.22234562 0.31515023 0.22437283
000060 39 c5 9e 3d 67 b2 53 bd 44 3c 54 3e 8b ce 9c 3f
       0.07752461 -0.05168381 0.20726115 1.2250532
000070 3b a2 06 be bc f9 e7 bd 94 93 5d be 5a 70 48 bd
       -0.13147824 -0.1132693 -0.21638328 -0.04893527
000080 84 b3 89 3e d3 8a 49 3e 97 dd 1c 3f 43 68 91 3e
       0.26894772 0.19681863 0.6127562 0.28399858
000090 43 61 18 bf bb 5e e7 be ad 4a e4 be 58 f8 47 bf
       -0.5952341 -0.4518946 -0.44588223 -0.7811332
0000a0 42 65 d2 be 45 81 d4 be 52 c4 c3 be 24 ab b9 be
       -0.4109288 -0.41504875 -0.38235718 -0.36263382
0000b0 a6 51 61 be 52 cc 1d be 7d c9 55 be a8 90 8d be
       -0.22003803 -0.15409973 -0.20877643 -0.27649426
0000c0 0f 77 72 3d 0a ea a3 3e a9 46 01 3e 50 79 8c 3e
       0.059195574 0.32014495 0.12624611 0.27436304
0000d0 ea a9 22 bf 68 f7 d4 be fc 59 e4 be 5a 9f aa be
       -0.6354052 -0.41595006 -0.44599903 -0.333247
0000e0 f6 2d c9 3e 4d fc 2b 3f 64 cd 0b 3e 30 bb 8d 3e
       0.39292878 0.67181855 0.13652569 0.27681875
0000f0 17 15 22 3f 45 db 09 3f 8e 31 2d 3f 14 6e 02 3f
       0.6331343 0.53850204 0.6765374 0.50949216
000100 b9 00 b1 bf 67 76 10 bf c3 e2 a5 bf 53 64 1c bf
       -1.3828346 -0.5643067 -1.2959827 -0.6109058
000110 ce 41 8d bc 60 64 81 bc 38 a0 c5 3d d9 9b 29 3e
       -0.017243292 -0.015794933 0.096497 0.16563357
000120 3c 06 41 be b6 e4 cc bc b8 62 21 be 83 55 7e bd
       -0.18850034 -0.025011402 -0.15760314 -0.06209327
000130 2e f3 c9 bd 62 13 b0 3e 78 fd c0 3d be 5e a9 3e
       -0.09860836 0.34389788 0.09423345 0.33080095
000140 d6 eb 92 bf 33 9b a0 bf 8d 2e 29 be 72 84 b5 be
       -1.1478221 -1.2547363 -0.16521664 -0.3545261
000150 12 89 86 bd 1a 4b 62 3d 3a 76 98 3f 65 15 21 be
       -0.06569113 0.055247404 1.191108 -0.15730818
000160 3d 9d 31 3c 4e d4 cb 3e 56 96 8a bd 44 87 c5 3d
       0.010840711 0.39810413 -0.067669556 0.096449405
000170 35 61 e1 3c 27 35 59 bf d4 0e 26 be 63 d7 be 3c
       0.027512172 -0.8484673 -0.16216594 0.023296064
000180 93 a1 6d 3f fb 9d bb 3f f0 1c 56 be 30 e2 0f 3e
       0.9282467 1.4657587 -0.20909476 0.14051127
000190 95 a3 38 be 6b ff 27 be 4e a6 bb 3e 3d 96 64 be
       -0.18031152 -0.16406028 0.36650318 -0.22322936
0001a0 06 10 4f bf 14 5d 71 be ee 56 19 bf d4 b1 f0 be
       -0.80883825 -0.23570663 -0.5989827 -0.47010672
0001b0 81 d6 75 bc 68 32 cb bd 14 b1 b2 bd 2a 43 b9 bd
       -0.015004755 -0.099217236 -0.08725181 -0.09046014
0001c0 f9 5b 34 3e 3b ce 8e 3f d3 fc ee 3e 86 3b 18 3f
       0.1761321 1.1156687 0.46677265 0.59465826
0001d0 ac 2e 67 3e 30 c8 fc 3e a0 1f c2 be 28 9f f0 3e
       0.22576398 0.4937148 -0.37914753 0.46996427
0001e0 8a 87 ce 3f bd 92 ef 3f a3 f3 87 3f 97 c2 85 3f
       1.6135113 1.8716656 1.0621227 1.0450009
0001f0 32 45 ed 3e df 69 38 3e eb 10 8f 3f d6 e5 29 3f
       0.46341854 0.18009137 1.1177038 0.66366327
000200 f4 d4 06 3f 9a 23 8b 3e 17 8f 90 3e 5a e0 0e 3f
       0.5266869 0.271756 0.2823417 0.55811083
000210 cd db 57 be 2d 93 4e be 95 8c 56 be f8 31 98 be
       -0.21079941 -0.2017333 -0.20952065 -0.29725623
000220 1b 62 9e 3b 8c 2a a2 bc 39 66 ee 3d 67 f4 f3 3d
       0.0048334724 -0.019795679 0.11640591 0.119118504
000230 0c 70 2d bf 25 63 b7 bf ea 59 6d bf d6 66 4a bf
       -0.67749095 -1.4327132 -0.9271532 -0.79063165
000240 a4 30 a6 be fb 0e c0 be e4 45 e6 be 6b 40 ca be
       -0.32458985 -0.3751143 -0.44975197 -0.39502272
000250 c5 fc 90 bf 17 4f 21 bf f0 99 20 bf 0b fc d6 be
       -1.1327139 -0.63011307 -0.6273489 -0.4198917
000260 84 d7 2e 3e 94 0a 7e 3d 4d eb c1 3d 0f 1b 29 3f
       0.170744 0.062021807 0.09468708 0.66056913
000270 0e e3 63 be f3 5c 3c 3e 72 f2 bc be 7b d0 11 3c
       -0.22254583 0.18394832 -0.3690372 0.008899803
000280 0c bb 04 bf 3c 18 87 be f3 7f 02 bf 6f b8 55 be
       -0.5184791 -0.26385677 -0.50976485 -0.20871137
000290 3c e0 8e be 4a a6 3a 3e ff d7 24 3d 2d 6b 8d 3e
       -0.27905452 0.18227497 0.040245052 0.2762083
0002a0 c3 62 89 bf a6 7b 2d bf 99 27 eb be a4 ac 69 bf
       -1.0733265 -0.677668 -0.45928648 -0.91279054
0002b0 49 66 9d bf 2b 77 a4 3d b6 24 af bf 23 8c bd bc
       -1.229684 0.08030542 -1.3683078 -0.023138111
0002c0 d4 41 be 3e 71 35 71 be 07 79 df 3e ac ba 95 be
       0.37159598 -0.23555543 0.43647024 -0.29243982
0002d0 f2 fa 91 be 6b d7 35 bf c4 7a 75 be 69 2c 21 bf
       -0.2851177 -0.71031827 -0.23972613 -0.6295839
0002e0 ec e5 00 3f 18 9f f2 3e af 30 cd 3e c0 d9 97 3f
       0.5035083 0.47387004 0.40076205 1.1863327
0002f0 9b 8a 29 be 12 d7 a2 be 5e b6 03 bf 5e df 12 be
       -0.1655678 -0.3180471 -0.51450145 -0.1434302
000300 26 48 49 bf 3d 30 41 bf bb de 2b bf 01 8f 73 be
       -0.78625715 -0.7546423 -0.67136735 -0.2378502
000310 d2 c1 6b 3f 3c 94 d3 be ee e9 4d be 01 fd 86 bd
       0.9209262 -0.4132403 -0.20108768 -0.065912254
000320 be f9 af be 45 22 04 3c 2b 01 52 3f 0f 89 c5 be
       -0.34370226 0.008064811 0.8203303 -0.3858113
000330 fd f2 a6 be 70 7a c0 be 23 ea cf be a3 5a cb bd
       -0.3260726 -0.37593412 -0.4060832 -0.09929397
000340 83 13 99 be 02 87 09 bf 4d 35 8a be 86 78 54 bf
       -0.298977 -0.5372163 -0.2699379 -0.82996404
000350 97 3a 6a bf f6 ea 0e be c6 7d 27 bf 13 8d 96 bf
       -0.9149565 -0.13956818 -0.6542629 -1.1761802
000360 e1 e3 02 3e b8 90 57 3e d3 16 a7 3d 0f 26 1e 3f
       0.12782241 0.210513 0.0815865 0.6177682
000370 2d dd 82 bf 07 4f 51 bf 61 a5 93 bf 50 d4 10 3d
       -1.0223747 -0.8176121 -1.1534845 0.035358727
000380 71 57 6b bd 57 56 84 3d 5f 7b da be ce 59 c9 bd
       -0.057456437 0.064617805 -0.4267225 -0.09831582
000390 48 c0 87 3d 4f 47 bb 3c 9f 30 94 3e 51 58 de 3e
       0.066284716 0.022861151 0.28943345 0.43426755
0003a0 de 47 45 3f 05 9b 1c 3f ea 80 28 3f 5d 56 22 3f
       0.77062786 0.6117404 0.6582171 0.6341303
0003b0 b0 ce 64 3e 58 f1 cf be e0 36 ee 3e 34 70 ad 3e
       0.2234447 -0.40613818 0.4652624 0.33874667
0003c0 8f 37 64 be 44 64 0a be 7f 6a 93 3f 5f 13 18 3d
       -0.22286819 -0.13514811 1.1516875 0.03712785
0003d0 62 4a aa be 61 0d 73 be 91 f1 cb be 78 58 0d be
       -0.33259875 -0.23735572 -0.39832738 -0.1380328
0003e0 50 8b 3f bc dc 30 42 3f 53 9a 34 3e 17 6a 0c 3f
       -0.0116909295 0.75855803 0.17636995 0.5484938
0003f0 e2 05 d5 be b4 36 1e be 4d a6 54 be 39 0b b9 be
       -0.4160605 -0.15450555 -0.20766564 -0.36141375

node_gat2.att_dst f4 [1, 4, 64]
000000 21 15 75 be b2 2f dc 3d 90 b1 a3 be 2f ec 4c 3d
       -0.23933841 0.10751285 -0.31971407 0.05002993
000010 87 0b 64 bf f7 a8 0c bf c5 4d 34 bf 23 6a 2e bf
       -0.8908009 -0.5494532 -0.70431167 -0.681307
000020 05 5f a9 3d 51 a8 34 3f 8b 50 03 3f c6 aa ac 3e
       0.08270077 0.7056933 0.51294774 0.3372404
000030 2e 81 6e bf 5b 34 07 be 76 91 56 bf a9 f7 e2 be
       -0.9316586 -0.13203566 -0.83815706 -0.44329575
000040 34 d1 42 3e f3 f2 9f 3e 6d 11 6c 3f 5a 62 55 3e
       0.19025117 0.31240043 0.9221409 0.208383
000050 b4 4c 74 be 83 88 28 bf 86 02 f1 3b ef 51 eb be
       -0.23857385 -0.658333 0.007355037 -0.45960948
000060 23 1e 26 be ba 1d 87 be 86 51 99 bf 87 c1 73 be
       -0.16222434 -0.26389867 -1.1978004 -0.23804294
000070 9f f3 49 3e 2d 33 5a 3e c8 4a 56 3e 24 4f 2e 3e
       0.1972184 0.21308585 0.20926964 0.17022377
000080 ce 60 63 3e f6 67 9c 3e 63 83 ae 3e 12 a3 50 3e
       0.22204897 0.30548066 0.34084615 0.20374706
000090 20 4c 87 3e 74 3e 63 bf 23 72 47 bf 7d 10 51 3e
       0.26425266 -0.8876717 -0.77908534 0.20416446
0000a0 d7 6e 11 bf 48 1e fc be f4 42 39 bf 11 46 43 bf
       -0.56809753 -0.49241853 -0.7236779 -0.7627879
0000b0 db 26 b4 3e fd 5b c7 3d 31 8f 95 3c 0f d0 a9 be
       0.35185894 0.09734342 0.018256756 -0.3316655
0000c0 37 65 64 be d8 08 ea bd c3 6c 0d bf 89 76 a0 3e
       -0.22304235 -0.11427468 -0.5524408 0.31340435
0000d0 4f 31 d3 3e 87 a8 de be 72 c1 b2 3b 5d 55 33 3e
       0.41248557 -0.4348795 0.0054551894 0.17513032
0000e0 25 4f 99 3a ac b4 30 3e 0a 01 14 3e e6 3f c9 3e
       0.001169656 0.17256421 0.14453521 0.39306563
0000f0 3d 73 5b 3f 32 a2 51 3f 09 1a 92 3f b5 e3 87 3f
       0.85722715 0.81888115 1.1414195 1.0616366
000100 f0 4a 5b bf d6 80 58 bf 27 ab d2 be 7d ac b0 be
       -0.8566122 -0.8457159 -0.41146204 -0.34506598
000110 9b 1c a9 3c 8d 5b 38 be cc e6 0d 3e dd d5 49 3d
       0.020643523 -0.18003674 0.13857573 0.04927622
000120 db 65 d1 bd 3d 32 40 be 98 58 be be 53 80 a1 be
       -0.102245055 -0.18769164 -0.37176967 -0.31543216
000130 c9 21 07 3b f5 5c d7 3e 16 05 aa 3d a9 8d 81 3e
       0.0020619503 0.42063108 0.08301751 0.2530339
000140 3c 43 81 bf d7 b7 ca be 5c 2a b6 bd 45 2e 14 bf
       -1.0098643 -0.39593384 -0.08894798 -0.578831
000150 77 a4 9c bb b4 43 1a 3e 1d 0b fd 3e f8 f4 e9 3d
       -0.004780348 0.15064889 0.4942254 0.11423677
000160 a2 95 8b bd 96 b0 49 3e 0e 34 8a bd 59 de 51 be
       -0.068156496 0.19696268 -0.0674821 -0.20494975
000170 e3 fb ad be 57 52 48 bf ff d9 3a bf 30 c2 8f be
       -0.33981237 -0.7825064 -0.72988886 -0.2807784
000180 0d a9 ca 3e 17 4e bb 3e 6a 1c f5 3e 1c 3b b7 3e
       0.395821 0.36583015 0.4787324 0.35787284
000190 a7 99 8e 3c 4e 0e a8 be 0a cb 1d 3f 7c 32 9d be
       0.017407252 -0.32823414 0.6163794 -0.3070258
0001a0 d5 cf 80 be 61 a9 04 3f ad ae 21 bd 47 3f da bd
       -0.25158563 0.5182095 -0.039473224 -0.106566004
0001b0 00 9f 74 bd 26 cc a4 3c 86 78 1f 3e 3f 2e d3 3d
       -0.059721947 0.020116877 0.1557332 0.10311555
0001c0 32 da fb 3d a5 40 11 3f 0d 9a 50 3f ac fc af 3e
       0.12297477 0.56739265 0.8148506 0.3437246
0001d0 7a c4 70 3e 49 01 26 3f 22 be 54 3d 19 29 32 3f
       0.2351245 0.6484571 0.051939137 0.6959396
0001e0 76 f1 4b 3f 81 be 55 3f 72 13 2b 3f 6f 10 23 3f
       0.79665315 0.8349381 0.66826546 0.6369695
0001f0 96 90 b6 3e be 42 17 bd c7 69 71 3f e2 fc 44 3f
       0.35657185 -0.036928885 0.9430203 0.7694837
000200 5f 10 10 be ae 9f d7 be 23 54 0e be cd 4d e5 be
       -0.14068745 -0.42114013 -0.13899283 -0.4478592
000210 6e 7e 11 bf ed 01 61 bf a1 c4 2b bf 61 33 98 bf
       -0.5683354 -0.87893564 -0.67096907 -1.189068
000220 42 db 5e 3f f6 73 63 3f 4c 75 94 3f f0 ae 92 3f
       0.8705331 0.8884882 1.1598296 1.1459637
000230 1b 0b 50 bf 2a e4 a5 be 8c 6b 7a be 84 dd 59 be
       -0.81266946 -0.32400638 -0.24455088 -0.21275908
000240 71 a3 42 be 80 7d 86 3c 7b 10 a8 3e b2 17 ad bd
       -0.1900766 0.016417265 0.32825074 -0.08451785
000250 47 2e a2 be 36 07 ac be 9d 4d 18 bf 6c 46 82 be
       -0.31675932 -0.33599252 -0.5949343 -0.25444353
000260 ae 8a f4 3e 53 81 ca 3e 77 dd 46 3f 96 79 c6 3e
       0.47762054 0.39551792 0.7768168 0.38764638
000270 2f 8b c2 be 93 86 2c bf 0e b5 0e bf 46 bc 38 bf
       -0.37996814 -0.67392844 -0.5574502 -0.7216228
000280 0e 0a 4e bd 63 38 85 be 03 1b 75 be 30 4a 27 be
       -0.050302558 -0.26019582 -0.23936085 -0.16336894
000290 51 41 b8 be ed 74 30 bf 54 61 3c bf 93 a6 0d bf
       -0.35987332 -0.68928415 -0.7358601 -0.553323
0002a0 ca ff 8e bf c6 40 fd be fa ca 36 bf 9b 40 35 bf
       -1.1171811 -0.4946348 -0.7140347 -0.70801705
0002b0 84 cc 17 bf 75 ef ae be 24 71 46 be a0 90 c2 be
       -0.5929644 -0.34167066 -0.19379097 -0.38000965
0002c0 86 ea 60 3f 58 2f 48 bb 65 01 2c 3f 5c c7 d4 3e
       0.87857854 -0.0030545797 0.6718963 0.4155835
0002d0 c6 e7 86 be 7d a5 0e 3e 63 16 6c 3e 59 08 77 bd
       -0.26348704 0.13930316 0.23055415 -0.060310695
0002e0 95 26 3a 3f fc b8 7f 3f 70 ad 9d 3f 74 dc 2b 3f
       0.7271512 0.9989164 1.2318554 0.6713326
0002f0 55 00 f3 3e d2 a6 cf 3e ad 56 cc 3e ac b7 a8 3e
       0.4746119 0.4055696 0.39909878 0.3295263
000300 c6 6e 74 bd 89 c4 25 be 56 36 00 bf a8 8e 0e bf
       -0.059675954 -0.16188253 -0.5008291 -0.55686426
000310 0c cc e7 3e bf f6 a3 bd 22 f5 b3 3e 48 33 91 3f
       0.45272863 -0.080060475 0.3514796 1.1343775
000320 eb b4 a2 3f 38 f6 4f 3f 19 97 7e 3e 36 d2 c7 3f
       1.2711462 0.81235075 0.24862327 1.5611026
000330 68 37 a9 be c2 69 c4 be 28 70 0e be 23 bc 9b be
       -0.33050084 -0.38361937 -0.13909972 -0.30416974
000340 ed a1 ad bf b0 b4 9c bf 5a 00 a8 bf ab d7 c0 be
       -1.3565041 -1.2242641 -1.3125107 -0.37664542
000350 c1 7a de 3e 1f af 13 3f 2a f7 e4 3e f7 30 21 3f
       0.4345303 0.5768909 0.4471982 0.6296534
000360 21 05 73 3f e6 96 31 3f 3a 26 57 3f 87 de c4 3e
       0.949297 0.6937088 0.84042704 0.38451025
000370 ef 35 ee 3d 80 42 d0 be 50 36 4a 3c 6c 47 be be
       0.11631381 -0.40675735 0.012342051 -0.37163866
000380 08 28 4b bf 09 a4 e0 be b6 af b2 be 0f 72 42 bf
       -0.7935796 -0.4387515 -0.34899682 -0.7595529
000390 d6 e4 5e 3f 34 f3 65 3f b9 34 12 3f eb 6f 54 3f
       0.87067926 0.89824224 0.571117 0.82983273
0003a0 a7 93 80 be 2c dd e3 3e d6 28 eb be c3 67 0f be
       -0.2511265 0.44504678 -0.45929593 -0.14004426
0003b0 48 7e 9a 3d 06 41 40 be 9d bd 13 be 88 4c 66 be
       0.075436175 -0.18774804 -0.144278 -0.22490132
0003c0 f2 91 98 be 08 72 47 be c7 da 6c be a7 dc 91 be
       -0.29798847 -0.19477093 -0.23130332 -0.28488657
0003d0 14 78 28 bf 21 1b 5f bf 61 ff de be d8 35 aa be
       -0.65808225 -0.8715077 -0.43554214 -0.33244205
0003e0 da fb 8a 3e 68 d4 3c bf b7 d9 8e 3d f3 80 88 bf
       0.27145272 -0.73761606 0.069751196 -1.0664352
0003f0 54 a1 3d bf d9 ce 0e bf 26 69 ea be 87 2a 4c bf
       -0.7407429 -0.55784374 -0.45783347 -0.7975239
